{"format": "graph-model", "generatedBy": "2.10.0", "convertedBy": "TensorFlow.js Converter v3.15.0", "signature": {"inputs": {"image_array": {"name": "ToFloat:0", "dtype": "DT_FLOAT", "tensorShape": {"dim": [{"size": "-1"}, {"size": "-1"}, {"size": "-1"}, {"size": "3"}]}}}, "outputs": {"boxes": {"name": "Postprocessor/Decode/transpose_1:0", "dtype": "DT_FLOAT", "tensorShape": {"dim": [{"size": "-1"}, {"size": "4"}]}}, "scores": {"name": "Postprocessor/convert_scores:0", "dtype": "DT_FLOAT", "tensorShape": {"dim": [{"size": "-1"}, {"size": "-1"}, {"size": "2"}]}}}}, "modelTopology": {"node": [{"name": "ConstantFolding/Postprocessor/Decode/truediv_4_recip", "op": "Const", "attr": {"dtype": {"type": "DT_FLOAT"}, "value": {"tensor": {"dtype": "DT_FLOAT", "tensorShape": {}}}}}, {"name": "ConstantFolding/Postprocessor/Decode/truediv_5_recip", "op": "Const", "attr": {"value": {"tensor": {"dtype": "DT_FLOAT", "tensorShape": {}}}, "dtype": {"type": "DT_FLOAT"}}}, {"name": "ConstantFolding/Postprocessor/Decode/truediv_recip", "op": "Const", "attr": {"dtype": {"type": "DT_FLOAT"}, "value": {"tensor": {"dtype": "DT_FLOAT", "tensorShape": {}}}}}, {"name": "ConstantFolding/Postprocessor/Decode/get_center_coordinates_and_sizes/truediv_recip", "op": "Const", "attr": {"value": {"tensor": {"dtype": "DT_FLOAT", "tensorShape": {}}}, "dtype": {"type": "DT_FLOAT"}}}, {"name": "ConstantFolding/Postprocessor/Decode/truediv_2_recip", "op": "Const", "attr": {"dtype": {"type": "DT_FLOAT"}, "value": {"tensor": {"dtype": "DT_FLOAT", "tensorShape": {}}}}}, {"name": "ConstantFolding/Postprocessor/Decode/truediv_6_recip", "op": "Const", "attr": {"value": {"tensor": {"dtype": "DT_FLOAT", "tensorShape": {}}}, "dtype": {"type": "DT_FLOAT"}}}, {"name": "ConstantFolding/Postprocessor/Decode/truediv_1_recip", "op": "Const", "attr": {"dtype": {"type": "DT_FLOAT"}, "value": {"tensor": {"dtype": "DT_FLOAT", "tensorShape": {}}}}}, {"name": "ConstantFolding/Postprocessor/Decode/get_center_coordinates_and_sizes/truediv_1_recip", "op": "Const", "attr": {"dtype": {"type": "DT_FLOAT"}, "value": {"tensor": {"dtype": "DT_FLOAT", "tensorShape": {}}}}}, {"name": "Postprocessor/Reshape_1/shape", "op": "Const", "attr": {"value": {"tensor": {"dtype": "DT_INT32", "tensorShape": {"dim": [{"size": "2"}]}}}, "dtype": {"type": "DT_INT32"}}}, {"name": "Postprocessor/Decode/transpose/perm", "op": "Const", "attr": {"dtype": {"type": "DT_INT32"}, "value": {"tensor": {"dtype": "DT_INT32", "tensorShape": {"dim": [{"size": "2"}]}}}}}, {"name": "ConstantFolding/Postprocessor/Decode/truediv_3_recip", "op": "Const", "attr": {"value": {"tensor": {"dtype": "DT_FLOAT", "tensorShape": {}}}, "dtype": {"type": "DT_FLOAT"}}}, {"name": "Postprocessor/ExpandDims", "op": "Const", "attr": {"dtype": {"type": "DT_FLOAT"}, "value": {"tensor": {"dtype": "DT_FLOAT", "tensorShape": {"dim": [{"size": "1"}, {"size": "25500"}, {"size": "4"}]}}}}}, {"name": "WeightSharedConvolutionalBoxPredictor/strided_slice/stack", "op": "Const", "attr": {"value": {"tensor": {"dtype": "DT_INT32", "tensorShape": {"dim": [{"size": "1"}]}}}, "dtype": {"type": "DT_INT32"}}}, {"name": "WeightSharedConvolutionalBoxPredictor/strided_slice/stack_1", "op": "Const", "attr": {"value": {"tensor": {"dtype": "DT_INT32", "tensorShape": {"dim": [{"size": "1"}]}}}, "dtype": {"type": "DT_INT32"}}}, {"name": "WeightSharedConvolutionalBoxPredictor/strided_slice/stack_2", "op": "Const", "attr": {"value": {"tensor": {"dtype": "DT_INT32", "tensorShape": {"dim": [{"size": "1"}]}}}, "dtype": {"type": "DT_INT32"}}}, {"name": "WeightSharedConvolutionalBoxPredictor/Reshape/shape/1", "op": "Const", "attr": {"dtype": {"type": "DT_INT32"}, "value": {"tensor": {"dtype": "DT_INT32", "tensorShape": {}}}}}, {"name": "WeightSharedConvolutionalBoxPredictor/Reshape/shape/2", "op": "Const", "attr": {"dtype": {"type": "DT_INT32"}, "value": {"tensor": {"dtype": "DT_INT32", "tensorShape": {}}}}}, {"name": "WeightSharedConvolutionalBoxPredictor_1/strided_slice/stack", "op": "Const", "attr": {"value": {"tensor": {"dtype": "DT_INT32", "tensorShape": {"dim": [{"size": "1"}]}}}, "dtype": {"type": "DT_INT32"}}}, {"name": "WeightSharedConvolutionalBoxPredictor_1/strided_slice/stack_1", "op": "Const", "attr": {"dtype": {"type": "DT_INT32"}, "value": {"tensor": {"dtype": "DT_INT32", "tensorShape": {"dim": [{"size": "1"}]}}}}}, {"name": "WeightSharedConvolutionalBoxPredictor_1/strided_slice/stack_2", "op": "Const", "attr": {"value": {"tensor": {"dtype": "DT_INT32", "tensorShape": {"dim": [{"size": "1"}]}}}, "dtype": {"type": "DT_INT32"}}}, {"name": "WeightSharedConvolutionalBoxPredictor_1/Reshape/shape/1", "op": "Const", "attr": {"dtype": {"type": "DT_INT32"}, "value": {"tensor": {"dtype": "DT_INT32", "tensorShape": {}}}}}, {"name": "WeightSharedConvolutionalBoxPredictor_1/Reshape/shape/2", "op": "Const", "attr": {"dtype": {"type": "DT_INT32"}, "value": {"tensor": {"dtype": "DT_INT32", "tensorShape": {}}}}}, {"name": "WeightSharedConvolutionalBoxPredictor_2/strided_slice/stack", "op": "Const", "attr": {"dtype": {"type": "DT_INT32"}, "value": {"tensor": {"dtype": "DT_INT32", "tensorShape": {"dim": [{"size": "1"}]}}}}}, {"name": "WeightSharedConvolutionalBoxPredictor_2/strided_slice/stack_1", "op": "Const", "attr": {"dtype": {"type": "DT_INT32"}, "value": {"tensor": {"dtype": "DT_INT32", "tensorShape": {"dim": [{"size": "1"}]}}}}}, {"name": "WeightSharedConvolutionalBoxPredictor_2/strided_slice/stack_2", "op": "Const", "attr": {"value": {"tensor": {"dtype": "DT_INT32", "tensorShape": {"dim": [{"size": "1"}]}}}, "dtype": {"type": "DT_INT32"}}}, {"name": "WeightSharedConvolutionalBoxPredictor_2/Reshape/shape/1", "op": "Const", "attr": {"dtype": {"type": "DT_INT32"}, "value": {"tensor": {"dtype": "DT_INT32", "tensorShape": {}}}}}, {"name": "WeightSharedConvolutionalBoxPredictor_2/Reshape/shape/2", "op": "Const", "attr": {"value": {"tensor": {"dtype": "DT_INT32", "tensorShape": {}}}, "dtype": {"type": "DT_INT32"}}}, {"name": "WeightSharedConvolutionalBoxPredictor/BoxPredictor/depthwise_weights", "op": "Const", "attr": {"dtype": {"type": "DT_FLOAT"}, "value": {"tensor": {"dtype": "DT_FLOAT", "tensorShape": {"dim": [{"size": "3"}, {"size": "3"}, {"size": "64"}, {"size": "1"}]}}}}}, {"name": "WeightSharedConvolutionalBoxPredictor/BoxPredictor/pointwise_weights", "op": "Const", "attr": {"value": {"tensor": {"dtype": "DT_FLOAT", "tensorShape": {"dim": [{"size": "1"}, {"size": "1"}, {"size": "64"}, {"size": "48"}]}}}, "dtype": {"type": "DT_FLOAT"}}}, {"name": "WeightSharedConvolutionalBoxPredictor/BoxPredictor/biases", "op": "Const", "attr": {"dtype": {"type": "DT_FLOAT"}, "value": {"tensor": {"dtype": "DT_FLOAT", "tensorShape": {"dim": [{"size": "48"}]}}}}}, {"name": "WeightSharedConvolutionalBoxPredictor_3/strided_slice/stack", "op": "Const", "attr": {"dtype": {"type": "DT_INT32"}, "value": {"tensor": {"dtype": "DT_INT32", "tensorShape": {"dim": [{"size": "1"}]}}}}}, {"name": "WeightSharedConvolutionalBoxPredictor_3/strided_slice/stack_1", "op": "Const", "attr": {"dtype": {"type": "DT_INT32"}, "value": {"tensor": {"dtype": "DT_INT32", "tensorShape": {"dim": [{"size": "1"}]}}}}}, {"name": "WeightSharedConvolutionalBoxPredictor_3/strided_slice/stack_2", "op": "Const", "attr": {"value": {"tensor": {"dtype": "DT_INT32", "tensorShape": {"dim": [{"size": "1"}]}}}, "dtype": {"type": "DT_INT32"}}}, {"name": "WeightSharedConvolutionalBoxPredictor_3/Reshape/shape/1", "op": "Const", "attr": {"dtype": {"type": "DT_INT32"}, "value": {"tensor": {"dtype": "DT_INT32", "tensorShape": {}}}}}, {"name": "WeightSharedConvolutionalBoxPredictor_3/Reshape/shape/2", "op": "Const", "attr": {"dtype": {"type": "DT_INT32"}, "value": {"tensor": {"dtype": "DT_INT32", "tensorShape": {}}}}}, {"name": "concat/axis", "op": "Const", "attr": {"dtype": {"type": "DT_INT32"}, "value": {"tensor": {"dtype": "DT_INT32", "tensorShape": {}}}}}, {"name": "Postprocessor/strided_slice/stack", "op": "Const", "attr": {"dtype": {"type": "DT_INT32"}, "value": {"tensor": {"dtype": "DT_INT32", "tensorShape": {"dim": [{"size": "1"}]}}}}}, {"name": "Postprocessor/strided_slice/stack_1", "op": "Const", "attr": {"dtype": {"type": "DT_INT32"}, "value": {"tensor": {"dtype": "DT_INT32", "tensorShape": {"dim": [{"size": "1"}]}}}}}, {"name": "Postprocessor/strided_slice/stack_2", "op": "Const", "attr": {"dtype": {"type": "DT_INT32"}, "value": {"tensor": {"dtype": "DT_INT32", "tensorShape": {"dim": [{"size": "1"}]}}}}}, {"name": "Postprocessor/Tile/multiples/1", "op": "Const", "attr": {"dtype": {"type": "DT_INT32"}, "value": {"tensor": {"dtype": "DT_INT32", "tensorShape": {}}}}}, {"name": "Postprocessor/Tile/multiples/2", "op": "Const", "attr": {"value": {"tensor": {"dtype": "DT_INT32", "tensorShape": {}}}, "dtype": {"type": "DT_INT32"}}}, {"name": "Postprocessor/Reshape/shape", "op": "Const", "attr": {"dtype": {"type": "DT_INT32"}, "value": {"tensor": {"dtype": "DT_INT32", "tensorShape": {"dim": [{"size": "2"}]}}}}}, {"name": "Postprocessor/Decode/get_center_coordinates_and_sizes/transpose/perm", "op": "Const", "attr": {"dtype": {"type": "DT_INT32"}, "value": {"tensor": {"dtype": "DT_INT32", "tensorShape": {"dim": [{"size": "2"}]}}}}}, {"name": "ConstantFolding/Postprocessor/Decode/truediv_7_recip", "op": "Const", "attr": {"dtype": {"type": "DT_FLOAT"}, "value": {"tensor": {"dtype": "DT_FLOAT", "tensorShape": {}}}}}, {"name": "Postprocessor/Decode/transpose_1/perm", "op": "Const", "attr": {"value": {"tensor": {"dtype": "DT_INT32", "tensorShape": {"dim": [{"size": "2"}]}}}, "dtype": {"type": "DT_INT32"}}}, {"name": "FeatureExtractor/detection_mnasfpn_v1_a_320_1/feature_network/fpn_cells/cell_1/sub_policy6/resample_1_1_10/nearest_upsampling/ArithmeticOptimizer/ReduceUpsamplingDims_Multiples_Reshape_1", "op": "Const", "attr": {"value": {"tensor": {"dtype": "DT_INT32", "tensorShape": {"dim": [{"size": "4"}]}}}, "dtype": {"type": "DT_INT32"}}}, {"name": "FeatureExtractor/detection_mnasfpn_v1_a_320_1/feature_network/fpn_cells/cell_1/sub_policy6/resample_1_1_10/nearest_upsampling/Reshape_1/shape", "op": "Const", "attr": {"value": {"tensor": {"dtype": "DT_INT32", "tensorShape": {"dim": [{"size": "4"}]}}}, "dtype": {"type": "DT_INT32"}}}, {"name": "FeatureExtractor/detection_mnasfpn_v1_a_320_1/feature_network/fpn_cells/cell_1/sub_policy6/global_attention/Max/reduction_indices", "op": "Const", "attr": {"value": {"tensor": {"dtype": "DT_INT32", "tensorShape": {"dim": [{"size": "2"}]}}}, "dtype": {"type": "DT_INT32"}}}, {"name": "FeatureExtractor/fpn_cells/cell_1/sub_policy6/op_after_combine10/conv/depthwise_kernel", "op": "Const", "attr": {"dtype": {"type": "DT_FLOAT"}, "value": {"tensor": {"dtype": "DT_FLOAT", "tensorShape": {"dim": [{"size": "3"}, {"size": "3"}, {"size": "64"}, {"size": "1"}]}}}}}, {"name": "WeightSharedConvolutionalBoxPredictor/strided_slice_1/stack", "op": "Const", "attr": {"value": {"tensor": {"dtype": "DT_INT32", "tensorShape": {"dim": [{"size": "1"}]}}}, "dtype": {"type": "DT_INT32"}}}, {"name": "WeightSharedConvolutionalBoxPredictor/strided_slice_1/stack_1", "op": "Const", "attr": {"dtype": {"type": "DT_INT32"}, "value": {"tensor": {"dtype": "DT_INT32", "tensorShape": {"dim": [{"size": "1"}]}}}}}, {"name": "WeightSharedConvolutionalBoxPredictor/strided_slice_1/stack_2", "op": "Const", "attr": {"value": {"tensor": {"dtype": "DT_INT32", "tensorShape": {"dim": [{"size": "1"}]}}}, "dtype": {"type": "DT_INT32"}}}, {"name": "WeightSharedConvolutionalBoxPredictor/Reshape_2/shape/1", "op": "Const", "attr": {"value": {"tensor": {"dtype": "DT_INT32", "tensorShape": {}}}, "dtype": {"type": "DT_INT32"}}}, {"name": "WeightSharedConvolutionalBoxPredictor/Reshape_2/shape/2", "op": "Const", "attr": {"dtype": {"type": "DT_INT32"}, "value": {"tensor": {"dtype": "DT_INT32", "tensorShape": {}}}}}, {"name": "FeatureExtractor/detection_mnasfpn_v1_a_320_1/feature_network/fpn_cells/cell_1/sub_policy7/resample_1_5_11/nearest_upsampling/ArithmeticOptimizer/ReduceUpsamplingDims_Multiples_Reshape_1", "op": "Const", "attr": {"dtype": {"type": "DT_INT32"}, "value": {"tensor": {"dtype": "DT_INT32", "tensorShape": {"dim": [{"size": "4"}]}}}}}, {"name": "FeatureExtractor/detection_mnasfpn_v1_a_320_1/feature_network/fpn_cells/cell_1/sub_policy7/resample_1_5_11/nearest_upsampling/Reshape_1/shape", "op": "Const", "attr": {"value": {"tensor": {"dtype": "DT_INT32", "tensorShape": {"dim": [{"size": "4"}]}}}, "dtype": {"type": "DT_INT32"}}}, {"name": "FeatureExtractor/fpn_cells/cell_1/sub_policy7/op_after_combine11/conv/depthwise_kernel", "op": "Const", "attr": {"dtype": {"type": "DT_FLOAT"}, "value": {"tensor": {"dtype": "DT_FLOAT", "tensorShape": {"dim": [{"size": "3"}, {"size": "3"}, {"size": "64"}, {"size": "1"}]}}}}}, {"name": "WeightSharedConvolutionalBoxPredictor_1/strided_slice_1/stack", "op": "Const", "attr": {"dtype": {"type": "DT_INT32"}, "value": {"tensor": {"dtype": "DT_INT32", "tensorShape": {"dim": [{"size": "1"}]}}}}}, {"name": "WeightSharedConvolutionalBoxPredictor_1/strided_slice_1/stack_1", "op": "Const", "attr": {"value": {"tensor": {"dtype": "DT_INT32", "tensorShape": {"dim": [{"size": "1"}]}}}, "dtype": {"type": "DT_INT32"}}}, {"name": "WeightSharedConvolutionalBoxPredictor_1/strided_slice_1/stack_2", "op": "Const", "attr": {"dtype": {"type": "DT_INT32"}, "value": {"tensor": {"dtype": "DT_INT32", "tensorShape": {"dim": [{"size": "1"}]}}}}}, {"name": "WeightSharedConvolutionalBoxPredictor_1/Reshape_2/shape/1", "op": "Const", "attr": {"dtype": {"type": "DT_INT32"}, "value": {"tensor": {"dtype": "DT_INT32", "tensorShape": {}}}}}, {"name": "WeightSharedConvolutionalBoxPredictor_1/Reshape_2/shape/2", "op": "Const", "attr": {"dtype": {"type": "DT_INT32"}, "value": {"tensor": {"dtype": "DT_INT32", "tensorShape": {}}}}}, {"name": "FeatureExtractor/detection_mnasfpn_v1_a_320_1/feature_network/fpn_cells/cell_1/sub_policy0/resample_0_2_4/nearest_upsampling/ArithmeticOptimizer/ReduceUpsamplingDims_Multiples_Reshape_1", "op": "Const", "attr": {"value": {"tensor": {"dtype": "DT_INT32", "tensorShape": {"dim": [{"size": "4"}]}}}, "dtype": {"type": "DT_INT32"}}}, {"name": "FeatureExtractor/detection_mnasfpn_v1_a_320_1/feature_network/fpn_cells/cell_1/sub_policy0/resample_0_2_4/nearest_upsampling/Reshape_1/shape", "op": "Const", "attr": {"value": {"tensor": {"dtype": "DT_INT32", "tensorShape": {"dim": [{"size": "4"}]}}}, "dtype": {"type": "DT_INT32"}}}, {"name": "FeatureExtractor/detection_mnasfpn_v1_a_320_1/feature_network/fpn_cells/cell_1/sub_policy0/resample_1_3_4/nearest_upsampling/ArithmeticOptimizer/ReduceUpsamplingDims_Shape_Reshape_1", "op": "Const", "attr": {"value": {"tensor": {"dtype": "DT_INT32", "tensorShape": {"dim": [{"size": "4"}]}}}, "dtype": {"type": "DT_INT32"}}}, {"name": "FeatureExtractor/detection_mnasfpn_v1_a_320_1/feature_network/fpn_cells/cell_1/sub_policy0/resample_1_3_4/nearest_upsampling/ArithmeticOptimizer/ReduceUpsamplingDims_Multiples_Reshape_1", "op": "Const", "attr": {"value": {"tensor": {"dtype": "DT_INT32", "tensorShape": {"dim": [{"size": "4"}]}}}, "dtype": {"type": "DT_INT32"}}}, {"name": "FeatureExtractor/detection_mnasfpn_v1_a_320_1/feature_network/fpn_cells/cell_1/sub_policy0/resample_1_3_4/nearest_upsampling/Reshape_1/shape", "op": "Const", "attr": {"value": {"tensor": {"dtype": "DT_INT32", "tensorShape": {"dim": [{"size": "4"}]}}}, "dtype": {"type": "DT_INT32"}}}, {"name": "FeatureExtractor/fpn_cells/cell_1/sub_policy0/op_after_combine4/conv/depthwise_kernel", "op": "Const", "attr": {"value": {"tensor": {"dtype": "DT_FLOAT", "tensorShape": {"dim": [{"size": "3"}, {"size": "3"}, {"size": "64"}, {"size": "1"}]}}}, "dtype": {"type": "DT_FLOAT"}}}, {"name": "FeatureExtractor/detection_mnasfpn_v1_a_320_1/feature_network/fpn_cells/cell_1/sub_policy2/resample_0_2_6/nearest_upsampling/ArithmeticOptimizer/ReduceUpsamplingDims_Multiples_Reshape_1", "op": "Const", "attr": {"value": {"tensor": {"dtype": "DT_INT32", "tensorShape": {"dim": [{"size": "4"}]}}}, "dtype": {"type": "DT_INT32"}}}, {"name": "FeatureExtractor/detection_mnasfpn_v1_a_320_1/feature_network/fpn_cells/cell_1/sub_policy2/resample_0_2_6/nearest_upsampling/Reshape_1/shape", "op": "Const", "attr": {"value": {"tensor": {"dtype": "DT_INT32", "tensorShape": {"dim": [{"size": "4"}]}}}, "dtype": {"type": "DT_INT32"}}}, {"name": "FeatureExtractor/detection_mnasfpn_v1_a_320_1/feature_network/fpn_cells/cell_1/sub_policy2/global_attention/Max/reduction_indices", "op": "Const", "attr": {"dtype": {"type": "DT_INT32"}, "value": {"tensor": {"dtype": "DT_INT32", "tensorShape": {"dim": [{"size": "2"}]}}}}}, {"name": "FeatureExtractor/fpn_cells/cell_1/sub_policy2/op_after_combine6/conv/depthwise_kernel", "op": "Const", "attr": {"dtype": {"type": "DT_FLOAT"}, "value": {"tensor": {"dtype": "DT_FLOAT", "tensorShape": {"dim": [{"size": "3"}, {"size": "3"}, {"size": "64"}, {"size": "1"}]}}}}}, {"name": "FeatureExtractor/fpn_cells/cell_1/sub_policy4/op_after_combine8/conv/depthwise_kernel", "op": "Const", "attr": {"value": {"tensor": {"dtype": "DT_FLOAT", "tensorShape": {"dim": [{"size": "3"}, {"size": "3"}, {"size": "64"}, {"size": "1"}]}}}, "dtype": {"type": "DT_FLOAT"}}}, {"name": "FeatureExtractor/detection_mnasfpn_v1_a_320_1/feature_network/fpn_cells/cell_1/sub_policy5/resample_1_8_9/nearest_upsampling/ArithmeticOptimizer/ReduceUpsamplingDims_Multiples_Reshape_1", "op": "Const", "attr": {"value": {"tensor": {"dtype": "DT_INT32", "tensorShape": {"dim": [{"size": "4"}]}}}, "dtype": {"type": "DT_INT32"}}}, {"name": "FeatureExtractor/detection_mnasfpn_v1_a_320_1/feature_network/fpn_cells/cell_1/sub_policy5/resample_1_8_9/nearest_upsampling/Reshape_1/shape", "op": "Const", "attr": {"dtype": {"type": "DT_INT32"}, "value": {"tensor": {"dtype": "DT_INT32", "tensorShape": {"dim": [{"size": "4"}]}}}}}, {"name": "FeatureExtractor/fpn_cells/cell_0/sub_policy5/resample_0_1_9/conv2d/kernel", "op": "Const", "attr": {"value": {"tensor": {"dtype": "DT_FLOAT", "tensorShape": {"dim": [{"size": "1"}, {"size": "1"}, {"size": "112"}, {"size": "64"}]}}}, "dtype": {"type": "DT_FLOAT"}}}, {"name": "FeatureExtractor/fpn_cells/cell_0/sub_policy5/resample_0_1_9/conv2d/bias", "op": "Const", "attr": {"dtype": {"type": "DT_FLOAT"}, "value": {"tensor": {"dtype": "DT_FLOAT", "tensorShape": {"dim": [{"size": "64"}]}}}}}, {"name": "FeatureExtractor/fpn_cells/cell_0/sub_policy0/resample_0_2_4/conv2d/kernel", "op": "Const", "attr": {"value": {"tensor": {"dtype": "DT_FLOAT", "tensorShape": {"dim": [{"size": "1"}, {"size": "1"}, {"size": "320"}, {"size": "64"}]}}}, "dtype": {"type": "DT_FLOAT"}}}, {"name": "FeatureExtractor/fpn_cells/cell_0/sub_policy0/resample_0_2_4/conv2d/bias", "op": "Const", "attr": {"value": {"tensor": {"dtype": "DT_FLOAT", "tensorShape": {"dim": [{"size": "64"}]}}}, "dtype": {"type": "DT_FLOAT"}}}, {"name": "FeatureExtractor/detection_mnasfpn_v1_a_320_1/feature_network/fpn_cells/cell_0/sub_policy0/resample_0_2_4/nearest_upsampling/ArithmeticOptimizer/ReduceUpsamplingDims_Shape_Reshape_1", "op": "Const", "attr": {"value": {"tensor": {"dtype": "DT_INT32", "tensorShape": {"dim": [{"size": "4"}]}}}, "dtype": {"type": "DT_INT32"}}}, {"name": "FeatureExtractor/detection_mnasfpn_v1_a_320_1/feature_network/fpn_cells/cell_0/sub_policy0/resample_0_2_4/nearest_upsampling/ArithmeticOptimizer/ReduceUpsamplingDims_Multiples_Reshape_1", "op": "Const", "attr": {"dtype": {"type": "DT_INT32"}, "value": {"tensor": {"dtype": "DT_INT32", "tensorShape": {"dim": [{"size": "4"}]}}}}}, {"name": "FeatureExtractor/detection_mnasfpn_v1_a_320_1/feature_network/fpn_cells/cell_0/sub_policy0/resample_0_2_4/nearest_upsampling/Reshape_1/shape", "op": "Const", "attr": {"value": {"tensor": {"dtype": "DT_INT32", "tensorShape": {"dim": [{"size": "4"}]}}}, "dtype": {"type": "DT_INT32"}}}, {"name": "FeatureExtractor/detection_mnasfpn_v1_a_320_1/feature_network/fpn_cells/cell_0/sub_policy0/resample_1_3_4/nearest_upsampling/ArithmeticOptimizer/ReduceUpsamplingDims_Shape_Reshape_1", "op": "Const", "attr": {"value": {"tensor": {"dtype": "DT_INT32", "tensorShape": {"dim": [{"size": "4"}]}}}, "dtype": {"type": "DT_INT32"}}}, {"name": "FeatureExtractor/detection_mnasfpn_v1_a_320_1/feature_network/fpn_cells/cell_0/sub_policy0/resample_1_3_4/nearest_upsampling/ArithmeticOptimizer/ReduceUpsamplingDims_Multiples_Reshape_1", "op": "Const", "attr": {"dtype": {"type": "DT_INT32"}, "value": {"tensor": {"dtype": "DT_INT32", "tensorShape": {"dim": [{"size": "4"}]}}}}}, {"name": "FeatureExtractor/detection_mnasfpn_v1_a_320_1/feature_network/fpn_cells/cell_0/sub_policy0/resample_1_3_4/nearest_upsampling/Reshape_1/shape", "op": "Const", "attr": {"value": {"tensor": {"dtype": "DT_INT32", "tensorShape": {"dim": [{"size": "4"}]}}}, "dtype": {"type": "DT_INT32"}}}, {"name": "FeatureExtractor/fpn_cells/cell_0/sub_policy0/op_after_combine4/conv/depthwise_kernel", "op": "Const", "attr": {"dtype": {"type": "DT_FLOAT"}, "value": {"tensor": {"dtype": "DT_FLOAT", "tensorShape": {"dim": [{"size": "3"}, {"size": "3"}, {"size": "64"}, {"size": "1"}]}}}}}, {"name": "FeatureExtractor/fpn_cells/cell_0/sub_policy2/resample_0_2_6/conv2d/kernel", "op": "Const", "attr": {"dtype": {"type": "DT_FLOAT"}, "value": {"tensor": {"dtype": "DT_FLOAT", "tensorShape": {"dim": [{"size": "1"}, {"size": "1"}, {"size": "320"}, {"size": "64"}]}}}}}, {"name": "FeatureExtractor/fpn_cells/cell_0/sub_policy2/resample_0_2_6/conv2d/bias", "op": "Const", "attr": {"value": {"tensor": {"dtype": "DT_FLOAT", "tensorShape": {"dim": [{"size": "64"}]}}}, "dtype": {"type": "DT_FLOAT"}}}, {"name": "FeatureExtractor/detection_mnasfpn_v1_a_320_1/feature_network/fpn_cells/cell_0/sub_policy2/resample_0_2_6/nearest_upsampling/ArithmeticOptimizer/ReduceUpsamplingDims_Shape_Reshape_1", "op": "Const", "attr": {"dtype": {"type": "DT_INT32"}, "value": {"tensor": {"dtype": "DT_INT32", "tensorShape": {"dim": [{"size": "4"}]}}}}}, {"name": "FeatureExtractor/detection_mnasfpn_v1_a_320_1/feature_network/fpn_cells/cell_0/sub_policy2/resample_0_2_6/nearest_upsampling/ArithmeticOptimizer/ReduceUpsamplingDims_Multiples_Reshape_1", "op": "Const", "attr": {"value": {"tensor": {"dtype": "DT_INT32", "tensorShape": {"dim": [{"size": "4"}]}}}, "dtype": {"type": "DT_INT32"}}}, {"name": "FeatureExtractor/detection_mnasfpn_v1_a_320_1/feature_network/fpn_cells/cell_0/sub_policy2/resample_0_2_6/nearest_upsampling/Reshape_1/shape", "op": "Const", "attr": {"value": {"tensor": {"dtype": "DT_INT32", "tensorShape": {"dim": [{"size": "4"}]}}}, "dtype": {"type": "DT_INT32"}}}, {"name": "FeatureExtractor/detection_mnasfpn_v1_a_320_1/feature_network/fpn_cells/cell_0/sub_policy2/global_attention/Max/reduction_indices", "op": "Const", "attr": {"value": {"tensor": {"dtype": "DT_INT32", "tensorShape": {"dim": [{"size": "2"}]}}}, "dtype": {"type": "DT_INT32"}}}, {"name": "FeatureExtractor/fpn_cells/cell_0/sub_policy2/op_after_combine6/conv/depthwise_kernel", "op": "Const", "attr": {"value": {"tensor": {"dtype": "DT_FLOAT", "tensorShape": {"dim": [{"size": "3"}, {"size": "3"}, {"size": "64"}, {"size": "1"}]}}}, "dtype": {"type": "DT_FLOAT"}}}, {"name": "FeatureExtractor/fpn_cells/cell_0/sub_policy4/op_after_combine8/conv/depthwise_kernel", "op": "Const", "attr": {"dtype": {"type": "DT_FLOAT"}, "value": {"tensor": {"dtype": "DT_FLOAT", "tensorShape": {"dim": [{"size": "3"}, {"size": "3"}, {"size": "64"}, {"size": "1"}]}}}}}, {"name": "FeatureExtractor/detection_mnasfpn_v1_a_320_1/feature_network/fpn_cells/cell_0/sub_policy5/resample_1_8_9/nearest_upsampling/ArithmeticOptimizer/ReduceUpsamplingDims_Multiples_Reshape_1", "op": "Const", "attr": {"value": {"tensor": {"dtype": "DT_INT32", "tensorShape": {"dim": [{"size": "4"}]}}}, "dtype": {"type": "DT_INT32"}}}, {"name": "FeatureExtractor/detection_mnasfpn_v1_a_320_1/feature_network/fpn_cells/cell_0/sub_policy5/resample_1_8_9/nearest_upsampling/Reshape_1/shape", "op": "Const", "attr": {"value": {"tensor": {"dtype": "DT_INT32", "tensorShape": {"dim": [{"size": "4"}]}}}, "dtype": {"type": "DT_INT32"}}}, {"name": "FeatureExtractor/fpn_cells/cell_0/sub_policy3/resample_0_0_7/conv2d/kernel", "op": "Const", "attr": {"dtype": {"type": "DT_FLOAT"}, "value": {"tensor": {"dtype": "DT_FLOAT", "tensorShape": {"dim": [{"size": "1"}, {"size": "1"}, {"size": "40"}, {"size": "64"}]}}}}}, {"name": "FeatureExtractor/fpn_cells/cell_0/sub_policy3/resample_0_0_7/conv2d/bias", "op": "Const", "attr": {"dtype": {"type": "DT_FLOAT"}, "value": {"tensor": {"dtype": "DT_FLOAT", "tensorShape": {"dim": [{"size": "64"}]}}}}}, {"name": "FeatureExtractor/fpn_cells/cell_0/sub_policy3/resample_1_1_7/conv2d/kernel", "op": "Const", "attr": {"dtype": {"type": "DT_FLOAT"}, "value": {"tensor": {"dtype": "DT_FLOAT", "tensorShape": {"dim": [{"size": "1"}, {"size": "1"}, {"size": "112"}, {"size": "64"}]}}}}}, {"name": "FeatureExtractor/fpn_cells/cell_0/sub_policy3/resample_1_1_7/conv2d/bias", "op": "Const", "attr": {"value": {"tensor": {"dtype": "DT_FLOAT", "tensorShape": {"dim": [{"size": "64"}]}}}, "dtype": {"type": "DT_FLOAT"}}}, {"name": "FeatureExtractor/fpn_cells/cell_0/sub_policy3/op_after_combine7/conv/depthwise_kernel", "op": "Const", "attr": {"dtype": {"type": "DT_FLOAT"}, "value": {"tensor": {"dtype": "DT_FLOAT", "tensorShape": {"dim": [{"size": "3"}, {"size": "3"}, {"size": "64"}, {"size": "1"}]}}}}}, {"name": "FeatureExtractor/fpn_cells/cell_0/sub_policy5/op_after_combine9/conv/depthwise_kernel", "op": "Const", "attr": {"value": {"tensor": {"dtype": "DT_FLOAT", "tensorShape": {"dim": [{"size": "3"}, {"size": "3"}, {"size": "64"}, {"size": "1"}]}}}, "dtype": {"type": "DT_FLOAT"}}}, {"name": "FeatureExtractor/detection_mnasfpn_v1_a_320_1/feature_network/fpn_cells/cell_1/sub_policy1/global_attention/Max/reduction_indices", "op": "Const", "attr": {"value": {"tensor": {"dtype": "DT_INT32", "tensorShape": {"dim": [{"size": "2"}]}}}, "dtype": {"type": "DT_INT32"}}}, {"name": "FeatureExtractor/fpn_cells/cell_1/sub_policy1/op_after_combine5/conv/depthwise_kernel", "op": "Const", "attr": {"value": {"tensor": {"dtype": "DT_FLOAT", "tensorShape": {"dim": [{"size": "3"}, {"size": "3"}, {"size": "64"}, {"size": "1"}]}}}, "dtype": {"type": "DT_FLOAT"}}}, {"name": "FeatureExtractor/fpn_cells/cell_0/sub_policy6/resample_0_0_10/conv2d/kernel", "op": "Const", "attr": {"value": {"tensor": {"dtype": "DT_FLOAT", "tensorShape": {"dim": [{"size": "1"}, {"size": "1"}, {"size": "40"}, {"size": "64"}]}}}, "dtype": {"type": "DT_FLOAT"}}}, {"name": "FeatureExtractor/fpn_cells/cell_0/sub_policy6/resample_0_0_10/conv2d/bias", "op": "Const", "attr": {"dtype": {"type": "DT_FLOAT"}, "value": {"tensor": {"dtype": "DT_FLOAT", "tensorShape": {"dim": [{"size": "64"}]}}}}}, {"name": "FeatureExtractor/fpn_cells/cell_0/sub_policy6/resample_1_1_10/conv2d/kernel", "op": "Const", "attr": {"value": {"tensor": {"dtype": "DT_FLOAT", "tensorShape": {"dim": [{"size": "1"}, {"size": "1"}, {"size": "112"}, {"size": "64"}]}}}, "dtype": {"type": "DT_FLOAT"}}}, {"name": "FeatureExtractor/fpn_cells/cell_0/sub_policy6/resample_1_1_10/conv2d/bias", "op": "Const", "attr": {"dtype": {"type": "DT_FLOAT"}, "value": {"tensor": {"dtype": "DT_FLOAT", "tensorShape": {"dim": [{"size": "64"}]}}}}}, {"name": "FeatureExtractor/detection_mnasfpn_v1_a_320_1/feature_network/fpn_cells/cell_0/sub_policy6/resample_1_1_10/nearest_upsampling/ArithmeticOptimizer/ReduceUpsamplingDims_Shape_Reshape_1", "op": "Const", "attr": {"value": {"tensor": {"dtype": "DT_INT32", "tensorShape": {"dim": [{"size": "4"}]}}}, "dtype": {"type": "DT_INT32"}}}, {"name": "FeatureExtractor/detection_mnasfpn_v1_a_320_1/feature_network/fpn_cells/cell_0/sub_policy6/resample_1_1_10/nearest_upsampling/ArithmeticOptimizer/ReduceUpsamplingDims_Multiples_Reshape_1", "op": "Const", "attr": {"value": {"tensor": {"dtype": "DT_INT32", "tensorShape": {"dim": [{"size": "4"}]}}}, "dtype": {"type": "DT_INT32"}}}, {"name": "FeatureExtractor/detection_mnasfpn_v1_a_320_1/feature_network/fpn_cells/cell_0/sub_policy6/resample_1_1_10/nearest_upsampling/Reshape_1/shape", "op": "Const", "attr": {"value": {"tensor": {"dtype": "DT_INT32", "tensorShape": {"dim": [{"size": "4"}]}}}, "dtype": {"type": "DT_INT32"}}}, {"name": "FeatureExtractor/detection_mnasfpn_v1_a_320_1/feature_network/fpn_cells/cell_0/sub_policy6/global_attention/Max/reduction_indices", "op": "Const", "attr": {"dtype": {"type": "DT_INT32"}, "value": {"tensor": {"dtype": "DT_INT32", "tensorShape": {"dim": [{"size": "2"}]}}}}}, {"name": "FeatureExtractor/fpn_cells/cell_0/sub_policy6/op_after_combine10/conv/depthwise_kernel", "op": "Const", "attr": {"value": {"tensor": {"dtype": "DT_FLOAT", "tensorShape": {"dim": [{"size": "3"}, {"size": "3"}, {"size": "64"}, {"size": "1"}]}}}, "dtype": {"type": "DT_FLOAT"}}}, {"name": "FeatureExtractor/fpn_cells/cell_1/sub_policy3/op_after_combine7/conv/depthwise_kernel", "op": "Const", "attr": {"value": {"tensor": {"dtype": "DT_FLOAT", "tensorShape": {"dim": [{"size": "3"}, {"size": "3"}, {"size": "64"}, {"size": "1"}]}}}, "dtype": {"type": "DT_FLOAT"}}}, {"name": "FeatureExtractor/fpn_cells/cell_1/sub_policy5/op_after_combine9/conv/depthwise_kernel", "op": "Const", "attr": {"value": {"tensor": {"dtype": "DT_FLOAT", "tensorShape": {"dim": [{"size": "3"}, {"size": "3"}, {"size": "64"}, {"size": "1"}]}}}, "dtype": {"type": "DT_FLOAT"}}}, {"name": "WeightSharedConvolutionalBoxPredictor_2/strided_slice_1/stack", "op": "Const", "attr": {"dtype": {"type": "DT_INT32"}, "value": {"tensor": {"dtype": "DT_INT32", "tensorShape": {"dim": [{"size": "1"}]}}}}}, {"name": "WeightSharedConvolutionalBoxPredictor_2/strided_slice_1/stack_1", "op": "Const", "attr": {"dtype": {"type": "DT_INT32"}, "value": {"tensor": {"dtype": "DT_INT32", "tensorShape": {"dim": [{"size": "1"}]}}}}}, {"name": "WeightSharedConvolutionalBoxPredictor_2/strided_slice_1/stack_2", "op": "Const", "attr": {"value": {"tensor": {"dtype": "DT_INT32", "tensorShape": {"dim": [{"size": "1"}]}}}, "dtype": {"type": "DT_INT32"}}}, {"name": "WeightSharedConvolutionalBoxPredictor_2/Reshape_2/shape/1", "op": "Const", "attr": {"value": {"tensor": {"dtype": "DT_INT32", "tensorShape": {}}}, "dtype": {"type": "DT_INT32"}}}, {"name": "WeightSharedConvolutionalBoxPredictor_2/Reshape_2/shape/2", "op": "Const", "attr": {"dtype": {"type": "DT_INT32"}, "value": {"tensor": {"dtype": "DT_INT32", "tensorShape": {}}}}}, {"name": "WeightSharedConvolutionalBoxPredictor/ClassPredictor/depthwise_weights", "op": "Const", "attr": {"value": {"tensor": {"dtype": "DT_FLOAT", "tensorShape": {"dim": [{"size": "3"}, {"size": "3"}, {"size": "64"}, {"size": "1"}]}}}, "dtype": {"type": "DT_FLOAT"}}}, {"name": "WeightSharedConvolutionalBoxPredictor/ClassPredictor/pointwise_weights", "op": "Const", "attr": {"value": {"tensor": {"dtype": "DT_FLOAT", "tensorShape": {"dim": [{"size": "1"}, {"size": "1"}, {"size": "64"}, {"size": "24"}]}}}, "dtype": {"type": "DT_FLOAT"}}}, {"name": "WeightSharedConvolutionalBoxPredictor/ClassPredictor/biases", "op": "Const", "attr": {"dtype": {"type": "DT_FLOAT"}, "value": {"tensor": {"dtype": "DT_FLOAT", "tensorShape": {"dim": [{"size": "24"}]}}}}}, {"name": "FeatureExtractor/fpn_cells/cell_0/sub_policy7/resample_0_1_11/conv2d/kernel", "op": "Const", "attr": {"value": {"tensor": {"dtype": "DT_FLOAT", "tensorShape": {"dim": [{"size": "1"}, {"size": "1"}, {"size": "112"}, {"size": "64"}]}}}, "dtype": {"type": "DT_FLOAT"}}}, {"name": "FeatureExtractor/fpn_cells/cell_0/sub_policy7/resample_0_1_11/conv2d/bias", "op": "Const", "attr": {"dtype": {"type": "DT_FLOAT"}, "value": {"tensor": {"dtype": "DT_FLOAT", "tensorShape": {"dim": [{"size": "64"}]}}}}}, {"name": "FeatureExtractor/fpn_cells/cell_0/sub_policy1/resample_0_1_5/conv2d/kernel", "op": "Const", "attr": {"dtype": {"type": "DT_FLOAT"}, "value": {"tensor": {"dtype": "DT_FLOAT", "tensorShape": {"dim": [{"size": "1"}, {"size": "1"}, {"size": "112"}, {"size": "64"}]}}}}}, {"name": "FeatureExtractor/fpn_cells/cell_0/sub_policy1/resample_0_1_5/conv2d/bias", "op": "Const", "attr": {"value": {"tensor": {"dtype": "DT_FLOAT", "tensorShape": {"dim": [{"size": "64"}]}}}, "dtype": {"type": "DT_FLOAT"}}}, {"name": "FeatureExtractor/fpn_cells/cell_0/sub_policy1/resample_1_2_5/conv2d/kernel", "op": "Const", "attr": {"dtype": {"type": "DT_FLOAT"}, "value": {"tensor": {"dtype": "DT_FLOAT", "tensorShape": {"dim": [{"size": "1"}, {"size": "1"}, {"size": "320"}, {"size": "64"}]}}}}}, {"name": "FeatureExtractor/fpn_cells/cell_0/sub_policy1/resample_1_2_5/conv2d/bias", "op": "Const", "attr": {"dtype": {"type": "DT_FLOAT"}, "value": {"tensor": {"dtype": "DT_FLOAT", "tensorShape": {"dim": [{"size": "64"}]}}}}}, {"name": "FeatureExtractor/detection_mnasfpn_v1_a_320_1/feature_network/fpn_cells/cell_0/sub_policy1/global_attention/Max/reduction_indices", "op": "Const", "attr": {"dtype": {"type": "DT_INT32"}, "value": {"tensor": {"dtype": "DT_INT32", "tensorShape": {"dim": [{"size": "2"}]}}}}}, {"name": "FeatureExtractor/fpn_cells/cell_0/sub_policy1/op_after_combine5/conv/depthwise_kernel", "op": "Const", "attr": {"dtype": {"type": "DT_FLOAT"}, "value": {"tensor": {"dtype": "DT_FLOAT", "tensorShape": {"dim": [{"size": "3"}, {"size": "3"}, {"size": "64"}, {"size": "1"}]}}}}}, {"name": "FeatureExtractor/detection_mnasfpn_v1_a_320_1/feature_network/fpn_cells/cell_0/sub_policy7/resample_1_5_11/nearest_upsampling/ArithmeticOptimizer/ReduceUpsamplingDims_Shape_Reshape_1", "op": "Const", "attr": {"value": {"tensor": {"dtype": "DT_INT32", "tensorShape": {"dim": [{"size": "4"}]}}}, "dtype": {"type": "DT_INT32"}}}, {"name": "FeatureExtractor/detection_mnasfpn_v1_a_320_1/feature_network/fpn_cells/cell_0/sub_policy7/resample_1_5_11/nearest_upsampling/ArithmeticOptimizer/ReduceUpsamplingDims_Multiples_Reshape_1", "op": "Const", "attr": {"value": {"tensor": {"dtype": "DT_INT32", "tensorShape": {"dim": [{"size": "4"}]}}}, "dtype": {"type": "DT_INT32"}}}, {"name": "FeatureExtractor/detection_mnasfpn_v1_a_320_1/feature_network/fpn_cells/cell_0/sub_policy7/resample_1_5_11/nearest_upsampling/Reshape_1/shape", "op": "Const", "attr": {"dtype": {"type": "DT_INT32"}, "value": {"tensor": {"dtype": "DT_INT32", "tensorShape": {"dim": [{"size": "4"}]}}}}}, {"name": "FeatureExtractor/fpn_cells/cell_0/sub_policy7/op_after_combine11/conv/depthwise_kernel", "op": "Const", "attr": {"value": {"tensor": {"dtype": "DT_FLOAT", "tensorShape": {"dim": [{"size": "3"}, {"size": "3"}, {"size": "64"}, {"size": "1"}]}}}, "dtype": {"type": "DT_FLOAT"}}}, {"name": "FeatureExtractor/fpn_cells/cell_0/sub_policy8/resample_0_1_12/conv2d/kernel", "op": "Const", "attr": {"value": {"tensor": {"dtype": "DT_FLOAT", "tensorShape": {"dim": [{"size": "1"}, {"size": "1"}, {"size": "112"}, {"size": "64"}]}}}, "dtype": {"type": "DT_FLOAT"}}}, {"name": "FeatureExtractor/fpn_cells/cell_0/sub_policy8/resample_0_1_12/conv2d/bias", "op": "Const", "attr": {"value": {"tensor": {"dtype": "DT_FLOAT", "tensorShape": {"dim": [{"size": "64"}]}}}, "dtype": {"type": "DT_FLOAT"}}}, {"name": "FeatureExtractor/detection_mnasfpn_v1_a_320_1/mnasnet-a1/mnas_net_model/mnas_blocks_14/se/Mean/reduction_indices", "op": "Const", "attr": {"value": {"tensor": {"dtype": "DT_INT32", "tensorShape": {"dim": [{"size": "2"}]}}}, "dtype": {"type": "DT_INT32"}}}, {"name": "FeatureExtractor/mnasnet-a1/mnas_blocks_14/se/conv2d/kernel", "op": "Const", "attr": {"dtype": {"type": "DT_FLOAT"}, "value": {"tensor": {"dtype": "DT_FLOAT", "tensorShape": {"dim": [{"size": "1"}, {"size": "1"}, {"size": "960"}, {"size": "40"}]}}}}}, {"name": "FeatureExtractor/mnasnet-a1/mnas_blocks_14/se/conv2d/bias", "op": "Const", "attr": {"dtype": {"type": "DT_FLOAT"}, "value": {"tensor": {"dtype": "DT_FLOAT", "tensorShape": {"dim": [{"size": "40"}]}}}}}, {"name": "FeatureExtractor/mnasnet-a1/mnas_blocks_14/se/conv2d_1/kernel", "op": "Const", "attr": {"value": {"tensor": {"dtype": "DT_FLOAT", "tensorShape": {"dim": [{"size": "1"}, {"size": "1"}, {"size": "40"}, {"size": "960"}]}}}, "dtype": {"type": "DT_FLOAT"}}}, {"name": "FeatureExtractor/mnasnet-a1/mnas_blocks_14/se/conv2d_1/bias", "op": "Const", "attr": {"dtype": {"type": "DT_FLOAT"}, "value": {"tensor": {"dtype": "DT_FLOAT", "tensorShape": {"dim": [{"size": "960"}]}}}}}, {"name": "FeatureExtractor/detection_mnasfpn_v1_a_320_1/mnasnet-a1/mnas_net_model/mnas_blocks_13/se/Mean/reduction_indices", "op": "Const", "attr": {"dtype": {"type": "DT_INT32"}, "value": {"tensor": {"dtype": "DT_INT32", "tensorShape": {"dim": [{"size": "2"}]}}}}}, {"name": "FeatureExtractor/mnasnet-a1/mnas_blocks_13/se/conv2d/kernel", "op": "Const", "attr": {"value": {"tensor": {"dtype": "DT_FLOAT", "tensorShape": {"dim": [{"size": "1"}, {"size": "1"}, {"size": "960"}, {"size": "40"}]}}}, "dtype": {"type": "DT_FLOAT"}}}, {"name": "FeatureExtractor/mnasnet-a1/mnas_blocks_13/se/conv2d/bias", "op": "Const", "attr": {"dtype": {"type": "DT_FLOAT"}, "value": {"tensor": {"dtype": "DT_FLOAT", "tensorShape": {"dim": [{"size": "40"}]}}}}}, {"name": "FeatureExtractor/mnasnet-a1/mnas_blocks_13/se/conv2d_1/kernel", "op": "Const", "attr": {"dtype": {"type": "DT_FLOAT"}, "value": {"tensor": {"dtype": "DT_FLOAT", "tensorShape": {"dim": [{"size": "1"}, {"size": "1"}, {"size": "40"}, {"size": "960"}]}}}}}, {"name": "FeatureExtractor/mnasnet-a1/mnas_blocks_13/se/conv2d_1/bias", "op": "Const", "attr": {"value": {"tensor": {"dtype": "DT_FLOAT", "tensorShape": {"dim": [{"size": "960"}]}}}, "dtype": {"type": "DT_FLOAT"}}}, {"name": "FeatureExtractor/detection_mnasfpn_v1_a_320_1/mnasnet-a1/mnas_net_model/mnas_blocks_12/se/Mean/reduction_indices", "op": "Const", "attr": {"value": {"tensor": {"dtype": "DT_INT32", "tensorShape": {"dim": [{"size": "2"}]}}}, "dtype": {"type": "DT_INT32"}}}, {"name": "FeatureExtractor/mnasnet-a1/mnas_blocks_12/se/conv2d/kernel", "op": "Const", "attr": {"value": {"tensor": {"dtype": "DT_FLOAT", "tensorShape": {"dim": [{"size": "1"}, {"size": "1"}, {"size": "672"}, {"size": "28"}]}}}, "dtype": {"type": "DT_FLOAT"}}}, {"name": "FeatureExtractor/mnasnet-a1/mnas_blocks_12/se/conv2d/bias", "op": "Const", "attr": {"value": {"tensor": {"dtype": "DT_FLOAT", "tensorShape": {"dim": [{"size": "28"}]}}}, "dtype": {"type": "DT_FLOAT"}}}, {"name": "FeatureExtractor/mnasnet-a1/mnas_blocks_12/se/conv2d_1/kernel", "op": "Const", "attr": {"value": {"tensor": {"dtype": "DT_FLOAT", "tensorShape": {"dim": [{"size": "1"}, {"size": "1"}, {"size": "28"}, {"size": "672"}]}}}, "dtype": {"type": "DT_FLOAT"}}}, {"name": "FeatureExtractor/mnasnet-a1/mnas_blocks_12/se/conv2d_1/bias", "op": "Const", "attr": {"dtype": {"type": "DT_FLOAT"}, "value": {"tensor": {"dtype": "DT_FLOAT", "tensorShape": {"dim": [{"size": "672"}]}}}}}, {"name": "FeatureExtractor/detection_mnasfpn_v1_a_320_1/mnasnet-a1/mnas_net_model/mnas_blocks_11/se/Mean/reduction_indices", "op": "Const", "attr": {"dtype": {"type": "DT_INT32"}, "value": {"tensor": {"dtype": "DT_INT32", "tensorShape": {"dim": [{"size": "2"}]}}}}}, {"name": "FeatureExtractor/mnasnet-a1/mnas_blocks_11/se/conv2d/kernel", "op": "Const", "attr": {"value": {"tensor": {"dtype": "DT_FLOAT", "tensorShape": {"dim": [{"size": "1"}, {"size": "1"}, {"size": "672"}, {"size": "28"}]}}}, "dtype": {"type": "DT_FLOAT"}}}, {"name": "FeatureExtractor/mnasnet-a1/mnas_blocks_11/se/conv2d/bias", "op": "Const", "attr": {"dtype": {"type": "DT_FLOAT"}, "value": {"tensor": {"dtype": "DT_FLOAT", "tensorShape": {"dim": [{"size": "28"}]}}}}}, {"name": "FeatureExtractor/mnasnet-a1/mnas_blocks_11/se/conv2d_1/kernel", "op": "Const", "attr": {"dtype": {"type": "DT_FLOAT"}, "value": {"tensor": {"dtype": "DT_FLOAT", "tensorShape": {"dim": [{"size": "1"}, {"size": "1"}, {"size": "28"}, {"size": "672"}]}}}}}, {"name": "FeatureExtractor/mnasnet-a1/mnas_blocks_11/se/conv2d_1/bias", "op": "Const", "attr": {"dtype": {"type": "DT_FLOAT"}, "value": {"tensor": {"dtype": "DT_FLOAT", "tensorShape": {"dim": [{"size": "672"}]}}}}}, {"name": "FeatureExtractor/detection_mnasfpn_v1_a_320_1/mnasnet-a1/mnas_net_model/mnas_blocks_10/se/Mean/reduction_indices", "op": "Const", "attr": {"value": {"tensor": {"dtype": "DT_INT32", "tensorShape": {"dim": [{"size": "2"}]}}}, "dtype": {"type": "DT_INT32"}}}, {"name": "FeatureExtractor/mnasnet-a1/mnas_blocks_10/se/conv2d/kernel", "op": "Const", "attr": {"dtype": {"type": "DT_FLOAT"}, "value": {"tensor": {"dtype": "DT_FLOAT", "tensorShape": {"dim": [{"size": "1"}, {"size": "1"}, {"size": "480"}, {"size": "20"}]}}}}}, {"name": "FeatureExtractor/mnasnet-a1/mnas_blocks_10/se/conv2d/bias", "op": "Const", "attr": {"value": {"tensor": {"dtype": "DT_FLOAT", "tensorShape": {"dim": [{"size": "20"}]}}}, "dtype": {"type": "DT_FLOAT"}}}, {"name": "FeatureExtractor/mnasnet-a1/mnas_blocks_10/se/conv2d_1/kernel", "op": "Const", "attr": {"dtype": {"type": "DT_FLOAT"}, "value": {"tensor": {"dtype": "DT_FLOAT", "tensorShape": {"dim": [{"size": "1"}, {"size": "1"}, {"size": "20"}, {"size": "480"}]}}}}}, {"name": "FeatureExtractor/mnasnet-a1/mnas_blocks_10/se/conv2d_1/bias", "op": "Const", "attr": {"dtype": {"type": "DT_FLOAT"}, "value": {"tensor": {"dtype": "DT_FLOAT", "tensorShape": {"dim": [{"size": "480"}]}}}}}, {"name": "FeatureExtractor/detection_mnasfpn_v1_a_320_1/mnasnet-a1/mnas_net_model/mnas_blocks_5/se/Mean/reduction_indices", "op": "Const", "attr": {"dtype": {"type": "DT_INT32"}, "value": {"tensor": {"dtype": "DT_INT32", "tensorShape": {"dim": [{"size": "2"}]}}}}}, {"name": "FeatureExtractor/mnasnet-a1/mnas_blocks_5/se/conv2d/kernel", "op": "Const", "attr": {"dtype": {"type": "DT_FLOAT"}, "value": {"tensor": {"dtype": "DT_FLOAT", "tensorShape": {"dim": [{"size": "1"}, {"size": "1"}, {"size": "120"}, {"size": "10"}]}}}}}, {"name": "FeatureExtractor/mnasnet-a1/mnas_blocks_5/se/conv2d/bias", "op": "Const", "attr": {"value": {"tensor": {"dtype": "DT_FLOAT", "tensorShape": {"dim": [{"size": "10"}]}}}, "dtype": {"type": "DT_FLOAT"}}}, {"name": "FeatureExtractor/mnasnet-a1/mnas_blocks_5/se/conv2d_1/kernel", "op": "Const", "attr": {"dtype": {"type": "DT_FLOAT"}, "value": {"tensor": {"dtype": "DT_FLOAT", "tensorShape": {"dim": [{"size": "1"}, {"size": "1"}, {"size": "10"}, {"size": "120"}]}}}}}, {"name": "FeatureExtractor/mnasnet-a1/mnas_blocks_5/se/conv2d_1/bias", "op": "Const", "attr": {"value": {"tensor": {"dtype": "DT_FLOAT", "tensorShape": {"dim": [{"size": "120"}]}}}, "dtype": {"type": "DT_FLOAT"}}}, {"name": "FeatureExtractor/detection_mnasfpn_v1_a_320_1/mnasnet-a1/mnas_net_model/mnas_blocks_4/se/Mean/reduction_indices", "op": "Const", "attr": {"dtype": {"type": "DT_INT32"}, "value": {"tensor": {"dtype": "DT_INT32", "tensorShape": {"dim": [{"size": "2"}]}}}}}, {"name": "FeatureExtractor/mnasnet-a1/mnas_blocks_4/se/conv2d/kernel", "op": "Const", "attr": {"dtype": {"type": "DT_FLOAT"}, "value": {"tensor": {"dtype": "DT_FLOAT", "tensorShape": {"dim": [{"size": "1"}, {"size": "1"}, {"size": "120"}, {"size": "10"}]}}}}}, {"name": "FeatureExtractor/mnasnet-a1/mnas_blocks_4/se/conv2d/bias", "op": "Const", "attr": {"value": {"tensor": {"dtype": "DT_FLOAT", "tensorShape": {"dim": [{"size": "10"}]}}}, "dtype": {"type": "DT_FLOAT"}}}, {"name": "FeatureExtractor/mnasnet-a1/mnas_blocks_4/se/conv2d_1/kernel", "op": "Const", "attr": {"value": {"tensor": {"dtype": "DT_FLOAT", "tensorShape": {"dim": [{"size": "1"}, {"size": "1"}, {"size": "10"}, {"size": "120"}]}}}, "dtype": {"type": "DT_FLOAT"}}}, {"name": "FeatureExtractor/mnasnet-a1/mnas_blocks_4/se/conv2d_1/bias", "op": "Const", "attr": {"value": {"tensor": {"dtype": "DT_FLOAT", "tensorShape": {"dim": [{"size": "120"}]}}}, "dtype": {"type": "DT_FLOAT"}}}, {"name": "FeatureExtractor/detection_mnasfpn_v1_a_320_1/mnasnet-a1/mnas_net_model/mnas_blocks_3/se/Mean/reduction_indices", "op": "Const", "attr": {"value": {"tensor": {"dtype": "DT_INT32", "tensorShape": {"dim": [{"size": "2"}]}}}, "dtype": {"type": "DT_INT32"}}}, {"name": "FeatureExtractor/mnasnet-a1/mnas_blocks_3/se/conv2d/kernel", "op": "Const", "attr": {"dtype": {"type": "DT_FLOAT"}, "value": {"tensor": {"dtype": "DT_FLOAT", "tensorShape": {"dim": [{"size": "1"}, {"size": "1"}, {"size": "72"}, {"size": "6"}]}}}}}, {"name": "FeatureExtractor/mnasnet-a1/mnas_blocks_3/se/conv2d/bias", "op": "Const", "attr": {"dtype": {"type": "DT_FLOAT"}, "value": {"tensor": {"dtype": "DT_FLOAT", "tensorShape": {"dim": [{"size": "6"}]}}}}}, {"name": "FeatureExtractor/mnasnet-a1/mnas_blocks_3/se/conv2d_1/kernel", "op": "Const", "attr": {"dtype": {"type": "DT_FLOAT"}, "value": {"tensor": {"dtype": "DT_FLOAT", "tensorShape": {"dim": [{"size": "1"}, {"size": "1"}, {"size": "6"}, {"size": "72"}]}}}}}, {"name": "FeatureExtractor/mnasnet-a1/mnas_blocks_3/se/conv2d_1/bias", "op": "Const", "attr": {"value": {"tensor": {"dtype": "DT_FLOAT", "tensorShape": {"dim": [{"size": "72"}]}}}, "dtype": {"type": "DT_FLOAT"}}}, {"name": "Preprocessor/map/TensorArrayStack/range/start", "op": "Const", "attr": {"value": {"tensor": {"dtype": "DT_INT32", "tensorShape": {}}}, "dtype": {"type": "DT_INT32"}}}, {"name": "Preprocessor/map/TensorArrayStack/range/delta", "op": "Const", "attr": {"dtype": {"type": "DT_INT32"}, "value": {"tensor": {"dtype": "DT_INT32", "tensorShape": {}}}}}, {"name": "Preprocessor/map/TensorArrayUnstack/range/start", "op": "Const", "attr": {"dtype": {"type": "DT_INT32"}, "value": {"tensor": {"dtype": "DT_INT32", "tensorShape": {}}}}}, {"name": "Preprocessor/map/TensorArrayUnstack/strided_slice/stack", "op": "Const", "attr": {"value": {"tensor": {"dtype": "DT_INT32", "tensorShape": {"dim": [{"size": "1"}]}}}, "dtype": {"type": "DT_INT32"}}}, {"name": "Preprocessor/map/TensorArrayUnstack/strided_slice/stack_1", "op": "Const", "attr": {"dtype": {"type": "DT_INT32"}, "value": {"tensor": {"dtype": "DT_INT32", "tensorShape": {"dim": [{"size": "1"}]}}}}}, {"name": "Preprocessor/map/TensorArrayUnstack/strided_slice/stack_2", "op": "Const", "attr": {"dtype": {"type": "DT_INT32"}, "value": {"tensor": {"dtype": "DT_INT32", "tensorShape": {"dim": [{"size": "1"}]}}}}}, {"name": "Preprocessor/map/TensorArrayUnstack/range/delta", "op": "Const", "attr": {"value": {"tensor": {"dtype": "DT_INT32", "tensorShape": {}}}, "dtype": {"type": "DT_INT32"}}}, {"name": "Preprocessor/map/Const", "op": "Const", "attr": {"dtype": {"type": "DT_INT32"}, "value": {"tensor": {"dtype": "DT_INT32", "tensorShape": {}}}}}, {"name": "Preprocessor/map/while/iteration_counter", "op": "Const", "attr": {"value": {"tensor": {"dtype": "DT_INT32", "tensorShape": {}}}, "dtype": {"type": "DT_INT32"}}}, {"name": "Preprocessor/mul/x", "op": "Const", "attr": {"dtype": {"type": "DT_FLOAT"}, "value": {"tensor": {"dtype": "DT_FLOAT", "tensorShape": {}}}}}, {"name": "Preprocessor/sub/y", "op": "Const", "attr": {"value": {"tensor": {"dtype": "DT_FLOAT", "tensorShape": {}}}, "dtype": {"type": "DT_FLOAT"}}}, {"name": "Preprocessor/map/strided_slice/stack", "op": "Const", "attr": {"value": {"tensor": {"dtype": "DT_INT32", "tensorShape": {"dim": [{"size": "1"}]}}}, "dtype": {"type": "DT_INT32"}}}, {"name": "Preprocessor/map/strided_slice/stack_1", "op": "Const", "attr": {"dtype": {"type": "DT_INT32"}, "value": {"tensor": {"dtype": "DT_INT32", "tensorShape": {"dim": [{"size": "1"}]}}}}}, {"name": "Preprocessor/map/strided_slice/stack_2", "op": "Const", "attr": {"dtype": {"type": "DT_INT32"}, "value": {"tensor": {"dtype": "DT_INT32", "tensorShape": {"dim": [{"size": "1"}]}}}}}, {"name": "FeatureExtractor/resample_p6/conv2d/kernel", "op": "Const", "attr": {"value": {"tensor": {"dtype": "DT_FLOAT", "tensorShape": {"dim": [{"size": "1"}, {"size": "1"}, {"size": "320"}, {"size": "64"}]}}}, "dtype": {"type": "DT_FLOAT"}}}, {"name": "FeatureExtractor/resample_p6/conv2d/bias", "op": "Const", "attr": {"dtype": {"type": "DT_FLOAT"}, "value": {"tensor": {"dtype": "DT_FLOAT", "tensorShape": {"dim": [{"size": "64"}]}}}}}, {"name": "FeatureExtractor/detection_mnasfpn_v1_a_320_1/feature_network/fpn_cells/cell_0/sub_policy8/global_attention/Max/reduction_indices", "op": "Const", "attr": {"dtype": {"type": "DT_INT32"}, "value": {"tensor": {"dtype": "DT_INT32", "tensorShape": {"dim": [{"size": "2"}]}}}}}, {"name": "FeatureExtractor/fpn_cells/cell_0/sub_policy8/op_after_combine12/conv/depthwise_kernel", "op": "Const", "attr": {"value": {"tensor": {"dtype": "DT_FLOAT", "tensorShape": {"dim": [{"size": "3"}, {"size": "3"}, {"size": "64"}, {"size": "1"}]}}}, "dtype": {"type": "DT_FLOAT"}}}, {"name": "FeatureExtractor/detection_mnasfpn_v1_a_320_1/feature_network/fpn_cells/cell_1/sub_policy8/global_attention/Max/reduction_indices", "op": "Const", "attr": {"value": {"tensor": {"dtype": "DT_INT32", "tensorShape": {"dim": [{"size": "2"}]}}}, "dtype": {"type": "DT_INT32"}}}, {"name": "FeatureExtractor/fpn_cells/cell_1/sub_policy8/op_after_combine12/conv/depthwise_kernel", "op": "Const", "attr": {"value": {"tensor": {"dtype": "DT_FLOAT", "tensorShape": {"dim": [{"size": "3"}, {"size": "3"}, {"size": "64"}, {"size": "1"}]}}}, "dtype": {"type": "DT_FLOAT"}}}, {"name": "WeightSharedConvolutionalBoxPredictor_3/strided_slice_1/stack", "op": "Const", "attr": {"value": {"tensor": {"dtype": "DT_INT32", "tensorShape": {"dim": [{"size": "1"}]}}}, "dtype": {"type": "DT_INT32"}}}, {"name": "WeightSharedConvolutionalBoxPredictor_3/strided_slice_1/stack_1", "op": "Const", "attr": {"value": {"tensor": {"dtype": "DT_INT32", "tensorShape": {"dim": [{"size": "1"}]}}}, "dtype": {"type": "DT_INT32"}}}, {"name": "WeightSharedConvolutionalBoxPredictor_3/strided_slice_1/stack_2", "op": "Const", "attr": {"dtype": {"type": "DT_INT32"}, "value": {"tensor": {"dtype": "DT_INT32", "tensorShape": {"dim": [{"size": "1"}]}}}}}, {"name": "WeightSharedConvolutionalBoxPredictor_3/Reshape_2/shape/1", "op": "Const", "attr": {"dtype": {"type": "DT_INT32"}, "value": {"tensor": {"dtype": "DT_INT32", "tensorShape": {}}}}}, {"name": "WeightSharedConvolutionalBoxPredictor_3/Reshape_2/shape/2", "op": "Const", "attr": {"value": {"tensor": {"dtype": "DT_INT32", "tensorShape": {}}}, "dtype": {"type": "DT_INT32"}}}, {"name": "concat_1/axis", "op": "Const", "attr": {"dtype": {"type": "DT_INT32"}, "value": {"tensor": {"dtype": "DT_INT32", "tensorShape": {}}}}}, {"name": "map/Const", "op": "Const", "attr": {"value": {"tensor": {"dtype": "DT_INT32", "tensorShape": {}}}, "dtype": {"type": "DT_INT32"}}}, {"name": "map/while/iteration_counter", "op": "Const", "attr": {"dtype": {"type": "DT_INT32"}, "value": {"tensor": {"dtype": "DT_INT32", "tensorShape": {}}}}}, {"name": "encoded_image_string_tensor/input", "op": "Const", "attr": {"value": {"tensor": {"dtype": "DT_STRING", "tensorShape": {"dim": [{"size": "1"}]}}}, "dtype": {"type": "DT_STRING"}}}, {"name": "FeatureExtractor/detection_mnasfpn_v1_a_320_1/mnasnet-a1/mnas_net_model/mnas_stem/conv2d/Conv2D_weights", "op": "Const", "attr": {"dtype": {"type": "DT_FLOAT"}, "value": {"tensor": {"dtype": "DT_FLOAT", "tensorShape": {"dim": [{"size": "3"}, {"size": "3"}, {"size": "3"}, {"size": "32"}]}}}}}, {"name": "FeatureExtractor/detection_mnasfpn_v1_a_320_1/mnasnet-a1/mnas_net_model/mnas_stem/conv2d/Conv2D_bn_offset", "op": "Const", "attr": {"dtype": {"type": "DT_FLOAT"}, "value": {"tensor": {"dtype": "DT_FLOAT", "tensorShape": {"dim": [{"size": "32"}]}}}}}, {"name": "FeatureExtractor/detection_mnasfpn_v1_a_320_1/mnasnet-a1/mnas_net_model/mnas_blocks_0/depthwise_conv2d/depthwise_weights", "op": "Const", "attr": {"value": {"tensor": {"dtype": "DT_FLOAT", "tensorShape": {"dim": [{"size": "3"}, {"size": "3"}, {"size": "32"}, {"size": "1"}]}}}, "dtype": {"type": "DT_FLOAT"}}}, {"name": "FeatureExtractor/detection_mnasfpn_v1_a_320_1/mnasnet-a1/mnas_net_model/mnas_blocks_0/depthwise_conv2d/depthwise_bn_offset", "op": "Const", "attr": {"value": {"tensor": {"dtype": "DT_FLOAT", "tensorShape": {"dim": [{"size": "32"}]}}}, "dtype": {"type": "DT_FLOAT"}}}, {"name": "FeatureExtractor/detection_mnasfpn_v1_a_320_1/mnasnet-a1/mnas_net_model/mnas_blocks_0/conv2d/Conv2D_weights", "op": "Const", "attr": {"dtype": {"type": "DT_FLOAT"}, "value": {"tensor": {"dtype": "DT_FLOAT", "tensorShape": {"dim": [{"size": "1"}, {"size": "1"}, {"size": "32"}, {"size": "16"}]}}}}}, {"name": "FeatureExtractor/detection_mnasfpn_v1_a_320_1/mnasnet-a1/mnas_net_model/mnas_blocks_0/conv2d/Conv2D_bn_offset", "op": "Const", "attr": {"value": {"tensor": {"dtype": "DT_FLOAT", "tensorShape": {"dim": [{"size": "16"}]}}}, "dtype": {"type": "DT_FLOAT"}}}, {"name": "FeatureExtractor/detection_mnasfpn_v1_a_320_1/mnasnet-a1/mnas_net_model/mnas_blocks_1/conv2d/Conv2D_weights", "op": "Const", "attr": {"value": {"tensor": {"dtype": "DT_FLOAT", "tensorShape": {"dim": [{"size": "1"}, {"size": "1"}, {"size": "16"}, {"size": "96"}]}}}, "dtype": {"type": "DT_FLOAT"}}}, {"name": "FeatureExtractor/detection_mnasfpn_v1_a_320_1/mnasnet-a1/mnas_net_model/mnas_blocks_1/conv2d/Conv2D_bn_offset", "op": "Const", "attr": {"dtype": {"type": "DT_FLOAT"}, "value": {"tensor": {"dtype": "DT_FLOAT", "tensorShape": {"dim": [{"size": "96"}]}}}}}, {"name": "FeatureExtractor/detection_mnasfpn_v1_a_320_1/mnasnet-a1/mnas_net_model/mnas_blocks_1/depthwise_conv2d/depthwise_weights", "op": "Const", "attr": {"dtype": {"type": "DT_FLOAT"}, "value": {"tensor": {"dtype": "DT_FLOAT", "tensorShape": {"dim": [{"size": "3"}, {"size": "3"}, {"size": "96"}, {"size": "1"}]}}}}}, {"name": "FeatureExtractor/detection_mnasfpn_v1_a_320_1/mnasnet-a1/mnas_net_model/mnas_blocks_1/depthwise_conv2d/depthwise_bn_offset", "op": "Const", "attr": {"value": {"tensor": {"dtype": "DT_FLOAT", "tensorShape": {"dim": [{"size": "96"}]}}}, "dtype": {"type": "DT_FLOAT"}}}, {"name": "FeatureExtractor/detection_mnasfpn_v1_a_320_1/mnasnet-a1/mnas_net_model/mnas_blocks_1/conv2d_1/Conv2D_weights", "op": "Const", "attr": {"value": {"tensor": {"dtype": "DT_FLOAT", "tensorShape": {"dim": [{"size": "1"}, {"size": "1"}, {"size": "96"}, {"size": "24"}]}}}, "dtype": {"type": "DT_FLOAT"}}}, {"name": "FeatureExtractor/detection_mnasfpn_v1_a_320_1/mnasnet-a1/mnas_net_model/mnas_blocks_1/conv2d_1/Conv2D_bn_offset", "op": "Const", "attr": {"value": {"tensor": {"dtype": "DT_FLOAT", "tensorShape": {"dim": [{"size": "24"}]}}}, "dtype": {"type": "DT_FLOAT"}}}, {"name": "FeatureExtractor/detection_mnasfpn_v1_a_320_1/mnasnet-a1/mnas_net_model/mnas_blocks_2/conv2d/Conv2D_weights", "op": "Const", "attr": {"dtype": {"type": "DT_FLOAT"}, "value": {"tensor": {"dtype": "DT_FLOAT", "tensorShape": {"dim": [{"size": "1"}, {"size": "1"}, {"size": "24"}, {"size": "144"}]}}}}}, {"name": "FeatureExtractor/detection_mnasfpn_v1_a_320_1/mnasnet-a1/mnas_net_model/mnas_blocks_2/conv2d/Conv2D_bn_offset", "op": "Const", "attr": {"dtype": {"type": "DT_FLOAT"}, "value": {"tensor": {"dtype": "DT_FLOAT", "tensorShape": {"dim": [{"size": "144"}]}}}}}, {"name": "FeatureExtractor/detection_mnasfpn_v1_a_320_1/mnasnet-a1/mnas_net_model/mnas_blocks_2/depthwise_conv2d/depthwise_weights", "op": "Const", "attr": {"value": {"tensor": {"dtype": "DT_FLOAT", "tensorShape": {"dim": [{"size": "3"}, {"size": "3"}, {"size": "144"}, {"size": "1"}]}}}, "dtype": {"type": "DT_FLOAT"}}}, {"name": "FeatureExtractor/detection_mnasfpn_v1_a_320_1/mnasnet-a1/mnas_net_model/mnas_blocks_2/depthwise_conv2d/depthwise_bn_offset", "op": "Const", "attr": {"dtype": {"type": "DT_FLOAT"}, "value": {"tensor": {"dtype": "DT_FLOAT", "tensorShape": {"dim": [{"size": "144"}]}}}}}, {"name": "FeatureExtractor/detection_mnasfpn_v1_a_320_1/mnasnet-a1/mnas_net_model/mnas_blocks_2/conv2d_1/Conv2D_weights", "op": "Const", "attr": {"value": {"tensor": {"dtype": "DT_FLOAT", "tensorShape": {"dim": [{"size": "1"}, {"size": "1"}, {"size": "144"}, {"size": "24"}]}}}, "dtype": {"type": "DT_FLOAT"}}}, {"name": "FeatureExtractor/detection_mnasfpn_v1_a_320_1/mnasnet-a1/mnas_net_model/mnas_blocks_2/conv2d_1/Conv2D_bn_offset", "op": "Const", "attr": {"value": {"tensor": {"dtype": "DT_FLOAT", "tensorShape": {"dim": [{"size": "24"}]}}}, "dtype": {"type": "DT_FLOAT"}}}, {"name": "FeatureExtractor/detection_mnasfpn_v1_a_320_1/mnasnet-a1/mnas_net_model/mnas_blocks_3/conv2d/Conv2D_weights", "op": "Const", "attr": {"value": {"tensor": {"dtype": "DT_FLOAT", "tensorShape": {"dim": [{"size": "1"}, {"size": "1"}, {"size": "24"}, {"size": "72"}]}}}, "dtype": {"type": "DT_FLOAT"}}}, {"name": "FeatureExtractor/detection_mnasfpn_v1_a_320_1/mnasnet-a1/mnas_net_model/mnas_blocks_3/conv2d/Conv2D_bn_offset", "op": "Const", "attr": {"dtype": {"type": "DT_FLOAT"}, "value": {"tensor": {"dtype": "DT_FLOAT", "tensorShape": {"dim": [{"size": "72"}]}}}}}, {"name": "FeatureExtractor/detection_mnasfpn_v1_a_320_1/mnasnet-a1/mnas_net_model/mnas_blocks_3/depthwise_conv2d/depthwise_weights", "op": "Const", "attr": {"dtype": {"type": "DT_FLOAT"}, "value": {"tensor": {"dtype": "DT_FLOAT", "tensorShape": {"dim": [{"size": "5"}, {"size": "5"}, {"size": "72"}, {"size": "1"}]}}}}}, {"name": "FeatureExtractor/detection_mnasfpn_v1_a_320_1/mnasnet-a1/mnas_net_model/mnas_blocks_3/depthwise_conv2d/depthwise_bn_offset", "op": "Const", "attr": {"value": {"tensor": {"dtype": "DT_FLOAT", "tensorShape": {"dim": [{"size": "72"}]}}}, "dtype": {"type": "DT_FLOAT"}}}, {"name": "FeatureExtractor/detection_mnasfpn_v1_a_320_1/feature_network/fpn_cells/cell_1/sub_policy0/op_after_combine4/conv/separable_conv2d_weights", "op": "Const", "attr": {"dtype": {"type": "DT_FLOAT"}, "value": {"tensor": {"dtype": "DT_FLOAT", "tensorShape": {"dim": [{"size": "1"}, {"size": "1"}, {"size": "64"}, {"size": "64"}]}}}}}, {"name": "FeatureExtractor/detection_mnasfpn_v1_a_320_1/mnasnet-a1/mnas_net_model/mnas_blocks_3/conv2d_1/Conv2D_weights", "op": "Const", "attr": {"value": {"tensor": {"dtype": "DT_FLOAT", "tensorShape": {"dim": [{"size": "1"}, {"size": "1"}, {"size": "72"}, {"size": "40"}]}}}, "dtype": {"type": "DT_FLOAT"}}}, {"name": "FeatureExtractor/detection_mnasfpn_v1_a_320_1/feature_network/fpn_cells/cell_1/sub_policy0/op_after_combine4/conv/separable_conv2d_bn_offset", "op": "Const", "attr": {"dtype": {"type": "DT_FLOAT"}, "value": {"tensor": {"dtype": "DT_FLOAT", "tensorShape": {"dim": [{"size": "64"}]}}}}}, {"name": "FeatureExtractor/detection_mnasfpn_v1_a_320_1/mnasnet-a1/mnas_net_model/mnas_blocks_3/conv2d_1/Conv2D_bn_offset", "op": "Const", "attr": {"dtype": {"type": "DT_FLOAT"}, "value": {"tensor": {"dtype": "DT_FLOAT", "tensorShape": {"dim": [{"size": "40"}]}}}}}, {"name": "FeatureExtractor/detection_mnasfpn_v1_a_320_1/mnasnet-a1/mnas_net_model/mnas_blocks_4/conv2d/Conv2D_weights", "op": "Const", "attr": {"dtype": {"type": "DT_FLOAT"}, "value": {"tensor": {"dtype": "DT_FLOAT", "tensorShape": {"dim": [{"size": "1"}, {"size": "1"}, {"size": "40"}, {"size": "120"}]}}}}}, {"name": "FeatureExtractor/detection_mnasfpn_v1_a_320_1/mnasnet-a1/mnas_net_model/mnas_blocks_4/conv2d/Conv2D_bn_offset", "op": "Const", "attr": {"value": {"tensor": {"dtype": "DT_FLOAT", "tensorShape": {"dim": [{"size": "120"}]}}}, "dtype": {"type": "DT_FLOAT"}}}, {"name": "FeatureExtractor/detection_mnasfpn_v1_a_320_1/mnasnet-a1/mnas_net_model/mnas_blocks_4/depthwise_conv2d/depthwise_weights", "op": "Const", "attr": {"value": {"tensor": {"dtype": "DT_FLOAT", "tensorShape": {"dim": [{"size": "5"}, {"size": "5"}, {"size": "120"}, {"size": "1"}]}}}, "dtype": {"type": "DT_FLOAT"}}}, {"name": "FeatureExtractor/detection_mnasfpn_v1_a_320_1/mnasnet-a1/mnas_net_model/mnas_blocks_4/depthwise_conv2d/depthwise_bn_offset", "op": "Const", "attr": {"dtype": {"type": "DT_FLOAT"}, "value": {"tensor": {"dtype": "DT_FLOAT", "tensorShape": {"dim": [{"size": "120"}]}}}}}, {"name": "FeatureExtractor/detection_mnasfpn_v1_a_320_1/mnasnet-a1/mnas_net_model/mnas_blocks_4/conv2d_1/Conv2D_weights", "op": "Const", "attr": {"value": {"tensor": {"dtype": "DT_FLOAT", "tensorShape": {"dim": [{"size": "1"}, {"size": "1"}, {"size": "120"}, {"size": "40"}]}}}, "dtype": {"type": "DT_FLOAT"}}}, {"name": "FeatureExtractor/detection_mnasfpn_v1_a_320_1/mnasnet-a1/mnas_net_model/mnas_blocks_4/conv2d_1/Conv2D_bn_offset", "op": "Const", "attr": {"dtype": {"type": "DT_FLOAT"}, "value": {"tensor": {"dtype": "DT_FLOAT", "tensorShape": {"dim": [{"size": "40"}]}}}}}, {"name": "FeatureExtractor/detection_mnasfpn_v1_a_320_1/mnasnet-a1/mnas_net_model/mnas_blocks_5/conv2d/Conv2D_weights", "op": "Const", "attr": {"value": {"tensor": {"dtype": "DT_FLOAT", "tensorShape": {"dim": [{"size": "1"}, {"size": "1"}, {"size": "40"}, {"size": "120"}]}}}, "dtype": {"type": "DT_FLOAT"}}}, {"name": "FeatureExtractor/detection_mnasfpn_v1_a_320_1/feature_network/fpn_cells/cell_1/sub_policy1/op_after_combine5/conv/separable_conv2d_weights", "op": "Const", "attr": {"value": {"tensor": {"dtype": "DT_FLOAT", "tensorShape": {"dim": [{"size": "1"}, {"size": "1"}, {"size": "64"}, {"size": "64"}]}}}, "dtype": {"type": "DT_FLOAT"}}}, {"name": "FeatureExtractor/detection_mnasfpn_v1_a_320_1/mnasnet-a1/mnas_net_model/mnas_blocks_5/conv2d/Conv2D_bn_offset", "op": "Const", "attr": {"value": {"tensor": {"dtype": "DT_FLOAT", "tensorShape": {"dim": [{"size": "120"}]}}}, "dtype": {"type": "DT_FLOAT"}}}, {"name": "FeatureExtractor/detection_mnasfpn_v1_a_320_1/mnasnet-a1/mnas_net_model/mnas_blocks_5/depthwise_conv2d/depthwise_weights", "op": "Const", "attr": {"dtype": {"type": "DT_FLOAT"}, "value": {"tensor": {"dtype": "DT_FLOAT", "tensorShape": {"dim": [{"size": "5"}, {"size": "5"}, {"size": "120"}, {"size": "1"}]}}}}}, {"name": "FeatureExtractor/detection_mnasfpn_v1_a_320_1/mnasnet-a1/mnas_net_model/mnas_blocks_5/depthwise_conv2d/depthwise_bn_offset", "op": "Const", "attr": {"dtype": {"type": "DT_FLOAT"}, "value": {"tensor": {"dtype": "DT_FLOAT", "tensorShape": {"dim": [{"size": "120"}]}}}}}, {"name": "FeatureExtractor/detection_mnasfpn_v1_a_320_1/feature_network/fpn_cells/cell_1/sub_policy1/op_after_combine5/conv/separable_conv2d_bn_offset", "op": "Const", "attr": {"value": {"tensor": {"dtype": "DT_FLOAT", "tensorShape": {"dim": [{"size": "64"}]}}}, "dtype": {"type": "DT_FLOAT"}}}, {"name": "FeatureExtractor/detection_mnasfpn_v1_a_320_1/mnasnet-a1/mnas_net_model/mnas_blocks_5/conv2d_1/Conv2D_weights", "op": "Const", "attr": {"dtype": {"type": "DT_FLOAT"}, "value": {"tensor": {"dtype": "DT_FLOAT", "tensorShape": {"dim": [{"size": "1"}, {"size": "1"}, {"size": "120"}, {"size": "40"}]}}}}}, {"name": "FeatureExtractor/detection_mnasfpn_v1_a_320_1/mnasnet-a1/mnas_net_model/mnas_blocks_5/conv2d_1/Conv2D_bn_offset", "op": "Const", "attr": {"value": {"tensor": {"dtype": "DT_FLOAT", "tensorShape": {"dim": [{"size": "40"}]}}}, "dtype": {"type": "DT_FLOAT"}}}, {"name": "FeatureExtractor/detection_mnasfpn_v1_a_320_1/mnasnet-a1/mnas_net_model/mnas_blocks_6/conv2d/Conv2D_weights", "op": "Const", "attr": {"value": {"tensor": {"dtype": "DT_FLOAT", "tensorShape": {"dim": [{"size": "1"}, {"size": "1"}, {"size": "40"}, {"size": "240"}]}}}, "dtype": {"type": "DT_FLOAT"}}}, {"name": "FeatureExtractor/detection_mnasfpn_v1_a_320_1/mnasnet-a1/mnas_net_model/mnas_blocks_6/conv2d/Conv2D_bn_offset", "op": "Const", "attr": {"value": {"tensor": {"dtype": "DT_FLOAT", "tensorShape": {"dim": [{"size": "240"}]}}}, "dtype": {"type": "DT_FLOAT"}}}, {"name": "FeatureExtractor/detection_mnasfpn_v1_a_320_1/feature_network/fpn_cells/cell_1/sub_policy2/op_after_combine6/conv/separable_conv2d_weights", "op": "Const", "attr": {"value": {"tensor": {"dtype": "DT_FLOAT", "tensorShape": {"dim": [{"size": "1"}, {"size": "1"}, {"size": "64"}, {"size": "64"}]}}}, "dtype": {"type": "DT_FLOAT"}}}, {"name": "FeatureExtractor/detection_mnasfpn_v1_a_320_1/mnasnet-a1/mnas_net_model/mnas_blocks_6/depthwise_conv2d/depthwise_weights", "op": "Const", "attr": {"value": {"tensor": {"dtype": "DT_FLOAT", "tensorShape": {"dim": [{"size": "3"}, {"size": "3"}, {"size": "240"}, {"size": "1"}]}}}, "dtype": {"type": "DT_FLOAT"}}}, {"name": "FeatureExtractor/detection_mnasfpn_v1_a_320_1/mnasnet-a1/mnas_net_model/mnas_blocks_6/depthwise_conv2d/depthwise_bn_offset", "op": "Const", "attr": {"dtype": {"type": "DT_FLOAT"}, "value": {"tensor": {"dtype": "DT_FLOAT", "tensorShape": {"dim": [{"size": "240"}]}}}}}, {"name": "FeatureExtractor/detection_mnasfpn_v1_a_320_1/mnasnet-a1/mnas_net_model/mnas_blocks_6/conv2d_1/Conv2D_weights", "op": "Const", "attr": {"dtype": {"type": "DT_FLOAT"}, "value": {"tensor": {"dtype": "DT_FLOAT", "tensorShape": {"dim": [{"size": "1"}, {"size": "1"}, {"size": "240"}, {"size": "80"}]}}}}}, {"name": "FeatureExtractor/detection_mnasfpn_v1_a_320_1/mnasnet-a1/mnas_net_model/mnas_blocks_6/conv2d_1/Conv2D_bn_offset", "op": "Const", "attr": {"value": {"tensor": {"dtype": "DT_FLOAT", "tensorShape": {"dim": [{"size": "80"}]}}}, "dtype": {"type": "DT_FLOAT"}}}, {"name": "FeatureExtractor/detection_mnasfpn_v1_a_320_1/mnasnet-a1/mnas_net_model/mnas_blocks_7/conv2d/Conv2D_weights", "op": "Const", "attr": {"dtype": {"type": "DT_FLOAT"}, "value": {"tensor": {"dtype": "DT_FLOAT", "tensorShape": {"dim": [{"size": "1"}, {"size": "1"}, {"size": "80"}, {"size": "480"}]}}}}}, {"name": "FeatureExtractor/detection_mnasfpn_v1_a_320_1/feature_network/fpn_cells/cell_1/sub_policy2/op_after_combine6/conv/separable_conv2d_bn_offset", "op": "Const", "attr": {"dtype": {"type": "DT_FLOAT"}, "value": {"tensor": {"dtype": "DT_FLOAT", "tensorShape": {"dim": [{"size": "64"}]}}}}}, {"name": "FeatureExtractor/detection_mnasfpn_v1_a_320_1/mnasnet-a1/mnas_net_model/mnas_blocks_7/conv2d/Conv2D_bn_offset", "op": "Const", "attr": {"value": {"tensor": {"dtype": "DT_FLOAT", "tensorShape": {"dim": [{"size": "480"}]}}}, "dtype": {"type": "DT_FLOAT"}}}, {"name": "FeatureExtractor/detection_mnasfpn_v1_a_320_1/mnasnet-a1/mnas_net_model/mnas_blocks_7/depthwise_conv2d/depthwise_weights", "op": "Const", "attr": {"dtype": {"type": "DT_FLOAT"}, "value": {"tensor": {"dtype": "DT_FLOAT", "tensorShape": {"dim": [{"size": "3"}, {"size": "3"}, {"size": "480"}, {"size": "1"}]}}}}}, {"name": "FeatureExtractor/detection_mnasfpn_v1_a_320_1/mnasnet-a1/mnas_net_model/mnas_blocks_7/depthwise_conv2d/depthwise_bn_offset", "op": "Const", "attr": {"dtype": {"type": "DT_FLOAT"}, "value": {"tensor": {"dtype": "DT_FLOAT", "tensorShape": {"dim": [{"size": "480"}]}}}}}, {"name": "FeatureExtractor/detection_mnasfpn_v1_a_320_1/mnasnet-a1/mnas_net_model/mnas_blocks_7/conv2d_1/Conv2D_weights", "op": "Const", "attr": {"value": {"tensor": {"dtype": "DT_FLOAT", "tensorShape": {"dim": [{"size": "1"}, {"size": "1"}, {"size": "480"}, {"size": "80"}]}}}, "dtype": {"type": "DT_FLOAT"}}}, {"name": "FeatureExtractor/detection_mnasfpn_v1_a_320_1/mnasnet-a1/mnas_net_model/mnas_blocks_7/conv2d_1/Conv2D_bn_offset", "op": "Const", "attr": {"value": {"tensor": {"dtype": "DT_FLOAT", "tensorShape": {"dim": [{"size": "80"}]}}}, "dtype": {"type": "DT_FLOAT"}}}, {"name": "FeatureExtractor/detection_mnasfpn_v1_a_320_1/mnasnet-a1/mnas_net_model/mnas_blocks_8/conv2d/Conv2D_weights", "op": "Const", "attr": {"value": {"tensor": {"dtype": "DT_FLOAT", "tensorShape": {"dim": [{"size": "1"}, {"size": "1"}, {"size": "80"}, {"size": "480"}]}}}, "dtype": {"type": "DT_FLOAT"}}}, {"name": "FeatureExtractor/detection_mnasfpn_v1_a_320_1/mnasnet-a1/mnas_net_model/mnas_blocks_8/conv2d/Conv2D_bn_offset", "op": "Const", "attr": {"dtype": {"type": "DT_FLOAT"}, "value": {"tensor": {"dtype": "DT_FLOAT", "tensorShape": {"dim": [{"size": "480"}]}}}}}, {"name": "FeatureExtractor/detection_mnasfpn_v1_a_320_1/mnasnet-a1/mnas_net_model/mnas_blocks_8/depthwise_conv2d/depthwise_weights", "op": "Const", "attr": {"dtype": {"type": "DT_FLOAT"}, "value": {"tensor": {"dtype": "DT_FLOAT", "tensorShape": {"dim": [{"size": "3"}, {"size": "3"}, {"size": "480"}, {"size": "1"}]}}}}}, {"name": "FeatureExtractor/detection_mnasfpn_v1_a_320_1/mnasnet-a1/mnas_net_model/mnas_blocks_8/depthwise_conv2d/depthwise_bn_offset", "op": "Const", "attr": {"value": {"tensor": {"dtype": "DT_FLOAT", "tensorShape": {"dim": [{"size": "480"}]}}}, "dtype": {"type": "DT_FLOAT"}}}, {"name": "FeatureExtractor/detection_mnasfpn_v1_a_320_1/mnasnet-a1/mnas_net_model/mnas_blocks_8/conv2d_1/Conv2D_weights", "op": "Const", "attr": {"dtype": {"type": "DT_FLOAT"}, "value": {"tensor": {"dtype": "DT_FLOAT", "tensorShape": {"dim": [{"size": "1"}, {"size": "1"}, {"size": "480"}, {"size": "80"}]}}}}}, {"name": "FeatureExtractor/detection_mnasfpn_v1_a_320_1/mnasnet-a1/mnas_net_model/mnas_blocks_8/conv2d_1/Conv2D_bn_offset", "op": "Const", "attr": {"value": {"tensor": {"dtype": "DT_FLOAT", "tensorShape": {"dim": [{"size": "80"}]}}}, "dtype": {"type": "DT_FLOAT"}}}, {"name": "FeatureExtractor/detection_mnasfpn_v1_a_320_1/mnasnet-a1/mnas_net_model/mnas_blocks_9/conv2d/Conv2D_weights", "op": "Const", "attr": {"value": {"tensor": {"dtype": "DT_FLOAT", "tensorShape": {"dim": [{"size": "1"}, {"size": "1"}, {"size": "80"}, {"size": "480"}]}}}, "dtype": {"type": "DT_FLOAT"}}}, {"name": "FeatureExtractor/detection_mnasfpn_v1_a_320_1/feature_network/fpn_cells/cell_1/sub_policy7/op_after_combine11/conv/separable_conv2d_weights", "op": "Const", "attr": {"value": {"tensor": {"dtype": "DT_FLOAT", "tensorShape": {"dim": [{"size": "1"}, {"size": "1"}, {"size": "64"}, {"size": "64"}]}}}, "dtype": {"type": "DT_FLOAT"}}}, {"name": "FeatureExtractor/detection_mnasfpn_v1_a_320_1/mnasnet-a1/mnas_net_model/mnas_blocks_9/conv2d/Conv2D_bn_offset", "op": "Const", "attr": {"dtype": {"type": "DT_FLOAT"}, "value": {"tensor": {"dtype": "DT_FLOAT", "tensorShape": {"dim": [{"size": "480"}]}}}}}, {"name": "FeatureExtractor/detection_mnasfpn_v1_a_320_1/mnasnet-a1/mnas_net_model/mnas_blocks_9/depthwise_conv2d/depthwise_weights", "op": "Const", "attr": {"value": {"tensor": {"dtype": "DT_FLOAT", "tensorShape": {"dim": [{"size": "3"}, {"size": "3"}, {"size": "480"}, {"size": "1"}]}}}, "dtype": {"type": "DT_FLOAT"}}}, {"name": "FeatureExtractor/detection_mnasfpn_v1_a_320_1/mnasnet-a1/mnas_net_model/mnas_blocks_9/depthwise_conv2d/depthwise_bn_offset", "op": "Const", "attr": {"dtype": {"type": "DT_FLOAT"}, "value": {"tensor": {"dtype": "DT_FLOAT", "tensorShape": {"dim": [{"size": "480"}]}}}}}, {"name": "FeatureExtractor/detection_mnasfpn_v1_a_320_1/mnasnet-a1/mnas_net_model/mnas_blocks_9/conv2d_1/Conv2D_weights", "op": "Const", "attr": {"dtype": {"type": "DT_FLOAT"}, "value": {"tensor": {"dtype": "DT_FLOAT", "tensorShape": {"dim": [{"size": "1"}, {"size": "1"}, {"size": "480"}, {"size": "80"}]}}}}}, {"name": "FeatureExtractor/detection_mnasfpn_v1_a_320_1/feature_network/fpn_cells/cell_1/sub_policy7/op_after_combine11/conv/separable_conv2d_bn_offset", "op": "Const", "attr": {"dtype": {"type": "DT_FLOAT"}, "value": {"tensor": {"dtype": "DT_FLOAT", "tensorShape": {"dim": [{"size": "64"}]}}}}}, {"name": "FeatureExtractor/detection_mnasfpn_v1_a_320_1/mnasnet-a1/mnas_net_model/mnas_blocks_9/conv2d_1/Conv2D_bn_offset", "op": "Const", "attr": {"dtype": {"type": "DT_FLOAT"}, "value": {"tensor": {"dtype": "DT_FLOAT", "tensorShape": {"dim": [{"size": "80"}]}}}}}, {"name": "FeatureExtractor/detection_mnasfpn_v1_a_320_1/mnasnet-a1/mnas_net_model/mnas_blocks_10/conv2d/Conv2D_weights", "op": "Const", "attr": {"dtype": {"type": "DT_FLOAT"}, "value": {"tensor": {"dtype": "DT_FLOAT", "tensorShape": {"dim": [{"size": "1"}, {"size": "1"}, {"size": "80"}, {"size": "480"}]}}}}}, {"name": "FeatureExtractor/detection_mnasfpn_v1_a_320_1/mnasnet-a1/mnas_net_model/mnas_blocks_10/conv2d/Conv2D_bn_offset", "op": "Const", "attr": {"value": {"tensor": {"dtype": "DT_FLOAT", "tensorShape": {"dim": [{"size": "480"}]}}}, "dtype": {"type": "DT_FLOAT"}}}, {"name": "FeatureExtractor/detection_mnasfpn_v1_a_320_1/mnasnet-a1/mnas_net_model/mnas_blocks_10/depthwise_conv2d/depthwise_weights", "op": "Const", "attr": {"dtype": {"type": "DT_FLOAT"}, "value": {"tensor": {"dtype": "DT_FLOAT", "tensorShape": {"dim": [{"size": "3"}, {"size": "3"}, {"size": "480"}, {"size": "1"}]}}}}}, {"name": "FeatureExtractor/detection_mnasfpn_v1_a_320_1/mnasnet-a1/mnas_net_model/mnas_blocks_10/depthwise_conv2d/depthwise_bn_offset", "op": "Const", "attr": {"dtype": {"type": "DT_FLOAT"}, "value": {"tensor": {"dtype": "DT_FLOAT", "tensorShape": {"dim": [{"size": "480"}]}}}}}, {"name": "FeatureExtractor/detection_mnasfpn_v1_a_320_1/mnasnet-a1/mnas_net_model/mnas_blocks_10/conv2d_1/Conv2D_weights", "op": "Const", "attr": {"dtype": {"type": "DT_FLOAT"}, "value": {"tensor": {"dtype": "DT_FLOAT", "tensorShape": {"dim": [{"size": "1"}, {"size": "1"}, {"size": "480"}, {"size": "112"}]}}}}}, {"name": "FeatureExtractor/detection_mnasfpn_v1_a_320_1/mnasnet-a1/mnas_net_model/mnas_blocks_10/conv2d_1/Conv2D_bn_offset", "op": "Const", "attr": {"value": {"tensor": {"dtype": "DT_FLOAT", "tensorShape": {"dim": [{"size": "112"}]}}}, "dtype": {"type": "DT_FLOAT"}}}, {"name": "FeatureExtractor/detection_mnasfpn_v1_a_320_1/mnasnet-a1/mnas_net_model/mnas_blocks_11/conv2d/Conv2D_weights", "op": "Const", "attr": {"value": {"tensor": {"dtype": "DT_FLOAT", "tensorShape": {"dim": [{"size": "1"}, {"size": "1"}, {"size": "112"}, {"size": "672"}]}}}, "dtype": {"type": "DT_FLOAT"}}}, {"name": "FeatureExtractor/detection_mnasfpn_v1_a_320_1/mnasnet-a1/mnas_net_model/mnas_blocks_11/conv2d/Conv2D_bn_offset", "op": "Const", "attr": {"value": {"tensor": {"dtype": "DT_FLOAT", "tensorShape": {"dim": [{"size": "672"}]}}}, "dtype": {"type": "DT_FLOAT"}}}, {"name": "FeatureExtractor/detection_mnasfpn_v1_a_320_1/mnasnet-a1/mnas_net_model/mnas_blocks_11/depthwise_conv2d/depthwise_weights", "op": "Const", "attr": {"value": {"tensor": {"dtype": "DT_FLOAT", "tensorShape": {"dim": [{"size": "3"}, {"size": "3"}, {"size": "672"}, {"size": "1"}]}}}, "dtype": {"type": "DT_FLOAT"}}}, {"name": "FeatureExtractor/detection_mnasfpn_v1_a_320_1/mnasnet-a1/mnas_net_model/mnas_blocks_11/depthwise_conv2d/depthwise_bn_offset", "op": "Const", "attr": {"value": {"tensor": {"dtype": "DT_FLOAT", "tensorShape": {"dim": [{"size": "672"}]}}}, "dtype": {"type": "DT_FLOAT"}}}, {"name": "FeatureExtractor/detection_mnasfpn_v1_a_320_1/mnasnet-a1/mnas_net_model/mnas_blocks_11/conv2d_1/Conv2D_weights", "op": "Const", "attr": {"dtype": {"type": "DT_FLOAT"}, "value": {"tensor": {"dtype": "DT_FLOAT", "tensorShape": {"dim": [{"size": "1"}, {"size": "1"}, {"size": "672"}, {"size": "112"}]}}}}}, {"name": "FeatureExtractor/detection_mnasfpn_v1_a_320_1/mnasnet-a1/mnas_net_model/mnas_blocks_11/conv2d_1/Conv2D_bn_offset", "op": "Const", "attr": {"dtype": {"type": "DT_FLOAT"}, "value": {"tensor": {"dtype": "DT_FLOAT", "tensorShape": {"dim": [{"size": "112"}]}}}}}, {"name": "FeatureExtractor/detection_mnasfpn_v1_a_320_1/feature_network/fpn_cells/cell_1/sub_policy4/op_after_combine8/conv/separable_conv2d_weights", "op": "Const", "attr": {"dtype": {"type": "DT_FLOAT"}, "value": {"tensor": {"dtype": "DT_FLOAT", "tensorShape": {"dim": [{"size": "1"}, {"size": "1"}, {"size": "64"}, {"size": "64"}]}}}}}, {"name": "FeatureExtractor/detection_mnasfpn_v1_a_320_1/mnasnet-a1/mnas_net_model/mnas_blocks_12/conv2d/Conv2D_weights", "op": "Const", "attr": {"dtype": {"type": "DT_FLOAT"}, "value": {"tensor": {"dtype": "DT_FLOAT", "tensorShape": {"dim": [{"size": "1"}, {"size": "1"}, {"size": "112"}, {"size": "672"}]}}}}}, {"name": "FeatureExtractor/detection_mnasfpn_v1_a_320_1/feature_network/fpn_cells/cell_1/sub_policy4/op_after_combine8/conv/separable_conv2d_bn_offset", "op": "Const", "attr": {"value": {"tensor": {"dtype": "DT_FLOAT", "tensorShape": {"dim": [{"size": "64"}]}}}, "dtype": {"type": "DT_FLOAT"}}}, {"name": "FeatureExtractor/detection_mnasfpn_v1_a_320_1/mnasnet-a1/mnas_net_model/mnas_blocks_12/conv2d/Conv2D_bn_offset", "op": "Const", "attr": {"value": {"tensor": {"dtype": "DT_FLOAT", "tensorShape": {"dim": [{"size": "672"}]}}}, "dtype": {"type": "DT_FLOAT"}}}, {"name": "FeatureExtractor/detection_mnasfpn_v1_a_320_1/mnasnet-a1/mnas_net_model/mnas_blocks_12/depthwise_conv2d/depthwise_weights", "op": "Const", "attr": {"dtype": {"type": "DT_FLOAT"}, "value": {"tensor": {"dtype": "DT_FLOAT", "tensorShape": {"dim": [{"size": "5"}, {"size": "5"}, {"size": "672"}, {"size": "1"}]}}}}}, {"name": "FeatureExtractor/detection_mnasfpn_v1_a_320_1/mnasnet-a1/mnas_net_model/mnas_blocks_12/depthwise_conv2d/depthwise_bn_offset", "op": "Const", "attr": {"value": {"tensor": {"dtype": "DT_FLOAT", "tensorShape": {"dim": [{"size": "672"}]}}}, "dtype": {"type": "DT_FLOAT"}}}, {"name": "FeatureExtractor/detection_mnasfpn_v1_a_320_1/feature_network/fpn_cells/cell_0/sub_policy3/op_after_combine7/conv/separable_conv2d_weights", "op": "Const", "attr": {"value": {"tensor": {"dtype": "DT_FLOAT", "tensorShape": {"dim": [{"size": "1"}, {"size": "1"}, {"size": "64"}, {"size": "64"}]}}}, "dtype": {"type": "DT_FLOAT"}}}, {"name": "FeatureExtractor/detection_mnasfpn_v1_a_320_1/feature_network/fpn_cells/cell_0/sub_policy3/op_after_combine7/conv/separable_conv2d_bn_offset", "op": "Const", "attr": {"value": {"tensor": {"dtype": "DT_FLOAT", "tensorShape": {"dim": [{"size": "64"}]}}}, "dtype": {"type": "DT_FLOAT"}}}, {"name": "FeatureExtractor/detection_mnasfpn_v1_a_320_1/feature_network/fpn_cells/cell_0/sub_policy6/op_after_combine10/conv/separable_conv2d_weights", "op": "Const", "attr": {"dtype": {"type": "DT_FLOAT"}, "value": {"tensor": {"dtype": "DT_FLOAT", "tensorShape": {"dim": [{"size": "1"}, {"size": "1"}, {"size": "64"}, {"size": "64"}]}}}}}, {"name": "FeatureExtractor/detection_mnasfpn_v1_a_320_1/feature_network/fpn_cells/cell_0/sub_policy6/op_after_combine10/conv/separable_conv2d_bn_offset", "op": "Const", "attr": {"dtype": {"type": "DT_FLOAT"}, "value": {"tensor": {"dtype": "DT_FLOAT", "tensorShape": {"dim": [{"size": "64"}]}}}}}, {"name": "FeatureExtractor/detection_mnasfpn_v1_a_320_1/mnasnet-a1/mnas_net_model/mnas_blocks_12/conv2d_1/Conv2D_weights", "op": "Const", "attr": {"dtype": {"type": "DT_FLOAT"}, "value": {"tensor": {"dtype": "DT_FLOAT", "tensorShape": {"dim": [{"size": "1"}, {"size": "1"}, {"size": "672"}, {"size": "160"}]}}}}}, {"name": "FeatureExtractor/detection_mnasfpn_v1_a_320_1/feature_network/fpn_cells/cell_1/sub_policy5/op_after_combine9/conv/separable_conv2d_weights", "op": "Const", "attr": {"dtype": {"type": "DT_FLOAT"}, "value": {"tensor": {"dtype": "DT_FLOAT", "tensorShape": {"dim": [{"size": "1"}, {"size": "1"}, {"size": "64"}, {"size": "64"}]}}}}}, {"name": "FeatureExtractor/detection_mnasfpn_v1_a_320_1/mnasnet-a1/mnas_net_model/mnas_blocks_12/conv2d_1/Conv2D_bn_offset", "op": "Const", "attr": {"dtype": {"type": "DT_FLOAT"}, "value": {"tensor": {"dtype": "DT_FLOAT", "tensorShape": {"dim": [{"size": "160"}]}}}}}, {"name": "FeatureExtractor/detection_mnasfpn_v1_a_320_1/mnasnet-a1/mnas_net_model/mnas_blocks_13/conv2d/Conv2D_weights", "op": "Const", "attr": {"dtype": {"type": "DT_FLOAT"}, "value": {"tensor": {"dtype": "DT_FLOAT", "tensorShape": {"dim": [{"size": "1"}, {"size": "1"}, {"size": "160"}, {"size": "960"}]}}}}}, {"name": "FeatureExtractor/detection_mnasfpn_v1_a_320_1/mnasnet-a1/mnas_net_model/mnas_blocks_13/conv2d/Conv2D_bn_offset", "op": "Const", "attr": {"dtype": {"type": "DT_FLOAT"}, "value": {"tensor": {"dtype": "DT_FLOAT", "tensorShape": {"dim": [{"size": "960"}]}}}}}, {"name": "FeatureExtractor/detection_mnasfpn_v1_a_320_1/feature_network/fpn_cells/cell_1/sub_policy5/op_after_combine9/conv/separable_conv2d_bn_offset", "op": "Const", "attr": {"value": {"tensor": {"dtype": "DT_FLOAT", "tensorShape": {"dim": [{"size": "64"}]}}}, "dtype": {"type": "DT_FLOAT"}}}, {"name": "FeatureExtractor/detection_mnasfpn_v1_a_320_1/mnasnet-a1/mnas_net_model/mnas_blocks_13/depthwise_conv2d/depthwise_weights", "op": "Const", "attr": {"value": {"tensor": {"dtype": "DT_FLOAT", "tensorShape": {"dim": [{"size": "5"}, {"size": "5"}, {"size": "960"}, {"size": "1"}]}}}, "dtype": {"type": "DT_FLOAT"}}}, {"name": "FeatureExtractor/detection_mnasfpn_v1_a_320_1/mnasnet-a1/mnas_net_model/mnas_blocks_13/depthwise_conv2d/depthwise_bn_offset", "op": "Const", "attr": {"dtype": {"type": "DT_FLOAT"}, "value": {"tensor": {"dtype": "DT_FLOAT", "tensorShape": {"dim": [{"size": "960"}]}}}}}, {"name": "FeatureExtractor/detection_mnasfpn_v1_a_320_1/mnasnet-a1/mnas_net_model/mnas_blocks_13/conv2d_1/Conv2D_weights", "op": "Const", "attr": {"dtype": {"type": "DT_FLOAT"}, "value": {"tensor": {"dtype": "DT_FLOAT", "tensorShape": {"dim": [{"size": "1"}, {"size": "1"}, {"size": "960"}, {"size": "160"}]}}}}}, {"name": "FeatureExtractor/detection_mnasfpn_v1_a_320_1/mnasnet-a1/mnas_net_model/mnas_blocks_13/conv2d_1/Conv2D_bn_offset", "op": "Const", "attr": {"value": {"tensor": {"dtype": "DT_FLOAT", "tensorShape": {"dim": [{"size": "160"}]}}}, "dtype": {"type": "DT_FLOAT"}}}, {"name": "FeatureExtractor/detection_mnasfpn_v1_a_320_1/mnasnet-a1/mnas_net_model/mnas_blocks_14/conv2d/Conv2D_weights", "op": "Const", "attr": {"dtype": {"type": "DT_FLOAT"}, "value": {"tensor": {"dtype": "DT_FLOAT", "tensorShape": {"dim": [{"size": "1"}, {"size": "1"}, {"size": "160"}, {"size": "960"}]}}}}}, {"name": "FeatureExtractor/detection_mnasfpn_v1_a_320_1/mnasnet-a1/mnas_net_model/mnas_blocks_14/conv2d/Conv2D_bn_offset", "op": "Const", "attr": {"dtype": {"type": "DT_FLOAT"}, "value": {"tensor": {"dtype": "DT_FLOAT", "tensorShape": {"dim": [{"size": "960"}]}}}}}, {"name": "FeatureExtractor/detection_mnasfpn_v1_a_320_1/mnasnet-a1/mnas_net_model/mnas_blocks_14/depthwise_conv2d/depthwise_weights", "op": "Const", "attr": {"value": {"tensor": {"dtype": "DT_FLOAT", "tensorShape": {"dim": [{"size": "5"}, {"size": "5"}, {"size": "960"}, {"size": "1"}]}}}, "dtype": {"type": "DT_FLOAT"}}}, {"name": "FeatureExtractor/detection_mnasfpn_v1_a_320_1/mnasnet-a1/mnas_net_model/mnas_blocks_14/depthwise_conv2d/depthwise_bn_offset", "op": "Const", "attr": {"dtype": {"type": "DT_FLOAT"}, "value": {"tensor": {"dtype": "DT_FLOAT", "tensorShape": {"dim": [{"size": "960"}]}}}}}, {"name": "FeatureExtractor/detection_mnasfpn_v1_a_320_1/mnasnet-a1/mnas_net_model/mnas_blocks_14/conv2d_1/Conv2D_weights", "op": "Const", "attr": {"dtype": {"type": "DT_FLOAT"}, "value": {"tensor": {"dtype": "DT_FLOAT", "tensorShape": {"dim": [{"size": "1"}, {"size": "1"}, {"size": "960"}, {"size": "160"}]}}}}}, {"name": "FeatureExtractor/detection_mnasfpn_v1_a_320_1/mnasnet-a1/mnas_net_model/mnas_blocks_14/conv2d_1/Conv2D_bn_offset", "op": "Const", "attr": {"dtype": {"type": "DT_FLOAT"}, "value": {"tensor": {"dtype": "DT_FLOAT", "tensorShape": {"dim": [{"size": "160"}]}}}}}, {"name": "FeatureExtractor/detection_mnasfpn_v1_a_320_1/mnasnet-a1/mnas_net_model/mnas_blocks_15/conv2d/Conv2D_weights", "op": "Const", "attr": {"dtype": {"type": "DT_FLOAT"}, "value": {"tensor": {"dtype": "DT_FLOAT", "tensorShape": {"dim": [{"size": "1"}, {"size": "1"}, {"size": "160"}, {"size": "960"}]}}}}}, {"name": "FeatureExtractor/detection_mnasfpn_v1_a_320_1/mnasnet-a1/mnas_net_model/mnas_blocks_15/conv2d/Conv2D_bn_offset", "op": "Const", "attr": {"value": {"tensor": {"dtype": "DT_FLOAT", "tensorShape": {"dim": [{"size": "960"}]}}}, "dtype": {"type": "DT_FLOAT"}}}, {"name": "FeatureExtractor/detection_mnasfpn_v1_a_320_1/mnasnet-a1/mnas_net_model/mnas_blocks_15/depthwise_conv2d/depthwise_weights", "op": "Const", "attr": {"dtype": {"type": "DT_FLOAT"}, "value": {"tensor": {"dtype": "DT_FLOAT", "tensorShape": {"dim": [{"size": "3"}, {"size": "3"}, {"size": "960"}, {"size": "1"}]}}}}}, {"name": "FeatureExtractor/detection_mnasfpn_v1_a_320_1/mnasnet-a1/mnas_net_model/mnas_blocks_15/depthwise_conv2d/depthwise_bn_offset", "op": "Const", "attr": {"value": {"tensor": {"dtype": "DT_FLOAT", "tensorShape": {"dim": [{"size": "960"}]}}}, "dtype": {"type": "DT_FLOAT"}}}, {"name": "FeatureExtractor/detection_mnasfpn_v1_a_320_1/mnasnet-a1/mnas_net_model/mnas_blocks_15/conv2d_1/Conv2D_weights", "op": "Const", "attr": {"dtype": {"type": "DT_FLOAT"}, "value": {"tensor": {"dtype": "DT_FLOAT", "tensorShape": {"dim": [{"size": "1"}, {"size": "1"}, {"size": "960"}, {"size": "320"}]}}}}}, {"name": "FeatureExtractor/detection_mnasfpn_v1_a_320_1/mnasnet-a1/mnas_net_model/mnas_blocks_15/conv2d_1/Conv2D_bn_offset", "op": "Const", "attr": {"dtype": {"type": "DT_FLOAT"}, "value": {"tensor": {"dtype": "DT_FLOAT", "tensorShape": {"dim": [{"size": "320"}]}}}}}, {"name": "FeatureExtractor/detection_mnasfpn_v1_a_320_1/feature_network/fpn_cells/cell_0/sub_policy1/op_after_combine5/conv/separable_conv2d_weights", "op": "Const", "attr": {"dtype": {"type": "DT_FLOAT"}, "value": {"tensor": {"dtype": "DT_FLOAT", "tensorShape": {"dim": [{"size": "1"}, {"size": "1"}, {"size": "64"}, {"size": "64"}]}}}}}, {"name": "FeatureExtractor/detection_mnasfpn_v1_a_320_1/feature_network/fpn_cells/cell_0/sub_policy1/op_after_combine5/conv/separable_conv2d_bn_offset", "op": "Const", "attr": {"dtype": {"type": "DT_FLOAT"}, "value": {"tensor": {"dtype": "DT_FLOAT", "tensorShape": {"dim": [{"size": "64"}]}}}}}, {"name": "FeatureExtractor/detection_mnasfpn_v1_a_320_1/feature_network/fpn_cells/cell_0/sub_policy0/op_after_combine4/conv/separable_conv2d_weights", "op": "Const", "attr": {"dtype": {"type": "DT_FLOAT"}, "value": {"tensor": {"dtype": "DT_FLOAT", "tensorShape": {"dim": [{"size": "1"}, {"size": "1"}, {"size": "64"}, {"size": "64"}]}}}}}, {"name": "FeatureExtractor/detection_mnasfpn_v1_a_320_1/feature_network/fpn_cells/cell_0/sub_policy0/op_after_combine4/conv/separable_conv2d_bn_offset", "op": "Const", "attr": {"value": {"tensor": {"dtype": "DT_FLOAT", "tensorShape": {"dim": [{"size": "64"}]}}}, "dtype": {"type": "DT_FLOAT"}}}, {"name": "FeatureExtractor/detection_mnasfpn_v1_a_320_1/feature_network/fpn_cells/cell_0/sub_policy8/op_after_combine12/conv/separable_conv2d_weights", "op": "Const", "attr": {"value": {"tensor": {"dtype": "DT_FLOAT", "tensorShape": {"dim": [{"size": "1"}, {"size": "1"}, {"size": "64"}, {"size": "64"}]}}}, "dtype": {"type": "DT_FLOAT"}}}, {"name": "FeatureExtractor/detection_mnasfpn_v1_a_320_1/feature_network/fpn_cells/cell_0/sub_policy8/op_after_combine12/conv/separable_conv2d_bn_offset", "op": "Const", "attr": {"value": {"tensor": {"dtype": "DT_FLOAT", "tensorShape": {"dim": [{"size": "64"}]}}}, "dtype": {"type": "DT_FLOAT"}}}, {"name": "FeatureExtractor/detection_mnasfpn_v1_a_320_1/feature_network/fpn_cells/cell_0/sub_policy2/op_after_combine6/conv/separable_conv2d_weights", "op": "Const", "attr": {"dtype": {"type": "DT_FLOAT"}, "value": {"tensor": {"dtype": "DT_FLOAT", "tensorShape": {"dim": [{"size": "1"}, {"size": "1"}, {"size": "64"}, {"size": "64"}]}}}}}, {"name": "FeatureExtractor/detection_mnasfpn_v1_a_320_1/feature_network/fpn_cells/cell_0/sub_policy2/op_after_combine6/conv/separable_conv2d_bn_offset", "op": "Const", "attr": {"dtype": {"type": "DT_FLOAT"}, "value": {"tensor": {"dtype": "DT_FLOAT", "tensorShape": {"dim": [{"size": "64"}]}}}}}, {"name": "FeatureExtractor/detection_mnasfpn_v1_a_320_1/feature_network/fpn_cells/cell_0/sub_policy7/op_after_combine11/conv/separable_conv2d_weights", "op": "Const", "attr": {"value": {"tensor": {"dtype": "DT_FLOAT", "tensorShape": {"dim": [{"size": "1"}, {"size": "1"}, {"size": "64"}, {"size": "64"}]}}}, "dtype": {"type": "DT_FLOAT"}}}, {"name": "FeatureExtractor/detection_mnasfpn_v1_a_320_1/feature_network/fpn_cells/cell_0/sub_policy7/op_after_combine11/conv/separable_conv2d_bn_offset", "op": "Const", "attr": {"dtype": {"type": "DT_FLOAT"}, "value": {"tensor": {"dtype": "DT_FLOAT", "tensorShape": {"dim": [{"size": "64"}]}}}}}, {"name": "FeatureExtractor/detection_mnasfpn_v1_a_320_1/feature_network/fpn_cells/cell_0/sub_policy4/op_after_combine8/conv/separable_conv2d_weights", "op": "Const", "attr": {"value": {"tensor": {"dtype": "DT_FLOAT", "tensorShape": {"dim": [{"size": "1"}, {"size": "1"}, {"size": "64"}, {"size": "64"}]}}}, "dtype": {"type": "DT_FLOAT"}}}, {"name": "FeatureExtractor/detection_mnasfpn_v1_a_320_1/feature_network/fpn_cells/cell_0/sub_policy4/op_after_combine8/conv/separable_conv2d_bn_offset", "op": "Const", "attr": {"dtype": {"type": "DT_FLOAT"}, "value": {"tensor": {"dtype": "DT_FLOAT", "tensorShape": {"dim": [{"size": "64"}]}}}}}, {"name": "FeatureExtractor/detection_mnasfpn_v1_a_320_1/feature_network/fpn_cells/cell_1/sub_policy3/op_after_combine7/conv/separable_conv2d_weights", "op": "Const", "attr": {"value": {"tensor": {"dtype": "DT_FLOAT", "tensorShape": {"dim": [{"size": "1"}, {"size": "1"}, {"size": "64"}, {"size": "64"}]}}}, "dtype": {"type": "DT_FLOAT"}}}, {"name": "FeatureExtractor/detection_mnasfpn_v1_a_320_1/feature_network/fpn_cells/cell_1/sub_policy3/op_after_combine7/conv/separable_conv2d_bn_offset", "op": "Const", "attr": {"dtype": {"type": "DT_FLOAT"}, "value": {"tensor": {"dtype": "DT_FLOAT", "tensorShape": {"dim": [{"size": "64"}]}}}}}, {"name": "FeatureExtractor/detection_mnasfpn_v1_a_320_1/feature_network/fpn_cells/cell_1/sub_policy8/op_after_combine12/conv/separable_conv2d_weights", "op": "Const", "attr": {"value": {"tensor": {"dtype": "DT_FLOAT", "tensorShape": {"dim": [{"size": "1"}, {"size": "1"}, {"size": "64"}, {"size": "64"}]}}}, "dtype": {"type": "DT_FLOAT"}}}, {"name": "FeatureExtractor/detection_mnasfpn_v1_a_320_1/feature_network/fpn_cells/cell_1/sub_policy8/op_after_combine12/conv/separable_conv2d_bn_offset", "op": "Const", "attr": {"dtype": {"type": "DT_FLOAT"}, "value": {"tensor": {"dtype": "DT_FLOAT", "tensorShape": {"dim": [{"size": "64"}]}}}}}, {"name": "FeatureExtractor/detection_mnasfpn_v1_a_320_1/feature_network/fpn_cells/cell_1/sub_policy6/op_after_combine10/conv/separable_conv2d_weights", "op": "Const", "attr": {"value": {"tensor": {"dtype": "DT_FLOAT", "tensorShape": {"dim": [{"size": "1"}, {"size": "1"}, {"size": "64"}, {"size": "64"}]}}}, "dtype": {"type": "DT_FLOAT"}}}, {"name": "FeatureExtractor/detection_mnasfpn_v1_a_320_1/feature_network/fpn_cells/cell_1/sub_policy6/op_after_combine10/conv/separable_conv2d_bn_offset", "op": "Const", "attr": {"dtype": {"type": "DT_FLOAT"}, "value": {"tensor": {"dtype": "DT_FLOAT", "tensorShape": {"dim": [{"size": "64"}]}}}}}, {"name": "FeatureExtractor/detection_mnasfpn_v1_a_320_1/feature_network/fpn_cells/cell_0/sub_policy5/op_after_combine9/conv/separable_conv2d_weights", "op": "Const", "attr": {"dtype": {"type": "DT_FLOAT"}, "value": {"tensor": {"dtype": "DT_FLOAT", "tensorShape": {"dim": [{"size": "1"}, {"size": "1"}, {"size": "64"}, {"size": "64"}]}}}}}, {"name": "FeatureExtractor/detection_mnasfpn_v1_a_320_1/feature_network/fpn_cells/cell_0/sub_policy5/op_after_combine9/conv/separable_conv2d_bn_offset", "op": "Const", "attr": {"value": {"tensor": {"dtype": "DT_FLOAT", "tensorShape": {"dim": [{"size": "64"}]}}}, "dtype": {"type": "DT_FLOAT"}}}, {"name": "Preprocessor/map/while/Enter_1", "op": "Enter", "input": ["Preprocessor/map/Const"], "attr": {"T": {"type": "DT_INT32"}, "frame_name": {"s": "UHJlcHJvY2Vzc29yL21hcC93aGlsZS93aGlsZV9jb250ZXh0"}, "is_constant": {"b": false}, "parallel_iterations": {"i": "32"}}}, {"name": "Preprocessor/map/while/Enter", "op": "Enter", "input": ["Preprocessor/map/while/iteration_counter"], "attr": {"is_constant": {"b": false}, "frame_name": {"s": "UHJlcHJvY2Vzc29yL21hcC93aGlsZS93aGlsZV9jb250ZXh0"}, "parallel_iterations": {"i": "32"}, "T": {"type": "DT_INT32"}}}, {"name": "map/while/Enter_1", "op": "Enter", "input": ["map/Const"], "attr": {"frame_name": {"s": "bWFwL3doaWxlL3doaWxlX2NvbnRleHQ="}, "T": {"type": "DT_INT32"}, "parallel_iterations": {"i": "32"}, "is_constant": {"b": false}}}, {"name": "map/while/Enter", "op": "Enter", "input": ["map/while/iteration_counter"], "attr": {"frame_name": {"s": "bWFwL3doaWxlL3doaWxlX2NvbnRleHQ="}, "is_constant": {"b": false}, "parallel_iterations": {"i": "32"}, "T": {"type": "DT_INT32"}}}, {"name": "encoded_image_string_tensor", "op": "PlaceholderWithDefault", "input": ["encoded_image_string_tensor/input"], "attr": {"dtype": {"type": "DT_STRING"}, "shape": {"shape": {"dim": [{"size": "-1"}]}}}}, {"name": "Preprocessor/map/while/Merge_1", "op": "Merge", "input": ["Preprocessor/map/while/Enter_1", "Preprocessor/map/while/NextIteration_1"], "attr": {"T": {"type": "DT_INT32"}, "N": {"i": "2"}}}, {"name": "Preprocessor/map/while/Merge", "op": "Merge", "input": ["Preprocessor/map/while/Enter", "Preprocessor/map/while/NextIteration"], "attr": {"N": {"i": "2"}, "T": {"type": "DT_INT32"}}}, {"name": "map/while/Merge_1", "op": "Merge", "input": ["map/while/Enter_1", "map/while/NextIteration_1"], "attr": {"T": {"type": "DT_INT32"}, "N": {"i": "2"}}}, {"name": "map/while/Merge", "op": "Merge", "input": ["map/while/Enter", "map/while/NextIteration"], "attr": {"T": {"type": "DT_INT32"}, "N": {"i": "2"}}}, {"name": "map/TensorArrayStack/range", "op": "Const", "input": ["^encoded_image_string_tensor"], "attr": {"value": {"tensor": {"dtype": "DT_INT32", "tensorShape": {"dim": [{"size": "1"}]}}}, "dtype": {"type": "DT_INT32"}}}, {"name": "map/TensorArrayUnstack/range", "op": "Const", "input": ["^encoded_image_string_tensor"], "attr": {"value": {"tensor": {"dtype": "DT_INT32", "tensorShape": {"dim": [{"size": "1"}]}}}, "dtype": {"type": "DT_INT32"}}}, {"name": "map/strided_slice", "op": "Const", "input": ["^encoded_image_string_tensor"], "attr": {"value": {"tensor": {"dtype": "DT_INT32", "tensorShape": {}}}, "dtype": {"type": "DT_INT32"}}}, {"name": "map/TensorArray_1", "op": "TensorArrayV3", "input": ["map/strided_slice"], "attr": {"identical_element_shapes": {"b": true}, "clear_after_read": {"b": true}, "dynamic_size": {"b": false}, "dtype": {"type": "DT_UINT8"}, "tensor_array_name": {"s": ""}, "element_shape": {"shape": {"unknownRank": true}}}}, {"name": "map/TensorArray", "op": "TensorArrayV3", "input": ["map/strided_slice"], "attr": {"tensor_array_name": {"s": ""}, "element_shape": {"shape": {"unknownRank": true}}, "identical_element_shapes": {"b": true}, "clear_after_read": {"b": true}, "dynamic_size": {"b": false}, "dtype": {"type": "DT_STRING"}}}, {"name": "map/while/Less/Enter", "op": "Enter", "input": ["map/strided_slice"], "attr": {"T": {"type": "DT_INT32"}, "frame_name": {"s": "bWFwL3doaWxlL3doaWxlX2NvbnRleHQ="}, "parallel_iterations": {"i": "32"}, "is_constant": {"b": true}}}, {"name": "map/while/TensorArrayWrite/TensorArrayWriteV3/Enter", "op": "Enter", "input": ["map/TensorArray_1"], "attr": {"is_constant": {"b": true}, "parallel_iterations": {"i": "32"}, "T": {"type": "DT_RESOURCE"}, "frame_name": {"s": "bWFwL3doaWxlL3doaWxlX2NvbnRleHQ="}}}, {"name": "map/while/Enter_2", "op": "Enter", "input": ["map/TensorArray_1:1"], "attr": {"T": {"type": "DT_FLOAT"}, "frame_name": {"s": "bWFwL3doaWxlL3doaWxlX2NvbnRleHQ="}, "is_constant": {"b": false}, "parallel_iterations": {"i": "32"}}}, {"name": "map/while/TensorArrayReadV3/Enter", "op": "Enter", "input": ["map/TensorArray"], "attr": {"parallel_iterations": {"i": "32"}, "frame_name": {"s": "bWFwL3doaWxlL3doaWxlX2NvbnRleHQ="}, "T": {"type": "DT_RESOURCE"}, "is_constant": {"b": true}}}, {"name": "map/TensorArrayUnstack/TensorArrayScatter/TensorArrayScatterV3", "op": "TensorArrayScatterV3", "input": ["map/TensorArray", "map/TensorArrayUnstack/range", "encoded_image_string_tensor", "map/TensorArray:1"], "attr": {"T": {"type": "DT_STRING"}}}, {"name": "ConstantFolding/map/strided_slice_enter", "op": "Const", "input": ["^map/while/Less/Enter"], "attr": {"dtype": {"type": "DT_INT32"}, "value": {"tensor": {"dtype": "DT_INT32", "tensorShape": {}}}}}, {"name": "map/while/Merge_2", "op": "Merge", "input": ["map/while/Enter_2", "map/while/NextIteration_2"], "attr": {"T": {"type": "DT_FLOAT"}, "N": {"i": "2"}}}, {"name": "map/while/TensorArrayReadV3/Enter_1", "op": "Enter", "input": ["map/TensorArrayUnstack/TensorArrayScatter/TensorArrayScatterV3"], "attr": {"parallel_iterations": {"i": "32"}, "frame_name": {"s": "bWFwL3doaWxlL3doaWxlX2NvbnRleHQ="}, "is_constant": {"b": true}, "T": {"type": "DT_FLOAT"}}}, {"name": "map/while/Less", "op": "Less", "input": ["map/while/Merge", "ConstantFolding/map/strided_slice_enter"], "attr": {"T": {"type": "DT_INT32"}}}, {"name": "map/while/Less_1", "op": "Less", "input": ["map/while/Merge_1", "ConstantFolding/map/strided_slice_enter"], "attr": {"T": {"type": "DT_INT32"}}}, {"name": "map/while/LogicalAnd", "op": "LogicalAnd", "input": ["map/while/Less", "map/while/Less_1"]}, {"name": "map/while/LoopCond", "op": "LoopCond", "input": ["map/while/LogicalAnd"]}, {"name": "map/while/Switch_1", "op": "Switch", "input": ["map/while/Merge_1", "map/while/LoopCond"], "attr": {"T": {"type": "DT_INT32"}}}, {"name": "map/while/Switch", "op": "Switch", "input": ["map/while/Merge", "map/while/LoopCond"], "attr": {"T": {"type": "DT_INT32"}}}, {"name": "map/while/Switch_2", "op": "Switch", "input": ["map/while/Merge_2", "map/while/LoopCond"], "attr": {"T": {"type": "DT_FLOAT"}}}, {"name": "map/while/TensorArrayReadV3", "op": "TensorArrayReadV3", "input": ["map/while/TensorArrayReadV3/Enter", "map/while/Switch_1:1", "map/while/TensorArrayReadV3/Enter_1"], "attr": {"dtype": {"type": "DT_STRING"}}}, {"name": "map/while/Identity", "op": "Identity", "input": ["map/while/Switch:1"], "attr": {"T": {"type": "DT_INT32"}}}, {"name": "map/while/Exit_2", "op": "Exit", "input": ["map/while/Switch_2"], "attr": {"T": {"type": "DT_FLOAT"}}}, {"name": "map/while/DecodeJpeg", "op": "DecodeJpeg", "input": ["map/while/TensorArrayReadV3"], "attr": {"dct_method": {"s": ""}, "try_recover_truncated": {"b": false}, "acceptable_fraction": {"f": 1.0}, "fancy_upscaling": {"b": true}, "ratio": {"i": "1"}, "channels": {"i": "3"}}}, {"name": "map/while/add/y", "op": "Const", "input": ["^map/while/Identity"], "attr": {"dtype": {"type": "DT_INT32"}, "value": {"tensor": {"dtype": "DT_INT32", "tensorShape": {}}}}}, {"name": "map/while/add_1/y", "op": "Const", "input": ["^map/while/Identity"], "attr": {"dtype": {"type": "DT_INT32"}, "value": {"tensor": {"dtype": "DT_INT32", "tensorShape": {}}}}}, {"name": "map/TensorArrayStack/TensorArrayGatherV3", "op": "TensorArrayGatherV3", "input": ["map/TensorArray_1", "map/TensorArrayStack/range", "map/while/Exit_2"], "attr": {"element_shape": {"shape": {"dim": [{"size": "-1"}, {"size": "-1"}, {"size": "3"}]}}, "dtype": {"type": "DT_UINT8"}}}, {"name": "map/while/TensorArrayWrite/TensorArrayWriteV3", "op": "TensorArrayWriteV3", "input": ["map/while/TensorArrayWrite/TensorArrayWriteV3/Enter", "map/while/Switch_1:1", "map/while/DecodeJpeg", "map/while/Switch_2:1"], "attr": {"T": {"type": "DT_UINT8"}}}, {"name": "map/while/add", "op": "AddV2", "input": ["map/while/Identity", "map/while/add/y"], "attr": {"T": {"type": "DT_INT32"}}}, {"name": "map/while/add_1", "op": "AddV2", "input": ["map/while/Switch_1:1", "map/while/add_1/y"], "attr": {"T": {"type": "DT_INT32"}}}, {"name": "ToFloat", "op": "Cast", "input": ["map/TensorArrayStack/TensorArrayGatherV3"], "attr": {"Truncate": {"b": false}, "DstT": {"type": "DT_FLOAT"}, "SrcT": {"type": "DT_UINT8"}}}, {"name": "map/while/NextIteration_2", "op": "NextIteration", "input": ["map/while/TensorArrayWrite/TensorArrayWriteV3"], "attr": {"T": {"type": "DT_FLOAT"}}}, {"name": "map/while/NextIteration", "op": "NextIteration", "input": ["map/while/add"], "attr": {"T": {"type": "DT_INT32"}}}, {"name": "map/while/NextIteration_1", "op": "NextIteration", "input": ["map/while/add_1"], "attr": {"T": {"type": "DT_INT32"}}}, {"name": "Preprocessor/mul", "op": "Mul", "input": ["Preprocessor/mul/x", "ToFloat"], "attr": {"T": {"type": "DT_FLOAT"}}}, {"name": "Preprocessor/sub", "op": "Sub", "input": ["Preprocessor/mul", "Preprocessor/sub/y"], "attr": {"T": {"type": "DT_FLOAT"}}}, {"name": "Preprocessor/map/TensorArrayUnstack/Shape", "op": "Shape", "input": ["Preprocessor/sub"], "attr": {"T": {"type": "DT_FLOAT"}, "out_type": {"type": "DT_INT32"}}}, {"name": "Preprocessor/map/Shape", "op": "Shape", "input": ["Preprocessor/sub"], "attr": {"T": {"type": "DT_FLOAT"}, "out_type": {"type": "DT_INT32"}}}, {"name": "Preprocessor/map/TensorArrayUnstack/strided_slice", "op": "StridedSlice", "input": ["Preprocessor/map/TensorArrayUnstack/Shape", "Preprocessor/map/TensorArrayUnstack/strided_slice/stack", "Preprocessor/map/TensorArrayUnstack/strided_slice/stack_1", "Preprocessor/map/TensorArrayUnstack/strided_slice/stack_2"], "attr": {"new_axis_mask": {"i": "0"}, "T": {"type": "DT_INT32"}, "begin_mask": {"i": "0"}, "end_mask": {"i": "0"}, "shrink_axis_mask": {"i": "1"}, "Index": {"type": "DT_INT32"}, "ellipsis_mask": {"i": "0"}}}, {"name": "Preprocessor/map/strided_slice", "op": "StridedSlice", "input": ["Preprocessor/map/Shape", "Preprocessor/map/strided_slice/stack", "Preprocessor/map/strided_slice/stack_1", "Preprocessor/map/strided_slice/stack_2"], "attr": {"shrink_axis_mask": {"i": "1"}, "ellipsis_mask": {"i": "0"}, "Index": {"type": "DT_INT32"}, "end_mask": {"i": "0"}, "new_axis_mask": {"i": "0"}, "T": {"type": "DT_INT32"}, "begin_mask": {"i": "0"}}}, {"name": "Preprocessor/map/TensorArrayUnstack/range", "op": "Range", "input": ["Preprocessor/map/TensorArrayUnstack/range/start", "Preprocessor/map/TensorArrayUnstack/strided_slice", "Preprocessor/map/TensorArrayUnstack/range/delta"], "attr": {"Tidx": {"type": "DT_INT32"}}}, {"name": "Preprocessor/map/TensorArrayStack/range", "op": "Range", "input": ["Preprocessor/map/TensorArrayStack/range/start", "Preprocessor/map/strided_slice", "Preprocessor/map/TensorArrayStack/range/delta"], "attr": {"Tidx": {"type": "DT_INT32"}}}, {"name": "Preprocessor/map/TensorArray_1", "op": "TensorArrayV3", "input": ["Preprocessor/map/strided_slice"], "attr": {"element_shape": {"shape": {"unknownRank": true}}, "clear_after_read": {"b": true}, "dtype": {"type": "DT_FLOAT"}, "dynamic_size": {"b": false}, "identical_element_shapes": {"b": true}, "tensor_array_name": {"s": ""}}}, {"name": "Preprocessor/map/TensorArray", "op": "TensorArrayV3", "input": ["Preprocessor/map/strided_slice"], "attr": {"tensor_array_name": {"s": ""}, "element_shape": {"shape": {"unknownRank": true}}, "dynamic_size": {"b": false}, "clear_after_read": {"b": true}, "dtype": {"type": "DT_FLOAT"}, "identical_element_shapes": {"b": true}}}, {"name": "Preprocessor/map/while/Less/Enter", "op": "Enter", "input": ["Preprocessor/map/strided_slice"], "attr": {"frame_name": {"s": "UHJlcHJvY2Vzc29yL21hcC93aGlsZS93aGlsZV9jb250ZXh0"}, "is_constant": {"b": true}, "parallel_iterations": {"i": "32"}, "T": {"type": "DT_INT32"}}}, {"name": "Preprocessor/map/while/TensorArrayWrite/TensorArrayWriteV3/Enter", "op": "Enter", "input": ["Preprocessor/map/TensorArray_1"], "attr": {"T": {"type": "DT_RESOURCE"}, "parallel_iterations": {"i": "32"}, "is_constant": {"b": true}, "frame_name": {"s": "UHJlcHJvY2Vzc29yL21hcC93aGlsZS93aGlsZV9jb250ZXh0"}}}, {"name": "Preprocessor/map/while/Enter_2", "op": "Enter", "input": ["Preprocessor/map/TensorArray_1:1"], "attr": {"parallel_iterations": {"i": "32"}, "T": {"type": "DT_FLOAT"}, "is_constant": {"b": false}, "frame_name": {"s": "UHJlcHJvY2Vzc29yL21hcC93aGlsZS93aGlsZV9jb250ZXh0"}}}, {"name": "Preprocessor/map/while/TensorArrayReadV3/Enter", "op": "Enter", "input": ["Preprocessor/map/TensorArray"], "attr": {"T": {"type": "DT_RESOURCE"}, "is_constant": {"b": true}, "parallel_iterations": {"i": "32"}, "frame_name": {"s": "UHJlcHJvY2Vzc29yL21hcC93aGlsZS93aGlsZV9jb250ZXh0"}}}, {"name": "Preprocessor/map/TensorArrayUnstack/TensorArrayScatter/TensorArrayScatterV3", "op": "TensorArrayScatterV3", "input": ["Preprocessor/map/TensorArray", "Preprocessor/map/TensorArrayUnstack/range", "Preprocessor/sub", "Preprocessor/map/TensorArray:1"], "attr": {"T": {"type": "DT_FLOAT"}}}, {"name": "Preprocessor/map/while/Less", "op": "Less", "input": ["Preprocessor/map/while/Merge", "Preprocessor/map/while/Less/Enter"], "attr": {"T": {"type": "DT_INT32"}}}, {"name": "Preprocessor/map/while/Less_1", "op": "Less", "input": ["Preprocessor/map/while/Merge_1", "Preprocessor/map/while/Less/Enter"], "attr": {"T": {"type": "DT_INT32"}}}, {"name": "Preprocessor/map/while/Merge_2", "op": "Merge", "input": ["Preprocessor/map/while/Enter_2", "Preprocessor/map/while/NextIteration_2"], "attr": {"N": {"i": "2"}, "T": {"type": "DT_FLOAT"}}}, {"name": "Preprocessor/map/while/TensorArrayReadV3/Enter_1", "op": "Enter", "input": ["Preprocessor/map/TensorArrayUnstack/TensorArrayScatter/TensorArrayScatterV3"], "attr": {"T": {"type": "DT_FLOAT"}, "parallel_iterations": {"i": "32"}, "is_constant": {"b": true}, "frame_name": {"s": "UHJlcHJvY2Vzc29yL21hcC93aGlsZS93aGlsZV9jb250ZXh0"}}}, {"name": "Preprocessor/map/while/LogicalAnd", "op": "LogicalAnd", "input": ["Preprocessor/map/while/Less", "Preprocessor/map/while/Less_1"]}, {"name": "Preprocessor/map/while/LoopCond", "op": "LoopCond", "input": ["Preprocessor/map/while/LogicalAnd"]}, {"name": "Preprocessor/map/while/Switch_1", "op": "Switch", "input": ["Preprocessor/map/while/Merge_1", "Preprocessor/map/while/LoopCond"], "attr": {"T": {"type": "DT_INT32"}}}, {"name": "Preprocessor/map/while/Switch", "op": "Switch", "input": ["Preprocessor/map/while/Merge", "Preprocessor/map/while/LoopCond"], "attr": {"T": {"type": "DT_INT32"}}}, {"name": "Preprocessor/map/while/Switch_2", "op": "Switch", "input": ["Preprocessor/map/while/Merge_2", "Preprocessor/map/while/LoopCond"], "attr": {"T": {"type": "DT_FLOAT"}}}, {"name": "Preprocessor/map/while/TensorArrayReadV3", "op": "TensorArrayReadV3", "input": ["Preprocessor/map/while/TensorArrayReadV3/Enter", "Preprocessor/map/while/Switch_1:1", "Preprocessor/map/while/TensorArrayReadV3/Enter_1"], "attr": {"dtype": {"type": "DT_FLOAT"}}}, {"name": "Preprocessor/map/while/Identity", "op": "Identity", "input": ["Preprocessor/map/while/Switch:1"], "attr": {"T": {"type": "DT_INT32"}}}, {"name": "Preprocessor/map/while/Exit_2", "op": "Exit", "input": ["Preprocessor/map/while/Switch_2"], "attr": {"T": {"type": "DT_FLOAT"}}}, {"name": "Preprocessor/map/while/ResizeImage/resize/ExpandDims/dim", "op": "Const", "input": ["^Preprocessor/map/while/Identity"], "attr": {"dtype": {"type": "DT_INT32"}, "value": {"tensor": {"dtype": "DT_INT32", "tensorShape": {}}}}}, {"name": "Preprocessor/map/while/ResizeImage/stack", "op": "Const", "input": ["^Preprocessor/map/while/Identity"], "attr": {"value": {"tensor": {"dtype": "DT_INT32", "tensorShape": {"dim": [{"size": "2"}]}}}, "dtype": {"type": "DT_INT32"}}}, {"name": "Preprocessor/map/while/add/y", "op": "Const", "input": ["^Preprocessor/map/while/Identity"], "attr": {"value": {"tensor": {"dtype": "DT_INT32", "tensorShape": {}}}, "dtype": {"type": "DT_INT32"}}}, {"name": "Preprocessor/map/while/add_1/y", "op": "Const", "input": ["^Preprocessor/map/while/Identity"], "attr": {"value": {"tensor": {"dtype": "DT_INT32", "tensorShape": {}}}, "dtype": {"type": "DT_INT32"}}}, {"name": "Preprocessor/map/TensorArrayStack/TensorArrayGatherV3", "op": "TensorArrayGatherV3", "input": ["Preprocessor/map/TensorArray_1", "Preprocessor/map/TensorArrayStack/range", "Preprocessor/map/while/Exit_2"], "attr": {"dtype": {"type": "DT_FLOAT"}, "element_shape": {"shape": {"dim": [{"size": "320"}, {"size": "320"}, {"size": "3"}]}}}}, {"name": "Preprocessor/map/while/ResizeImage/resize/ExpandDims", "op": "ExpandDims", "input": ["Preprocessor/map/while/TensorArrayReadV3", "Preprocessor/map/while/ResizeImage/resize/ExpandDims/dim"], "attr": {"T": {"type": "DT_FLOAT"}, "Tdim": {"type": "DT_INT32"}}}, {"name": "Preprocessor/map/while/add", "op": "AddV2", "input": ["Preprocessor/map/while/Identity", "Preprocessor/map/while/add/y"], "attr": {"T": {"type": "DT_INT32"}}}, {"name": "Preprocessor/map/while/add_1", "op": "AddV2", "input": ["Preprocessor/map/while/Switch_1:1", "Preprocessor/map/while/add_1/y"], "attr": {"T": {"type": "DT_INT32"}}}, {"name": "FeatureExtractor/detection_mnasfpn_v1_a_320_1/mnasnet-a1/mnas_net_model/mnas_stem/Relu", "op": "_FusedConv2D", "input": ["Preprocessor/map/TensorArrayStack/TensorArrayGatherV3", "FeatureExtractor/detection_mnasfpn_v1_a_320_1/mnasnet-a1/mnas_net_model/mnas_stem/conv2d/Conv2D_weights", "FeatureExtractor/detection_mnasfpn_v1_a_320_1/mnasnet-a1/mnas_net_model/mnas_stem/conv2d/Conv2D_bn_offset"], "device": "/device:CPU:0", "attr": {"strides": {"list": {"i": ["1", "2", "2", "1"]}}, "num_args": {"i": "1"}, "dilations": {"list": {"i": ["1", "1", "1", "1"]}}, "T": {"type": "DT_FLOAT"}, "padding": {"s": "U0FNRQ=="}, "data_format": {"s": "TkhXQw=="}, "use_cudnn_on_gpu": {"b": true}, "leakyrelu_alpha": {"f": 0.20000000298023224}, "epsilon": {"f": 0.0}, "explicit_paddings": {"list": {}}, "fused_ops": {"list": {"s": ["Qmlhc0FkZA==", "UmVsdQ=="]}}}}, {"name": "Preprocessor/map/while/ResizeImage/resize/ResizeBilinear", "op": "ResizeBilinear", "input": ["Preprocessor/map/while/ResizeImage/resize/ExpandDims", "Preprocessor/map/while/ResizeImage/stack"], "attr": {"T": {"type": "DT_FLOAT"}, "align_corners": {"b": false}, "half_pixel_centers": {"b": false}}}, {"name": "Preprocessor/map/while/NextIteration", "op": "NextIteration", "input": ["Preprocessor/map/while/add"], "attr": {"T": {"type": "DT_INT32"}}}, {"name": "Preprocessor/map/while/NextIteration_1", "op": "NextIteration", "input": ["Preprocessor/map/while/add_1"], "attr": {"T": {"type": "DT_INT32"}}}, {"name": "FeatureExtractor/detection_mnasfpn_v1_a_320_1/mnasnet-a1/mnas_net_model/mnas_blocks_0/depthwise_conv2d/depthwise", "op": "FusedDepthwiseConv2dNative", "input": ["FeatureExtractor/detection_mnasfpn_v1_a_320_1/mnasnet-a1/mnas_net_model/mnas_stem/Relu", "FeatureExtractor/detection_mnasfpn_v1_a_320_1/mnasnet-a1/mnas_net_model/mnas_blocks_0/depthwise_conv2d/depthwise_weights", "FeatureExtractor/detection_mnasfpn_v1_a_320_1/mnasnet-a1/mnas_net_model/mnas_blocks_0/depthwise_conv2d/depthwise_bn_offset"], "attr": {"fused_ops": {"list": {"s": ["Qmlhc0FkZA==", "UmVsdQ=="]}}, "data_format": {"s": "TkhXQw=="}, "num_args": {"i": "1"}, "explicit_paddings": {"list": {}}, "padding": {"s": "U0FNRQ=="}, "strides": {"list": {"i": ["1", "1", "1", "1"]}}, "dilations": {"list": {"i": ["1", "1", "1", "1"]}}, "T": {"type": "DT_FLOAT"}}}, {"name": "Preprocessor/map/while/ResizeImage/resize/Squeeze", "op": "Squeeze", "input": ["Preprocessor/map/while/ResizeImage/resize/ResizeBilinear"], "attr": {"T": {"type": "DT_FLOAT"}, "squeeze_dims": {"list": {"i": ["0"]}}}}, {"name": "Preprocessor/map/while/TensorArrayWrite/TensorArrayWriteV3", "op": "TensorArrayWriteV3", "input": ["Preprocessor/map/while/TensorArrayWrite/TensorArrayWriteV3/Enter", "Preprocessor/map/while/Switch_1:1", "Preprocessor/map/while/ResizeImage/resize/Squeeze", "Preprocessor/map/while/Switch_2:1"], "attr": {"T": {"type": "DT_FLOAT"}}}, {"name": "Preprocessor/map/while/NextIteration_2", "op": "NextIteration", "input": ["Preprocessor/map/while/TensorArrayWrite/TensorArrayWriteV3"], "attr": {"T": {"type": "DT_FLOAT"}}}, {"name": "FeatureExtractor/detection_mnasfpn_v1_a_320_1/mnasnet-a1/mnas_net_model/mnas_blocks_0/batch_normalization_1/FusedBatchNormV3", "op": "_FusedConv2D", "input": ["FeatureExtractor/detection_mnasfpn_v1_a_320_1/mnasnet-a1/mnas_net_model/mnas_blocks_0/depthwise_conv2d/depthwise", "FeatureExtractor/detection_mnasfpn_v1_a_320_1/mnasnet-a1/mnas_net_model/mnas_blocks_0/conv2d/Conv2D_weights", "FeatureExtractor/detection_mnasfpn_v1_a_320_1/mnasnet-a1/mnas_net_model/mnas_blocks_0/conv2d/Conv2D_bn_offset"], "device": "/device:CPU:0", "attr": {"explicit_paddings": {"list": {}}, "strides": {"list": {"i": ["1", "1", "1", "1"]}}, "fused_ops": {"list": {"s": ["Qmlhc0FkZA=="]}}, "dilations": {"list": {"i": ["1", "1", "1", "1"]}}, "epsilon": {"f": 0.0}, "use_cudnn_on_gpu": {"b": true}, "num_args": {"i": "1"}, "data_format": {"s": "TkhXQw=="}, "padding": {"s": "U0FNRQ=="}, "T": {"type": "DT_FLOAT"}, "leakyrelu_alpha": {"f": 0.20000000298023224}}}, {"name": "FeatureExtractor/detection_mnasfpn_v1_a_320_1/mnasnet-a1/mnas_net_model/mnas_blocks_1/Relu", "op": "_FusedConv2D", "input": ["FeatureExtractor/detection_mnasfpn_v1_a_320_1/mnasnet-a1/mnas_net_model/mnas_blocks_0/batch_normalization_1/FusedBatchNormV3", "FeatureExtractor/detection_mnasfpn_v1_a_320_1/mnasnet-a1/mnas_net_model/mnas_blocks_1/conv2d/Conv2D_weights", "FeatureExtractor/detection_mnasfpn_v1_a_320_1/mnasnet-a1/mnas_net_model/mnas_blocks_1/conv2d/Conv2D_bn_offset"], "device": "/device:CPU:0", "attr": {"explicit_paddings": {"list": {}}, "strides": {"list": {"i": ["1", "1", "1", "1"]}}, "T": {"type": "DT_FLOAT"}, "dilations": {"list": {"i": ["1", "1", "1", "1"]}}, "num_args": {"i": "1"}, "data_format": {"s": "TkhXQw=="}, "fused_ops": {"list": {"s": ["Qmlhc0FkZA==", "UmVsdQ=="]}}, "epsilon": {"f": 0.0}, "use_cudnn_on_gpu": {"b": true}, "padding": {"s": "U0FNRQ=="}, "leakyrelu_alpha": {"f": 0.20000000298023224}}}, {"name": "FeatureExtractor/detection_mnasfpn_v1_a_320_1/mnasnet-a1/mnas_net_model/mnas_blocks_1/depthwise_conv2d/depthwise", "op": "FusedDepthwiseConv2dNative", "input": ["FeatureExtractor/detection_mnasfpn_v1_a_320_1/mnasnet-a1/mnas_net_model/mnas_blocks_1/Relu", "FeatureExtractor/detection_mnasfpn_v1_a_320_1/mnasnet-a1/mnas_net_model/mnas_blocks_1/depthwise_conv2d/depthwise_weights", "FeatureExtractor/detection_mnasfpn_v1_a_320_1/mnasnet-a1/mnas_net_model/mnas_blocks_1/depthwise_conv2d/depthwise_bn_offset"], "attr": {"padding": {"s": "U0FNRQ=="}, "num_args": {"i": "1"}, "strides": {"list": {"i": ["1", "2", "2", "1"]}}, "fused_ops": {"list": {"s": ["Qmlhc0FkZA==", "UmVsdQ=="]}}, "dilations": {"list": {"i": ["1", "1", "1", "1"]}}, "explicit_paddings": {"list": {}}, "data_format": {"s": "TkhXQw=="}, "T": {"type": "DT_FLOAT"}}}, {"name": "FeatureExtractor/detection_mnasfpn_v1_a_320_1/mnasnet-a1/mnas_net_model/mnas_blocks_1/batch_normalization_2/FusedBatchNormV3", "op": "_FusedConv2D", "input": ["FeatureExtractor/detection_mnasfpn_v1_a_320_1/mnasnet-a1/mnas_net_model/mnas_blocks_1/depthwise_conv2d/depthwise", "FeatureExtractor/detection_mnasfpn_v1_a_320_1/mnasnet-a1/mnas_net_model/mnas_blocks_1/conv2d_1/Conv2D_weights", "FeatureExtractor/detection_mnasfpn_v1_a_320_1/mnasnet-a1/mnas_net_model/mnas_blocks_1/conv2d_1/Conv2D_bn_offset"], "device": "/device:CPU:0", "attr": {"num_args": {"i": "1"}, "use_cudnn_on_gpu": {"b": true}, "T": {"type": "DT_FLOAT"}, "epsilon": {"f": 0.0}, "data_format": {"s": "TkhXQw=="}, "explicit_paddings": {"list": {}}, "strides": {"list": {"i": ["1", "1", "1", "1"]}}, "dilations": {"list": {"i": ["1", "1", "1", "1"]}}, "fused_ops": {"list": {"s": ["Qmlhc0FkZA=="]}}, "leakyrelu_alpha": {"f": 0.20000000298023224}, "padding": {"s": "U0FNRQ=="}}}, {"name": "FeatureExtractor/detection_mnasfpn_v1_a_320_1/mnasnet-a1/mnas_net_model/mnas_blocks_2/Relu", "op": "_FusedConv2D", "input": ["FeatureExtractor/detection_mnasfpn_v1_a_320_1/mnasnet-a1/mnas_net_model/mnas_blocks_1/batch_normalization_2/FusedBatchNormV3", "FeatureExtractor/detection_mnasfpn_v1_a_320_1/mnasnet-a1/mnas_net_model/mnas_blocks_2/conv2d/Conv2D_weights", "FeatureExtractor/detection_mnasfpn_v1_a_320_1/mnasnet-a1/mnas_net_model/mnas_blocks_2/conv2d/Conv2D_bn_offset"], "device": "/device:CPU:0", "attr": {"data_format": {"s": "TkhXQw=="}, "num_args": {"i": "1"}, "leakyrelu_alpha": {"f": 0.20000000298023224}, "epsilon": {"f": 0.0}, "explicit_paddings": {"list": {}}, "padding": {"s": "U0FNRQ=="}, "use_cudnn_on_gpu": {"b": true}, "T": {"type": "DT_FLOAT"}, "dilations": {"list": {"i": ["1", "1", "1", "1"]}}, "strides": {"list": {"i": ["1", "1", "1", "1"]}}, "fused_ops": {"list": {"s": ["Qmlhc0FkZA==", "UmVsdQ=="]}}}}, {"name": "FeatureExtractor/detection_mnasfpn_v1_a_320_1/mnasnet-a1/mnas_net_model/mnas_blocks_2/depthwise_conv2d/depthwise", "op": "FusedDepthwiseConv2dNative", "input": ["FeatureExtractor/detection_mnasfpn_v1_a_320_1/mnasnet-a1/mnas_net_model/mnas_blocks_2/Relu", "FeatureExtractor/detection_mnasfpn_v1_a_320_1/mnasnet-a1/mnas_net_model/mnas_blocks_2/depthwise_conv2d/depthwise_weights", "FeatureExtractor/detection_mnasfpn_v1_a_320_1/mnasnet-a1/mnas_net_model/mnas_blocks_2/depthwise_conv2d/depthwise_bn_offset"], "attr": {"T": {"type": "DT_FLOAT"}, "fused_ops": {"list": {"s": ["Qmlhc0FkZA==", "UmVsdQ=="]}}, "data_format": {"s": "TkhXQw=="}, "num_args": {"i": "1"}, "dilations": {"list": {"i": ["1", "1", "1", "1"]}}, "padding": {"s": "U0FNRQ=="}, "explicit_paddings": {"list": {}}, "strides": {"list": {"i": ["1", "1", "1", "1"]}}}}, {"name": "FeatureExtractor/detection_mnasfpn_v1_a_320_1/mnasnet-a1/mnas_net_model/mnas_blocks_2/batch_normalization_2/FusedBatchNormV3", "op": "_FusedConv2D", "input": ["FeatureExtractor/detection_mnasfpn_v1_a_320_1/mnasnet-a1/mnas_net_model/mnas_blocks_2/depthwise_conv2d/depthwise", "FeatureExtractor/detection_mnasfpn_v1_a_320_1/mnasnet-a1/mnas_net_model/mnas_blocks_2/conv2d_1/Conv2D_weights", "FeatureExtractor/detection_mnasfpn_v1_a_320_1/mnasnet-a1/mnas_net_model/mnas_blocks_2/conv2d_1/Conv2D_bn_offset"], "device": "/device:CPU:0", "attr": {"T": {"type": "DT_FLOAT"}, "explicit_paddings": {"list": {}}, "padding": {"s": "U0FNRQ=="}, "use_cudnn_on_gpu": {"b": true}, "data_format": {"s": "TkhXQw=="}, "fused_ops": {"list": {"s": ["Qmlhc0FkZA=="]}}, "epsilon": {"f": 0.0}, "leakyrelu_alpha": {"f": 0.20000000298023224}, "num_args": {"i": "1"}, "dilations": {"list": {"i": ["1", "1", "1", "1"]}}, "strides": {"list": {"i": ["1", "1", "1", "1"]}}}}, {"name": "FeatureExtractor/detection_mnasfpn_v1_a_320_1/mnasnet-a1/mnas_net_model/mnas_blocks_2/Add", "op": "AddV2", "input": ["FeatureExtractor/detection_mnasfpn_v1_a_320_1/mnasnet-a1/mnas_net_model/mnas_blocks_2/batch_normalization_2/FusedBatchNormV3", "FeatureExtractor/detection_mnasfpn_v1_a_320_1/mnasnet-a1/mnas_net_model/mnas_blocks_1/batch_normalization_2/FusedBatchNormV3"], "attr": {"T": {"type": "DT_FLOAT"}}}, {"name": "FeatureExtractor/detection_mnasfpn_v1_a_320_1/mnasnet-a1/mnas_net_model/mnas_blocks_3/Relu", "op": "_FusedConv2D", "input": ["FeatureExtractor/detection_mnasfpn_v1_a_320_1/mnasnet-a1/mnas_net_model/mnas_blocks_2/Add", "FeatureExtractor/detection_mnasfpn_v1_a_320_1/mnasnet-a1/mnas_net_model/mnas_blocks_3/conv2d/Conv2D_weights", "FeatureExtractor/detection_mnasfpn_v1_a_320_1/mnasnet-a1/mnas_net_model/mnas_blocks_3/conv2d/Conv2D_bn_offset"], "device": "/device:CPU:0", "attr": {"epsilon": {"f": 0.0}, "data_format": {"s": "TkhXQw=="}, "leakyrelu_alpha": {"f": 0.20000000298023224}, "T": {"type": "DT_FLOAT"}, "num_args": {"i": "1"}, "dilations": {"list": {"i": ["1", "1", "1", "1"]}}, "explicit_paddings": {"list": {}}, "strides": {"list": {"i": ["1", "1", "1", "1"]}}, "use_cudnn_on_gpu": {"b": true}, "padding": {"s": "U0FNRQ=="}, "fused_ops": {"list": {"s": ["Qmlhc0FkZA==", "UmVsdQ=="]}}}}, {"name": "FeatureExtractor/detection_mnasfpn_v1_a_320_1/mnasnet-a1/mnas_net_model/mnas_blocks_3/depthwise_conv2d/depthwise", "op": "FusedDepthwiseConv2dNative", "input": ["FeatureExtractor/detection_mnasfpn_v1_a_320_1/mnasnet-a1/mnas_net_model/mnas_blocks_3/Relu", "FeatureExtractor/detection_mnasfpn_v1_a_320_1/mnasnet-a1/mnas_net_model/mnas_blocks_3/depthwise_conv2d/depthwise_weights", "FeatureExtractor/detection_mnasfpn_v1_a_320_1/mnasnet-a1/mnas_net_model/mnas_blocks_3/depthwise_conv2d/depthwise_bn_offset"], "attr": {"dilations": {"list": {"i": ["1", "1", "1", "1"]}}, "data_format": {"s": "TkhXQw=="}, "num_args": {"i": "1"}, "fused_ops": {"list": {"s": ["Qmlhc0FkZA==", "UmVsdQ=="]}}, "strides": {"list": {"i": ["1", "2", "2", "1"]}}, "explicit_paddings": {"list": {}}, "T": {"type": "DT_FLOAT"}, "padding": {"s": "U0FNRQ=="}}}, {"name": "FeatureExtractor/detection_mnasfpn_v1_a_320_1/mnasnet-a1/mnas_net_model/mnas_blocks_3/se/Mean", "op": "Mean", "input": ["FeatureExtractor/detection_mnasfpn_v1_a_320_1/mnasnet-a1/mnas_net_model/mnas_blocks_3/depthwise_conv2d/depthwise", "FeatureExtractor/detection_mnasfpn_v1_a_320_1/mnasnet-a1/mnas_net_model/mnas_blocks_3/se/Mean/reduction_indices"], "attr": {"Tidx": {"type": "DT_INT32"}, "T": {"type": "DT_FLOAT"}, "keep_dims": {"b": true}}}, {"name": "FeatureExtractor/detection_mnasfpn_v1_a_320_1/mnasnet-a1/mnas_net_model/mnas_blocks_3/se/Relu", "op": "_FusedConv2D", "input": ["FeatureExtractor/detection_mnasfpn_v1_a_320_1/mnasnet-a1/mnas_net_model/mnas_blocks_3/se/Mean", "FeatureExtractor/mnasnet-a1/mnas_blocks_3/se/conv2d/kernel", "FeatureExtractor/mnasnet-a1/mnas_blocks_3/se/conv2d/bias"], "device": "/device:CPU:0", "attr": {"num_args": {"i": "1"}, "leakyrelu_alpha": {"f": 0.20000000298023224}, "explicit_paddings": {"list": {}}, "dilations": {"list": {"i": ["1", "1", "1", "1"]}}, "data_format": {"s": "TkhXQw=="}, "epsilon": {"f": 0.0}, "padding": {"s": "U0FNRQ=="}, "use_cudnn_on_gpu": {"b": true}, "fused_ops": {"list": {"s": ["Qmlhc0FkZA==", "UmVsdQ=="]}}, "strides": {"list": {"i": ["1", "1", "1", "1"]}}, "T": {"type": "DT_FLOAT"}}}, {"name": "FeatureExtractor/detection_mnasfpn_v1_a_320_1/mnasnet-a1/mnas_net_model/mnas_blocks_3/se/conv2d_1/BiasAdd", "op": "_FusedConv2D", "input": ["FeatureExtractor/detection_mnasfpn_v1_a_320_1/mnasnet-a1/mnas_net_model/mnas_blocks_3/se/Relu", "FeatureExtractor/mnasnet-a1/mnas_blocks_3/se/conv2d_1/kernel", "FeatureExtractor/mnasnet-a1/mnas_blocks_3/se/conv2d_1/bias"], "device": "/device:CPU:0", "attr": {"leakyrelu_alpha": {"f": 0.20000000298023224}, "data_format": {"s": "TkhXQw=="}, "dilations": {"list": {"i": ["1", "1", "1", "1"]}}, "T": {"type": "DT_FLOAT"}, "fused_ops": {"list": {"s": ["Qmlhc0FkZA=="]}}, "use_cudnn_on_gpu": {"b": true}, "explicit_paddings": {"list": {}}, "padding": {"s": "U0FNRQ=="}, "strides": {"list": {"i": ["1", "1", "1", "1"]}}, "epsilon": {"f": 0.0}, "num_args": {"i": "1"}}}, {"name": "FeatureExtractor/detection_mnasfpn_v1_a_320_1/mnasnet-a1/mnas_net_model/mnas_blocks_3/se/Sigmoid", "op": "Sigmoid", "input": ["FeatureExtractor/detection_mnasfpn_v1_a_320_1/mnasnet-a1/mnas_net_model/mnas_blocks_3/se/conv2d_1/BiasAdd"], "attr": {"T": {"type": "DT_FLOAT"}}}, {"name": "FeatureExtractor/detection_mnasfpn_v1_a_320_1/mnasnet-a1/mnas_net_model/mnas_blocks_3/se/mul", "op": "Mul", "input": ["FeatureExtractor/detection_mnasfpn_v1_a_320_1/mnasnet-a1/mnas_net_model/mnas_blocks_3/se/Sigmoid", "FeatureExtractor/detection_mnasfpn_v1_a_320_1/mnasnet-a1/mnas_net_model/mnas_blocks_3/depthwise_conv2d/depthwise"], "attr": {"T": {"type": "DT_FLOAT"}}}, {"name": "FeatureExtractor/detection_mnasfpn_v1_a_320_1/mnasnet-a1/mnas_net_model/mnas_blocks_3/batch_normalization_2/FusedBatchNormV3", "op": "_FusedConv2D", "input": ["FeatureExtractor/detection_mnasfpn_v1_a_320_1/mnasnet-a1/mnas_net_model/mnas_blocks_3/se/mul", "FeatureExtractor/detection_mnasfpn_v1_a_320_1/mnasnet-a1/mnas_net_model/mnas_blocks_3/conv2d_1/Conv2D_weights", "FeatureExtractor/detection_mnasfpn_v1_a_320_1/mnasnet-a1/mnas_net_model/mnas_blocks_3/conv2d_1/Conv2D_bn_offset"], "device": "/device:CPU:0", "attr": {"fused_ops": {"list": {"s": ["Qmlhc0FkZA=="]}}, "T": {"type": "DT_FLOAT"}, "leakyrelu_alpha": {"f": 0.20000000298023224}, "dilations": {"list": {"i": ["1", "1", "1", "1"]}}, "strides": {"list": {"i": ["1", "1", "1", "1"]}}, "explicit_paddings": {"list": {}}, "padding": {"s": "U0FNRQ=="}, "epsilon": {"f": 0.0}, "num_args": {"i": "1"}, "use_cudnn_on_gpu": {"b": true}, "data_format": {"s": "TkhXQw=="}}}, {"name": "FeatureExtractor/detection_mnasfpn_v1_a_320_1/mnasnet-a1/mnas_net_model/mnas_blocks_4/Relu", "op": "_FusedConv2D", "input": ["FeatureExtractor/detection_mnasfpn_v1_a_320_1/mnasnet-a1/mnas_net_model/mnas_blocks_3/batch_normalization_2/FusedBatchNormV3", "FeatureExtractor/detection_mnasfpn_v1_a_320_1/mnasnet-a1/mnas_net_model/mnas_blocks_4/conv2d/Conv2D_weights", "FeatureExtractor/detection_mnasfpn_v1_a_320_1/mnasnet-a1/mnas_net_model/mnas_blocks_4/conv2d/Conv2D_bn_offset"], "device": "/device:CPU:0", "attr": {"leakyrelu_alpha": {"f": 0.20000000298023224}, "data_format": {"s": "TkhXQw=="}, "strides": {"list": {"i": ["1", "1", "1", "1"]}}, "num_args": {"i": "1"}, "epsilon": {"f": 0.0}, "padding": {"s": "U0FNRQ=="}, "fused_ops": {"list": {"s": ["Qmlhc0FkZA==", "UmVsdQ=="]}}, "T": {"type": "DT_FLOAT"}, "use_cudnn_on_gpu": {"b": true}, "dilations": {"list": {"i": ["1", "1", "1", "1"]}}, "explicit_paddings": {"list": {}}}}, {"name": "FeatureExtractor/detection_mnasfpn_v1_a_320_1/mnasnet-a1/mnas_net_model/mnas_blocks_4/depthwise_conv2d/depthwise", "op": "FusedDepthwiseConv2dNative", "input": ["FeatureExtractor/detection_mnasfpn_v1_a_320_1/mnasnet-a1/mnas_net_model/mnas_blocks_4/Relu", "FeatureExtractor/detection_mnasfpn_v1_a_320_1/mnasnet-a1/mnas_net_model/mnas_blocks_4/depthwise_conv2d/depthwise_weights", "FeatureExtractor/detection_mnasfpn_v1_a_320_1/mnasnet-a1/mnas_net_model/mnas_blocks_4/depthwise_conv2d/depthwise_bn_offset"], "attr": {"padding": {"s": "U0FNRQ=="}, "num_args": {"i": "1"}, "T": {"type": "DT_FLOAT"}, "explicit_paddings": {"list": {}}, "dilations": {"list": {"i": ["1", "1", "1", "1"]}}, "fused_ops": {"list": {"s": ["Qmlhc0FkZA==", "UmVsdQ=="]}}, "data_format": {"s": "TkhXQw=="}, "strides": {"list": {"i": ["1", "1", "1", "1"]}}}}, {"name": "FeatureExtractor/detection_mnasfpn_v1_a_320_1/mnasnet-a1/mnas_net_model/mnas_blocks_4/se/Mean", "op": "Mean", "input": ["FeatureExtractor/detection_mnasfpn_v1_a_320_1/mnasnet-a1/mnas_net_model/mnas_blocks_4/depthwise_conv2d/depthwise", "FeatureExtractor/detection_mnasfpn_v1_a_320_1/mnasnet-a1/mnas_net_model/mnas_blocks_4/se/Mean/reduction_indices"], "attr": {"T": {"type": "DT_FLOAT"}, "keep_dims": {"b": true}, "Tidx": {"type": "DT_INT32"}}}, {"name": "FeatureExtractor/detection_mnasfpn_v1_a_320_1/mnasnet-a1/mnas_net_model/mnas_blocks_4/se/Relu", "op": "_FusedConv2D", "input": ["FeatureExtractor/detection_mnasfpn_v1_a_320_1/mnasnet-a1/mnas_net_model/mnas_blocks_4/se/Mean", "FeatureExtractor/mnasnet-a1/mnas_blocks_4/se/conv2d/kernel", "FeatureExtractor/mnasnet-a1/mnas_blocks_4/se/conv2d/bias"], "device": "/device:CPU:0", "attr": {"T": {"type": "DT_FLOAT"}, "use_cudnn_on_gpu": {"b": true}, "padding": {"s": "U0FNRQ=="}, "explicit_paddings": {"list": {}}, "dilations": {"list": {"i": ["1", "1", "1", "1"]}}, "epsilon": {"f": 0.0}, "num_args": {"i": "1"}, "strides": {"list": {"i": ["1", "1", "1", "1"]}}, "leakyrelu_alpha": {"f": 0.20000000298023224}, "data_format": {"s": "TkhXQw=="}, "fused_ops": {"list": {"s": ["Qmlhc0FkZA==", "UmVsdQ=="]}}}}, {"name": "FeatureExtractor/detection_mnasfpn_v1_a_320_1/mnasnet-a1/mnas_net_model/mnas_blocks_4/se/conv2d_1/BiasAdd", "op": "_FusedConv2D", "input": ["FeatureExtractor/detection_mnasfpn_v1_a_320_1/mnasnet-a1/mnas_net_model/mnas_blocks_4/se/Relu", "FeatureExtractor/mnasnet-a1/mnas_blocks_4/se/conv2d_1/kernel", "FeatureExtractor/mnasnet-a1/mnas_blocks_4/se/conv2d_1/bias"], "device": "/device:CPU:0", "attr": {"num_args": {"i": "1"}, "leakyrelu_alpha": {"f": 0.20000000298023224}, "use_cudnn_on_gpu": {"b": true}, "T": {"type": "DT_FLOAT"}, "strides": {"list": {"i": ["1", "1", "1", "1"]}}, "fused_ops": {"list": {"s": ["Qmlhc0FkZA=="]}}, "padding": {"s": "U0FNRQ=="}, "explicit_paddings": {"list": {}}, "data_format": {"s": "TkhXQw=="}, "dilations": {"list": {"i": ["1", "1", "1", "1"]}}, "epsilon": {"f": 0.0}}}, {"name": "FeatureExtractor/detection_mnasfpn_v1_a_320_1/mnasnet-a1/mnas_net_model/mnas_blocks_4/se/Sigmoid", "op": "Sigmoid", "input": ["FeatureExtractor/detection_mnasfpn_v1_a_320_1/mnasnet-a1/mnas_net_model/mnas_blocks_4/se/conv2d_1/BiasAdd"], "attr": {"T": {"type": "DT_FLOAT"}}}, {"name": "FeatureExtractor/detection_mnasfpn_v1_a_320_1/mnasnet-a1/mnas_net_model/mnas_blocks_4/se/mul", "op": "Mul", "input": ["FeatureExtractor/detection_mnasfpn_v1_a_320_1/mnasnet-a1/mnas_net_model/mnas_blocks_4/se/Sigmoid", "FeatureExtractor/detection_mnasfpn_v1_a_320_1/mnasnet-a1/mnas_net_model/mnas_blocks_4/depthwise_conv2d/depthwise"], "attr": {"T": {"type": "DT_FLOAT"}}}, {"name": "FeatureExtractor/detection_mnasfpn_v1_a_320_1/mnasnet-a1/mnas_net_model/mnas_blocks_4/batch_normalization_2/FusedBatchNormV3", "op": "_FusedConv2D", "input": ["FeatureExtractor/detection_mnasfpn_v1_a_320_1/mnasnet-a1/mnas_net_model/mnas_blocks_4/se/mul", "FeatureExtractor/detection_mnasfpn_v1_a_320_1/mnasnet-a1/mnas_net_model/mnas_blocks_4/conv2d_1/Conv2D_weights", "FeatureExtractor/detection_mnasfpn_v1_a_320_1/mnasnet-a1/mnas_net_model/mnas_blocks_4/conv2d_1/Conv2D_bn_offset"], "device": "/device:CPU:0", "attr": {"padding": {"s": "U0FNRQ=="}, "leakyrelu_alpha": {"f": 0.20000000298023224}, "explicit_paddings": {"list": {}}, "data_format": {"s": "TkhXQw=="}, "strides": {"list": {"i": ["1", "1", "1", "1"]}}, "num_args": {"i": "1"}, "dilations": {"list": {"i": ["1", "1", "1", "1"]}}, "use_cudnn_on_gpu": {"b": true}, "fused_ops": {"list": {"s": ["Qmlhc0FkZA=="]}}, "epsilon": {"f": 0.0}, "T": {"type": "DT_FLOAT"}}}, {"name": "FeatureExtractor/detection_mnasfpn_v1_a_320_1/mnasnet-a1/mnas_net_model/mnas_blocks_4/Add", "op": "AddV2", "input": ["FeatureExtractor/detection_mnasfpn_v1_a_320_1/mnasnet-a1/mnas_net_model/mnas_blocks_4/batch_normalization_2/FusedBatchNormV3", "FeatureExtractor/detection_mnasfpn_v1_a_320_1/mnasnet-a1/mnas_net_model/mnas_blocks_3/batch_normalization_2/FusedBatchNormV3"], "attr": {"T": {"type": "DT_FLOAT"}}}, {"name": "FeatureExtractor/detection_mnasfpn_v1_a_320_1/mnasnet-a1/mnas_net_model/mnas_blocks_5/Relu", "op": "_FusedConv2D", "input": ["FeatureExtractor/detection_mnasfpn_v1_a_320_1/mnasnet-a1/mnas_net_model/mnas_blocks_4/Add", "FeatureExtractor/detection_mnasfpn_v1_a_320_1/mnasnet-a1/mnas_net_model/mnas_blocks_5/conv2d/Conv2D_weights", "FeatureExtractor/detection_mnasfpn_v1_a_320_1/mnasnet-a1/mnas_net_model/mnas_blocks_5/conv2d/Conv2D_bn_offset"], "device": "/device:CPU:0", "attr": {"explicit_paddings": {"list": {}}, "data_format": {"s": "TkhXQw=="}, "use_cudnn_on_gpu": {"b": true}, "strides": {"list": {"i": ["1", "1", "1", "1"]}}, "num_args": {"i": "1"}, "padding": {"s": "U0FNRQ=="}, "dilations": {"list": {"i": ["1", "1", "1", "1"]}}, "fused_ops": {"list": {"s": ["Qmlhc0FkZA==", "UmVsdQ=="]}}, "epsilon": {"f": 0.0}, "T": {"type": "DT_FLOAT"}, "leakyrelu_alpha": {"f": 0.20000000298023224}}}, {"name": "FeatureExtractor/detection_mnasfpn_v1_a_320_1/mnasnet-a1/mnas_net_model/mnas_blocks_5/depthwise_conv2d/depthwise", "op": "FusedDepthwiseConv2dNative", "input": ["FeatureExtractor/detection_mnasfpn_v1_a_320_1/mnasnet-a1/mnas_net_model/mnas_blocks_5/Relu", "FeatureExtractor/detection_mnasfpn_v1_a_320_1/mnasnet-a1/mnas_net_model/mnas_blocks_5/depthwise_conv2d/depthwise_weights", "FeatureExtractor/detection_mnasfpn_v1_a_320_1/mnasnet-a1/mnas_net_model/mnas_blocks_5/depthwise_conv2d/depthwise_bn_offset"], "attr": {"T": {"type": "DT_FLOAT"}, "fused_ops": {"list": {"s": ["Qmlhc0FkZA==", "UmVsdQ=="]}}, "padding": {"s": "U0FNRQ=="}, "num_args": {"i": "1"}, "dilations": {"list": {"i": ["1", "1", "1", "1"]}}, "strides": {"list": {"i": ["1", "1", "1", "1"]}}, "explicit_paddings": {"list": {}}, "data_format": {"s": "TkhXQw=="}}}, {"name": "FeatureExtractor/detection_mnasfpn_v1_a_320_1/mnasnet-a1/mnas_net_model/mnas_blocks_5/se/Mean", "op": "Mean", "input": ["FeatureExtractor/detection_mnasfpn_v1_a_320_1/mnasnet-a1/mnas_net_model/mnas_blocks_5/depthwise_conv2d/depthwise", "FeatureExtractor/detection_mnasfpn_v1_a_320_1/mnasnet-a1/mnas_net_model/mnas_blocks_5/se/Mean/reduction_indices"], "attr": {"T": {"type": "DT_FLOAT"}, "keep_dims": {"b": true}, "Tidx": {"type": "DT_INT32"}}}, {"name": "FeatureExtractor/detection_mnasfpn_v1_a_320_1/mnasnet-a1/mnas_net_model/mnas_blocks_5/se/Relu", "op": "_FusedConv2D", "input": ["FeatureExtractor/detection_mnasfpn_v1_a_320_1/mnasnet-a1/mnas_net_model/mnas_blocks_5/se/Mean", "FeatureExtractor/mnasnet-a1/mnas_blocks_5/se/conv2d/kernel", "FeatureExtractor/mnasnet-a1/mnas_blocks_5/se/conv2d/bias"], "device": "/device:CPU:0", "attr": {"data_format": {"s": "TkhXQw=="}, "padding": {"s": "U0FNRQ=="}, "T": {"type": "DT_FLOAT"}, "explicit_paddings": {"list": {}}, "epsilon": {"f": 0.0}, "num_args": {"i": "1"}, "use_cudnn_on_gpu": {"b": true}, "strides": {"list": {"i": ["1", "1", "1", "1"]}}, "dilations": {"list": {"i": ["1", "1", "1", "1"]}}, "leakyrelu_alpha": {"f": 0.20000000298023224}, "fused_ops": {"list": {"s": ["Qmlhc0FkZA==", "UmVsdQ=="]}}}}, {"name": "FeatureExtractor/detection_mnasfpn_v1_a_320_1/mnasnet-a1/mnas_net_model/mnas_blocks_5/se/conv2d_1/BiasAdd", "op": "_FusedConv2D", "input": ["FeatureExtractor/detection_mnasfpn_v1_a_320_1/mnasnet-a1/mnas_net_model/mnas_blocks_5/se/Relu", "FeatureExtractor/mnasnet-a1/mnas_blocks_5/se/conv2d_1/kernel", "FeatureExtractor/mnasnet-a1/mnas_blocks_5/se/conv2d_1/bias"], "device": "/device:CPU:0", "attr": {"fused_ops": {"list": {"s": ["Qmlhc0FkZA=="]}}, "use_cudnn_on_gpu": {"b": true}, "padding": {"s": "U0FNRQ=="}, "epsilon": {"f": 0.0}, "explicit_paddings": {"list": {}}, "strides": {"list": {"i": ["1", "1", "1", "1"]}}, "data_format": {"s": "TkhXQw=="}, "leakyrelu_alpha": {"f": 0.20000000298023224}, "dilations": {"list": {"i": ["1", "1", "1", "1"]}}, "num_args": {"i": "1"}, "T": {"type": "DT_FLOAT"}}}, {"name": "FeatureExtractor/detection_mnasfpn_v1_a_320_1/mnasnet-a1/mnas_net_model/mnas_blocks_5/se/Sigmoid", "op": "Sigmoid", "input": ["FeatureExtractor/detection_mnasfpn_v1_a_320_1/mnasnet-a1/mnas_net_model/mnas_blocks_5/se/conv2d_1/BiasAdd"], "attr": {"T": {"type": "DT_FLOAT"}}}, {"name": "FeatureExtractor/detection_mnasfpn_v1_a_320_1/mnasnet-a1/mnas_net_model/mnas_blocks_5/se/mul", "op": "Mul", "input": ["FeatureExtractor/detection_mnasfpn_v1_a_320_1/mnasnet-a1/mnas_net_model/mnas_blocks_5/se/Sigmoid", "FeatureExtractor/detection_mnasfpn_v1_a_320_1/mnasnet-a1/mnas_net_model/mnas_blocks_5/depthwise_conv2d/depthwise"], "attr": {"T": {"type": "DT_FLOAT"}}}, {"name": "FeatureExtractor/detection_mnasfpn_v1_a_320_1/mnasnet-a1/mnas_net_model/mnas_blocks_5/batch_normalization_2/FusedBatchNormV3", "op": "_FusedConv2D", "input": ["FeatureExtractor/detection_mnasfpn_v1_a_320_1/mnasnet-a1/mnas_net_model/mnas_blocks_5/se/mul", "FeatureExtractor/detection_mnasfpn_v1_a_320_1/mnasnet-a1/mnas_net_model/mnas_blocks_5/conv2d_1/Conv2D_weights", "FeatureExtractor/detection_mnasfpn_v1_a_320_1/mnasnet-a1/mnas_net_model/mnas_blocks_5/conv2d_1/Conv2D_bn_offset"], "device": "/device:CPU:0", "attr": {"dilations": {"list": {"i": ["1", "1", "1", "1"]}}, "use_cudnn_on_gpu": {"b": true}, "padding": {"s": "U0FNRQ=="}, "T": {"type": "DT_FLOAT"}, "num_args": {"i": "1"}, "fused_ops": {"list": {"s": ["Qmlhc0FkZA=="]}}, "explicit_paddings": {"list": {}}, "epsilon": {"f": 0.0}, "leakyrelu_alpha": {"f": 0.20000000298023224}, "data_format": {"s": "TkhXQw=="}, "strides": {"list": {"i": ["1", "1", "1", "1"]}}}}, {"name": "FeatureExtractor/detection_mnasfpn_v1_a_320_1/mnasnet-a1/mnas_net_model/mnas_blocks_5/Add", "op": "AddV2", "input": ["FeatureExtractor/detection_mnasfpn_v1_a_320_1/mnasnet-a1/mnas_net_model/mnas_blocks_5/batch_normalization_2/FusedBatchNormV3", "FeatureExtractor/detection_mnasfpn_v1_a_320_1/mnasnet-a1/mnas_net_model/mnas_blocks_4/Add"], "attr": {"T": {"type": "DT_FLOAT"}}}, {"name": "FeatureExtractor/detection_mnasfpn_v1_a_320_1/feature_network/fpn_cells/cell_0/sub_policy3/resample_0_0_7/conv2d/BiasAdd", "op": "_FusedConv2D", "input": ["FeatureExtractor/detection_mnasfpn_v1_a_320_1/mnasnet-a1/mnas_net_model/mnas_blocks_5/Add", "FeatureExtractor/fpn_cells/cell_0/sub_policy3/resample_0_0_7/conv2d/kernel", "FeatureExtractor/fpn_cells/cell_0/sub_policy3/resample_0_0_7/conv2d/bias"], "device": "/device:CPU:0", "attr": {"padding": {"s": "U0FNRQ=="}, "epsilon": {"f": 0.0}, "T": {"type": "DT_FLOAT"}, "num_args": {"i": "1"}, "use_cudnn_on_gpu": {"b": true}, "data_format": {"s": "TkhXQw=="}, "strides": {"list": {"i": ["1", "1", "1", "1"]}}, "dilations": {"list": {"i": ["1", "1", "1", "1"]}}, "explicit_paddings": {"list": {}}, "leakyrelu_alpha": {"f": 0.20000000298023224}, "fused_ops": {"list": {"s": ["Qmlhc0FkZA=="]}}}}, {"name": "FeatureExtractor/detection_mnasfpn_v1_a_320_1/feature_network/fpn_cells/cell_0/sub_policy6/resample_0_0_10/conv2d/BiasAdd", "op": "_FusedConv2D", "input": ["FeatureExtractor/detection_mnasfpn_v1_a_320_1/mnasnet-a1/mnas_net_model/mnas_blocks_5/Add", "FeatureExtractor/fpn_cells/cell_0/sub_policy6/resample_0_0_10/conv2d/kernel", "FeatureExtractor/fpn_cells/cell_0/sub_policy6/resample_0_0_10/conv2d/bias"], "device": "/device:CPU:0", "attr": {"T": {"type": "DT_FLOAT"}, "dilations": {"list": {"i": ["1", "1", "1", "1"]}}, "epsilon": {"f": 0.0}, "strides": {"list": {"i": ["1", "1", "1", "1"]}}, "fused_ops": {"list": {"s": ["Qmlhc0FkZA=="]}}, "num_args": {"i": "1"}, "explicit_paddings": {"list": {}}, "use_cudnn_on_gpu": {"b": true}, "leakyrelu_alpha": {"f": 0.20000000298023224}, "data_format": {"s": "TkhXQw=="}, "padding": {"s": "U0FNRQ=="}}}, {"name": "FeatureExtractor/detection_mnasfpn_v1_a_320_1/mnasnet-a1/mnas_net_model/mnas_blocks_6/Relu", "op": "_FusedConv2D", "input": ["FeatureExtractor/detection_mnasfpn_v1_a_320_1/mnasnet-a1/mnas_net_model/mnas_blocks_5/Add", "FeatureExtractor/detection_mnasfpn_v1_a_320_1/mnasnet-a1/mnas_net_model/mnas_blocks_6/conv2d/Conv2D_weights", "FeatureExtractor/detection_mnasfpn_v1_a_320_1/mnasnet-a1/mnas_net_model/mnas_blocks_6/conv2d/Conv2D_bn_offset"], "device": "/device:CPU:0", "attr": {"dilations": {"list": {"i": ["1", "1", "1", "1"]}}, "T": {"type": "DT_FLOAT"}, "explicit_paddings": {"list": {}}, "use_cudnn_on_gpu": {"b": true}, "num_args": {"i": "1"}, "strides": {"list": {"i": ["1", "1", "1", "1"]}}, "epsilon": {"f": 0.0}, "data_format": {"s": "TkhXQw=="}, "fused_ops": {"list": {"s": ["Qmlhc0FkZA==", "UmVsdQ=="]}}, "padding": {"s": "U0FNRQ=="}, "leakyrelu_alpha": {"f": 0.20000000298023224}}}, {"name": "FeatureExtractor/detection_mnasfpn_v1_a_320_1/feature_network/fpn_cells/cell_0/sub_policy3/resample_0_0_7/max_pooling2d/MaxPool", "op": "MaxPool", "input": ["FeatureExtractor/detection_mnasfpn_v1_a_320_1/feature_network/fpn_cells/cell_0/sub_policy3/resample_0_0_7/conv2d/BiasAdd"], "attr": {"T": {"type": "DT_FLOAT"}, "ksize": {"list": {"i": ["1", "4", "4", "1"]}}, "data_format": {"s": "TkhXQw=="}, "padding": {"s": "U0FNRQ=="}, "strides": {"list": {"i": ["1", "4", "4", "1"]}}, "explicit_paddings": {"list": {}}}}, {"name": "FeatureExtractor/detection_mnasfpn_v1_a_320_1/mnasnet-a1/mnas_net_model/mnas_blocks_6/depthwise_conv2d/depthwise", "op": "FusedDepthwiseConv2dNative", "input": ["FeatureExtractor/detection_mnasfpn_v1_a_320_1/mnasnet-a1/mnas_net_model/mnas_blocks_6/Relu", "FeatureExtractor/detection_mnasfpn_v1_a_320_1/mnasnet-a1/mnas_net_model/mnas_blocks_6/depthwise_conv2d/depthwise_weights", "FeatureExtractor/detection_mnasfpn_v1_a_320_1/mnasnet-a1/mnas_net_model/mnas_blocks_6/depthwise_conv2d/depthwise_bn_offset"], "attr": {"fused_ops": {"list": {"s": ["Qmlhc0FkZA==", "UmVsdQ=="]}}, "num_args": {"i": "1"}, "strides": {"list": {"i": ["1", "2", "2", "1"]}}, "T": {"type": "DT_FLOAT"}, "dilations": {"list": {"i": ["1", "1", "1", "1"]}}, "padding": {"s": "U0FNRQ=="}, "explicit_paddings": {"list": {}}, "data_format": {"s": "TkhXQw=="}}}, {"name": "FeatureExtractor/detection_mnasfpn_v1_a_320_1/mnasnet-a1/mnas_net_model/mnas_blocks_6/batch_normalization_2/FusedBatchNormV3", "op": "_FusedConv2D", "input": ["FeatureExtractor/detection_mnasfpn_v1_a_320_1/mnasnet-a1/mnas_net_model/mnas_blocks_6/depthwise_conv2d/depthwise", "FeatureExtractor/detection_mnasfpn_v1_a_320_1/mnasnet-a1/mnas_net_model/mnas_blocks_6/conv2d_1/Conv2D_weights", "FeatureExtractor/detection_mnasfpn_v1_a_320_1/mnasnet-a1/mnas_net_model/mnas_blocks_6/conv2d_1/Conv2D_bn_offset"], "device": "/device:CPU:0", "attr": {"padding": {"s": "U0FNRQ=="}, "use_cudnn_on_gpu": {"b": true}, "explicit_paddings": {"list": {}}, "num_args": {"i": "1"}, "T": {"type": "DT_FLOAT"}, "data_format": {"s": "TkhXQw=="}, "leakyrelu_alpha": {"f": 0.20000000298023224}, "strides": {"list": {"i": ["1", "1", "1", "1"]}}, "epsilon": {"f": 0.0}, "dilations": {"list": {"i": ["1", "1", "1", "1"]}}, "fused_ops": {"list": {"s": ["Qmlhc0FkZA=="]}}}}, {"name": "FeatureExtractor/detection_mnasfpn_v1_a_320_1/mnasnet-a1/mnas_net_model/mnas_blocks_7/Relu", "op": "_FusedConv2D", "input": ["FeatureExtractor/detection_mnasfpn_v1_a_320_1/mnasnet-a1/mnas_net_model/mnas_blocks_6/batch_normalization_2/FusedBatchNormV3", "FeatureExtractor/detection_mnasfpn_v1_a_320_1/mnasnet-a1/mnas_net_model/mnas_blocks_7/conv2d/Conv2D_weights", "FeatureExtractor/detection_mnasfpn_v1_a_320_1/mnasnet-a1/mnas_net_model/mnas_blocks_7/conv2d/Conv2D_bn_offset"], "device": "/device:CPU:0", "attr": {"epsilon": {"f": 0.0}, "padding": {"s": "U0FNRQ=="}, "fused_ops": {"list": {"s": ["Qmlhc0FkZA==", "UmVsdQ=="]}}, "strides": {"list": {"i": ["1", "1", "1", "1"]}}, "dilations": {"list": {"i": ["1", "1", "1", "1"]}}, "use_cudnn_on_gpu": {"b": true}, "leakyrelu_alpha": {"f": 0.20000000298023224}, "data_format": {"s": "TkhXQw=="}, "explicit_paddings": {"list": {}}, "num_args": {"i": "1"}, "T": {"type": "DT_FLOAT"}}}, {"name": "FeatureExtractor/detection_mnasfpn_v1_a_320_1/mnasnet-a1/mnas_net_model/mnas_blocks_7/depthwise_conv2d/depthwise", "op": "FusedDepthwiseConv2dNative", "input": ["FeatureExtractor/detection_mnasfpn_v1_a_320_1/mnasnet-a1/mnas_net_model/mnas_blocks_7/Relu", "FeatureExtractor/detection_mnasfpn_v1_a_320_1/mnasnet-a1/mnas_net_model/mnas_blocks_7/depthwise_conv2d/depthwise_weights", "FeatureExtractor/detection_mnasfpn_v1_a_320_1/mnasnet-a1/mnas_net_model/mnas_blocks_7/depthwise_conv2d/depthwise_bn_offset"], "attr": {"padding": {"s": "U0FNRQ=="}, "data_format": {"s": "TkhXQw=="}, "fused_ops": {"list": {"s": ["Qmlhc0FkZA==", "UmVsdQ=="]}}, "dilations": {"list": {"i": ["1", "1", "1", "1"]}}, "explicit_paddings": {"list": {}}, "T": {"type": "DT_FLOAT"}, "num_args": {"i": "1"}, "strides": {"list": {"i": ["1", "1", "1", "1"]}}}}, {"name": "FeatureExtractor/detection_mnasfpn_v1_a_320_1/mnasnet-a1/mnas_net_model/mnas_blocks_7/batch_normalization_2/FusedBatchNormV3", "op": "_FusedConv2D", "input": ["FeatureExtractor/detection_mnasfpn_v1_a_320_1/mnasnet-a1/mnas_net_model/mnas_blocks_7/depthwise_conv2d/depthwise", "FeatureExtractor/detection_mnasfpn_v1_a_320_1/mnasnet-a1/mnas_net_model/mnas_blocks_7/conv2d_1/Conv2D_weights", "FeatureExtractor/detection_mnasfpn_v1_a_320_1/mnasnet-a1/mnas_net_model/mnas_blocks_7/conv2d_1/Conv2D_bn_offset"], "device": "/device:CPU:0", "attr": {"explicit_paddings": {"list": {}}, "fused_ops": {"list": {"s": ["Qmlhc0FkZA=="]}}, "dilations": {"list": {"i": ["1", "1", "1", "1"]}}, "use_cudnn_on_gpu": {"b": true}, "num_args": {"i": "1"}, "T": {"type": "DT_FLOAT"}, "padding": {"s": "U0FNRQ=="}, "epsilon": {"f": 0.0}, "data_format": {"s": "TkhXQw=="}, "leakyrelu_alpha": {"f": 0.20000000298023224}, "strides": {"list": {"i": ["1", "1", "1", "1"]}}}}, {"name": "FeatureExtractor/detection_mnasfpn_v1_a_320_1/mnasnet-a1/mnas_net_model/mnas_blocks_7/Add", "op": "AddV2", "input": ["FeatureExtractor/detection_mnasfpn_v1_a_320_1/mnasnet-a1/mnas_net_model/mnas_blocks_7/batch_normalization_2/FusedBatchNormV3", "FeatureExtractor/detection_mnasfpn_v1_a_320_1/mnasnet-a1/mnas_net_model/mnas_blocks_6/batch_normalization_2/FusedBatchNormV3"], "attr": {"T": {"type": "DT_FLOAT"}}}, {"name": "FeatureExtractor/detection_mnasfpn_v1_a_320_1/mnasnet-a1/mnas_net_model/mnas_blocks_8/Relu", "op": "_FusedConv2D", "input": ["FeatureExtractor/detection_mnasfpn_v1_a_320_1/mnasnet-a1/mnas_net_model/mnas_blocks_7/Add", "FeatureExtractor/detection_mnasfpn_v1_a_320_1/mnasnet-a1/mnas_net_model/mnas_blocks_8/conv2d/Conv2D_weights", "FeatureExtractor/detection_mnasfpn_v1_a_320_1/mnasnet-a1/mnas_net_model/mnas_blocks_8/conv2d/Conv2D_bn_offset"], "device": "/device:CPU:0", "attr": {"data_format": {"s": "TkhXQw=="}, "dilations": {"list": {"i": ["1", "1", "1", "1"]}}, "use_cudnn_on_gpu": {"b": true}, "leakyrelu_alpha": {"f": 0.20000000298023224}, "num_args": {"i": "1"}, "fused_ops": {"list": {"s": ["Qmlhc0FkZA==", "UmVsdQ=="]}}, "explicit_paddings": {"list": {}}, "strides": {"list": {"i": ["1", "1", "1", "1"]}}, "padding": {"s": "U0FNRQ=="}, "epsilon": {"f": 0.0}, "T": {"type": "DT_FLOAT"}}}, {"name": "FeatureExtractor/detection_mnasfpn_v1_a_320_1/mnasnet-a1/mnas_net_model/mnas_blocks_8/depthwise_conv2d/depthwise", "op": "FusedDepthwiseConv2dNative", "input": ["FeatureExtractor/detection_mnasfpn_v1_a_320_1/mnasnet-a1/mnas_net_model/mnas_blocks_8/Relu", "FeatureExtractor/detection_mnasfpn_v1_a_320_1/mnasnet-a1/mnas_net_model/mnas_blocks_8/depthwise_conv2d/depthwise_weights", "FeatureExtractor/detection_mnasfpn_v1_a_320_1/mnasnet-a1/mnas_net_model/mnas_blocks_8/depthwise_conv2d/depthwise_bn_offset"], "attr": {"num_args": {"i": "1"}, "data_format": {"s": "TkhXQw=="}, "padding": {"s": "U0FNRQ=="}, "fused_ops": {"list": {"s": ["Qmlhc0FkZA==", "UmVsdQ=="]}}, "T": {"type": "DT_FLOAT"}, "strides": {"list": {"i": ["1", "1", "1", "1"]}}, "dilations": {"list": {"i": ["1", "1", "1", "1"]}}, "explicit_paddings": {"list": {}}}}, {"name": "FeatureExtractor/detection_mnasfpn_v1_a_320_1/mnasnet-a1/mnas_net_model/mnas_blocks_8/batch_normalization_2/FusedBatchNormV3", "op": "_FusedConv2D", "input": ["FeatureExtractor/detection_mnasfpn_v1_a_320_1/mnasnet-a1/mnas_net_model/mnas_blocks_8/depthwise_conv2d/depthwise", "FeatureExtractor/detection_mnasfpn_v1_a_320_1/mnasnet-a1/mnas_net_model/mnas_blocks_8/conv2d_1/Conv2D_weights", "FeatureExtractor/detection_mnasfpn_v1_a_320_1/mnasnet-a1/mnas_net_model/mnas_blocks_8/conv2d_1/Conv2D_bn_offset"], "device": "/device:CPU:0", "attr": {"epsilon": {"f": 0.0}, "leakyrelu_alpha": {"f": 0.20000000298023224}, "use_cudnn_on_gpu": {"b": true}, "data_format": {"s": "TkhXQw=="}, "strides": {"list": {"i": ["1", "1", "1", "1"]}}, "explicit_paddings": {"list": {}}, "T": {"type": "DT_FLOAT"}, "dilations": {"list": {"i": ["1", "1", "1", "1"]}}, "fused_ops": {"list": {"s": ["Qmlhc0FkZA=="]}}, "padding": {"s": "U0FNRQ=="}, "num_args": {"i": "1"}}}, {"name": "FeatureExtractor/detection_mnasfpn_v1_a_320_1/mnasnet-a1/mnas_net_model/mnas_blocks_8/Add", "op": "AddV2", "input": ["FeatureExtractor/detection_mnasfpn_v1_a_320_1/mnasnet-a1/mnas_net_model/mnas_blocks_8/batch_normalization_2/FusedBatchNormV3", "FeatureExtractor/detection_mnasfpn_v1_a_320_1/mnasnet-a1/mnas_net_model/mnas_blocks_7/Add"], "attr": {"T": {"type": "DT_FLOAT"}}}, {"name": "FeatureExtractor/detection_mnasfpn_v1_a_320_1/mnasnet-a1/mnas_net_model/mnas_blocks_9/Relu", "op": "_FusedConv2D", "input": ["FeatureExtractor/detection_mnasfpn_v1_a_320_1/mnasnet-a1/mnas_net_model/mnas_blocks_8/Add", "FeatureExtractor/detection_mnasfpn_v1_a_320_1/mnasnet-a1/mnas_net_model/mnas_blocks_9/conv2d/Conv2D_weights", "FeatureExtractor/detection_mnasfpn_v1_a_320_1/mnasnet-a1/mnas_net_model/mnas_blocks_9/conv2d/Conv2D_bn_offset"], "device": "/device:CPU:0", "attr": {"data_format": {"s": "TkhXQw=="}, "padding": {"s": "U0FNRQ=="}, "use_cudnn_on_gpu": {"b": true}, "leakyrelu_alpha": {"f": 0.20000000298023224}, "dilations": {"list": {"i": ["1", "1", "1", "1"]}}, "epsilon": {"f": 0.0}, "T": {"type": "DT_FLOAT"}, "strides": {"list": {"i": ["1", "1", "1", "1"]}}, "fused_ops": {"list": {"s": ["Qmlhc0FkZA==", "UmVsdQ=="]}}, "explicit_paddings": {"list": {}}, "num_args": {"i": "1"}}}, {"name": "FeatureExtractor/detection_mnasfpn_v1_a_320_1/mnasnet-a1/mnas_net_model/mnas_blocks_9/depthwise_conv2d/depthwise", "op": "FusedDepthwiseConv2dNative", "input": ["FeatureExtractor/detection_mnasfpn_v1_a_320_1/mnasnet-a1/mnas_net_model/mnas_blocks_9/Relu", "FeatureExtractor/detection_mnasfpn_v1_a_320_1/mnasnet-a1/mnas_net_model/mnas_blocks_9/depthwise_conv2d/depthwise_weights", "FeatureExtractor/detection_mnasfpn_v1_a_320_1/mnasnet-a1/mnas_net_model/mnas_blocks_9/depthwise_conv2d/depthwise_bn_offset"], "attr": {"num_args": {"i": "1"}, "data_format": {"s": "TkhXQw=="}, "strides": {"list": {"i": ["1", "1", "1", "1"]}}, "fused_ops": {"list": {"s": ["Qmlhc0FkZA==", "UmVsdQ=="]}}, "padding": {"s": "U0FNRQ=="}, "dilations": {"list": {"i": ["1", "1", "1", "1"]}}, "explicit_paddings": {"list": {}}, "T": {"type": "DT_FLOAT"}}}, {"name": "FeatureExtractor/detection_mnasfpn_v1_a_320_1/mnasnet-a1/mnas_net_model/mnas_blocks_9/batch_normalization_2/FusedBatchNormV3", "op": "_FusedConv2D", "input": ["FeatureExtractor/detection_mnasfpn_v1_a_320_1/mnasnet-a1/mnas_net_model/mnas_blocks_9/depthwise_conv2d/depthwise", "FeatureExtractor/detection_mnasfpn_v1_a_320_1/mnasnet-a1/mnas_net_model/mnas_blocks_9/conv2d_1/Conv2D_weights", "FeatureExtractor/detection_mnasfpn_v1_a_320_1/mnasnet-a1/mnas_net_model/mnas_blocks_9/conv2d_1/Conv2D_bn_offset"], "device": "/device:CPU:0", "attr": {"epsilon": {"f": 0.0}, "padding": {"s": "U0FNRQ=="}, "T": {"type": "DT_FLOAT"}, "fused_ops": {"list": {"s": ["Qmlhc0FkZA=="]}}, "use_cudnn_on_gpu": {"b": true}, "strides": {"list": {"i": ["1", "1", "1", "1"]}}, "dilations": {"list": {"i": ["1", "1", "1", "1"]}}, "explicit_paddings": {"list": {}}, "num_args": {"i": "1"}, "data_format": {"s": "TkhXQw=="}, "leakyrelu_alpha": {"f": 0.20000000298023224}}}, {"name": "FeatureExtractor/detection_mnasfpn_v1_a_320_1/mnasnet-a1/mnas_net_model/mnas_blocks_9/Add", "op": "AddV2", "input": ["FeatureExtractor/detection_mnasfpn_v1_a_320_1/mnasnet-a1/mnas_net_model/mnas_blocks_9/batch_normalization_2/FusedBatchNormV3", "FeatureExtractor/detection_mnasfpn_v1_a_320_1/mnasnet-a1/mnas_net_model/mnas_blocks_8/Add"], "attr": {"T": {"type": "DT_FLOAT"}}}, {"name": "FeatureExtractor/detection_mnasfpn_v1_a_320_1/mnasnet-a1/mnas_net_model/mnas_blocks_10/Relu", "op": "_FusedConv2D", "input": ["FeatureExtractor/detection_mnasfpn_v1_a_320_1/mnasnet-a1/mnas_net_model/mnas_blocks_9/Add", "FeatureExtractor/detection_mnasfpn_v1_a_320_1/mnasnet-a1/mnas_net_model/mnas_blocks_10/conv2d/Conv2D_weights", "FeatureExtractor/detection_mnasfpn_v1_a_320_1/mnasnet-a1/mnas_net_model/mnas_blocks_10/conv2d/Conv2D_bn_offset"], "device": "/device:CPU:0", "attr": {"use_cudnn_on_gpu": {"b": true}, "padding": {"s": "U0FNRQ=="}, "dilations": {"list": {"i": ["1", "1", "1", "1"]}}, "strides": {"list": {"i": ["1", "1", "1", "1"]}}, "T": {"type": "DT_FLOAT"}, "data_format": {"s": "TkhXQw=="}, "fused_ops": {"list": {"s": ["Qmlhc0FkZA==", "UmVsdQ=="]}}, "leakyrelu_alpha": {"f": 0.20000000298023224}, "num_args": {"i": "1"}, "epsilon": {"f": 0.0}, "explicit_paddings": {"list": {}}}}, {"name": "FeatureExtractor/detection_mnasfpn_v1_a_320_1/mnasnet-a1/mnas_net_model/mnas_blocks_10/depthwise_conv2d/depthwise", "op": "FusedDepthwiseConv2dNative", "input": ["FeatureExtractor/detection_mnasfpn_v1_a_320_1/mnasnet-a1/mnas_net_model/mnas_blocks_10/Relu", "FeatureExtractor/detection_mnasfpn_v1_a_320_1/mnasnet-a1/mnas_net_model/mnas_blocks_10/depthwise_conv2d/depthwise_weights", "FeatureExtractor/detection_mnasfpn_v1_a_320_1/mnasnet-a1/mnas_net_model/mnas_blocks_10/depthwise_conv2d/depthwise_bn_offset"], "attr": {"dilations": {"list": {"i": ["1", "1", "1", "1"]}}, "data_format": {"s": "TkhXQw=="}, "padding": {"s": "U0FNRQ=="}, "T": {"type": "DT_FLOAT"}, "fused_ops": {"list": {"s": ["Qmlhc0FkZA==", "UmVsdQ=="]}}, "strides": {"list": {"i": ["1", "1", "1", "1"]}}, "explicit_paddings": {"list": {}}, "num_args": {"i": "1"}}}, {"na…
e": "float32"}, {"name": "ConstantFolding/Postprocessor/Decode/get_center_coordinates_and_sizes/truediv_1_recip", "shape": [], "dtype": "float32"}, {"name": "Postprocessor/Reshape_1/shape", "shape": [2], "dtype": "int32"}, {"name": "Postprocessor/Decode/transpose/perm", "shape": [2], "dtype": "int32"}, {"name": "ConstantFolding/Postprocessor/Decode/truediv_3_recip", "shape": [], "dtype": "float32"}, {"name": "Postprocessor/ExpandDims", "shape": [1, 25500, 4], "dtype": "float32"}, {"name": "WeightSharedConvolutionalBoxPredictor/strided_slice/stack", "shape": [1], "dtype": "int32"}, {"name": "WeightSharedConvolutionalBoxPredictor/strided_slice/stack_1", "shape": [1], "dtype": "int32"}, {"name": "WeightSharedConvolutionalBoxPredictor/strided_slice/stack_2", "shape": [1], "dtype": "int32"}, {"name": "WeightSharedConvolutionalBoxPredictor/Reshape/shape/1", "shape": [], "dtype": "int32"}, {"name": "WeightSharedConvolutionalBoxPredictor/Reshape/shape/2", "shape": [], "dtype": "int32"}, {"name": "WeightSharedConvolutionalBoxPredictor_1/strided_slice/stack", "shape": [1], "dtype": "int32"}, {"name": "WeightSharedConvolutionalBoxPredictor_1/strided_slice/stack_1", "shape": [1], "dtype": "int32"}, {"name": "WeightSharedConvolutionalBoxPredictor_1/strided_slice/stack_2", "shape": [1], "dtype": "int32"}, {"name": "WeightSharedConvolutionalBoxPredictor_1/Reshape/shape/1", "shape": [], "dtype": "int32"}, {"name": "WeightSharedConvolutionalBoxPredictor_1/Reshape/shape/2", "shape": [], "dtype": "int32"}, {"name": "WeightSharedConvolutionalBoxPredictor_2/strided_slice/stack", "shape": [1], "dtype": "int32"}, {"name": "WeightSharedConvolutionalBoxPredictor_2/strided_slice/stack_1", "shape": [1], "dtype": "int32"}, {"name": "WeightSharedConvolutionalBoxPredictor_2/strided_slice/stack_2", "shape": [1], "dtype": "int32"}, {"name": "WeightSharedConvolutionalBoxPredictor_2/Reshape/shape/1", "shape": [], "dtype": "int32"}, {"name": "WeightSharedConvolutionalBoxPredictor_2/Reshape/shape/2", "shape": [], "dtype": "int32"}, {"name": "WeightSharedConvolutionalBoxPredictor/BoxPredictor/depthwise_weights", "shape": [3, 3, 64, 1], "dtype": "float32"}, {"name": "WeightSharedConvolutionalBoxPredictor/BoxPredictor/pointwise_weights", "shape": [1, 1, 64, 48], "dtype": "float32"}, {"name": "WeightSharedConvolutionalBoxPredictor/BoxPredictor/biases", "shape": [48], "dtype": "float32"}, {"name": "WeightSharedConvolutionalBoxPredictor_3/strided_slice/stack", "shape": [1], "dtype": "int32"}, {"name": "WeightSharedConvolutionalBoxPredictor_3/strided_slice/stack_1", "shape": [1], "dtype": "int32"}, {"name": "WeightSharedConvolutionalBoxPredictor_3/strided_slice/stack_2", "shape": [1], "dtype": "int32"}, {"name": "WeightSharedConvolutionalBoxPredictor_3/Reshape/shape/1", "shape": [], "dtype": "int32"}, {"name": "WeightSharedConvolutionalBoxPredictor_3/Reshape/shape/2", "shape": [], "dtype": "int32"}, {"name": "concat/axis", "shape": [], "dtype": "int32"}, {"name": "Postprocessor/strided_slice/stack", "shape": [1], "dtype": "int32"}, {"name": "Postprocessor/strided_slice/stack_1", "shape": [1], "dtype": "int32"}, {"name": "Postprocessor/strided_slice/stack_2", "shape": [1], "dtype": "int32"}, {"name": "Postprocessor/Tile/multiples/1", "shape": [], "dtype": "int32"}, {"name": "Postprocessor/Tile/multiples/2", "shape": [], "dtype": "int32"}, {"name": "Postprocessor/Reshape/shape", "shape": [2], "dtype": "int32"}, {"name": "Postprocessor/Decode/get_center_coordinates_and_sizes/transpose/perm", "shape": [2], "dtype": "int32"}, {"name": "ConstantFolding/Postprocessor/Decode/truediv_7_recip", "shape": [], "dtype": "float32"}, {"name": "Postprocessor/Decode/transpose_1/perm", "shape": [2], "dtype": "int32"}, {"name": "FeatureExtractor/detection_mnasfpn_v1_a_320_1/feature_network/fpn_cells/cell_1/sub_policy6/resample_1_1_10/nearest_upsampling/ArithmeticOptimizer/ReduceUpsamplingDims_Multiples_Reshape_1", "shape": [4], "dtype": "int32"}, {"name": "FeatureExtractor/detection_mnasfpn_v1_a_320_1/feature_network/fpn_cells/cell_1/sub_policy6/resample_1_1_10/nearest_upsampling/Reshape_1/shape", "shape": [4], "dtype": "int32"}, {"name": "FeatureExtractor/detection_mnasfpn_v1_a_320_1/feature_network/fpn_cells/cell_1/sub_policy6/global_attention/Max/reduction_indices", "shape": [2], "dtype": "int32"}, {"name": "FeatureExtractor/fpn_cells/cell_1/sub_policy6/op_after_combine10/conv/depthwise_kernel", "shape": [3, 3, 64, 1], "dtype": "float32"}, {"name": "WeightSharedConvolutionalBoxPredictor/strided_slice_1/stack", "shape": [1], "dtype": "int32"}, {"name": "WeightSharedConvolutionalBoxPredictor/strided_slice_1/stack_1", "shape": [1], "dtype": "int32"}, {"name": "WeightSharedConvolutionalBoxPredictor/strided_slice_1/stack_2", "shape": [1], "dtype": "int32"}, {"name": "WeightSharedConvolutionalBoxPredictor/Reshape_2/shape/1", "shape": [], "dtype": "int32"}, {"name": "WeightSharedConvolutionalBoxPredictor/Reshape_2/shape/2", "shape": [], "dtype": "int32"}, {"name": "FeatureExtractor/detection_mnasfpn_v1_a_320_1/feature_network/fpn_cells/cell_1/sub_policy7/resample_1_5_11/nearest_upsampling/ArithmeticOptimizer/ReduceUpsamplingDims_Multiples_Reshape_1", "shape": [4], "dtype": "int32"}, {"name": "FeatureExtractor/detection_mnasfpn_v1_a_320_1/feature_network/fpn_cells/cell_1/sub_policy7/resample_1_5_11/nearest_upsampling/Reshape_1/shape", "shape": [4], "dtype": "int32"}, {"name": "FeatureExtractor/fpn_cells/cell_1/sub_policy7/op_after_combine11/conv/depthwise_kernel", "shape": [3, 3, 64, 1], "dtype": "float32"}, {"name": "WeightSharedConvolutionalBoxPredictor_1/strided_slice_1/stack", "shape": [1], "dtype": "int32"}, {"name": "WeightSharedConvolutionalBoxPredictor_1/strided_slice_1/stack_1", "shape": [1], "dtype": "int32"}, {"name": "WeightSharedConvolutionalBoxPredictor_1/strided_slice_1/stack_2", "shape": [1], "dtype": "int32"}, {"name": "WeightSharedConvolutionalBoxPredictor_1/Reshape_2/shape/1", "shape": [], "dtype": "int32"}, {"name": "WeightSharedConvolutionalBoxPredictor_1/Reshape_2/shape/2", "shape": [], "dtype": "int32"}, {"name": "FeatureExtractor/detection_mnasfpn_v1_a_320_1/feature_network/fpn_cells/cell_1/sub_policy0/resample_0_2_4/nearest_upsampling/ArithmeticOptimizer/ReduceUpsamplingDims_Multiples_Reshape_1", "shape": [4], "dtype": "int32"}, {"name": "FeatureExtractor/detection_mnasfpn_v1_a_320_1/feature_network/fpn_cells/cell_1/sub_policy0/resample_0_2_4/nearest_upsampling/Reshape_1/shape", "shape": [4], "dtype": "int32"}, {"name": "FeatureExtractor/detection_mnasfpn_v1_a_320_1/feature_network/fpn_cells/cell_1/sub_policy0/resample_1_3_4/nearest_upsampling/ArithmeticOptimizer/ReduceUpsamplingDims_Shape_Reshape_1", "shape": [4], "dtype": "int32"}, {"name": "FeatureExtractor/detection_mnasfpn_v1_a_320_1/feature_network/fpn_cells/cell_1/sub_policy0/resample_1_3_4/nearest_upsampling/ArithmeticOptimizer/ReduceUpsamplingDims_Multiples_Reshape_1", "shape": [4], "dtype": "int32"}, {"name": "FeatureExtractor/detection_mnasfpn_v1_a_320_1/feature_network/fpn_cells/cell_1/sub_policy0/resample_1_3_4/nearest_upsampling/Reshape_1/shape", "shape": [4], "dtype": "int32"}, {"name": "FeatureExtractor/fpn_cells/cell_1/sub_policy0/op_after_combine4/conv/depthwise_kernel", "shape": [3, 3, 64, 1], "dtype": "float32"}, {"name": "FeatureExtractor/detection_mnasfpn_v1_a_320_1/feature_network/fpn_cells/cell_1/sub_policy2/resample_0_2_6/nearest_upsampling/ArithmeticOptimizer/ReduceUpsamplingDims_Multiples_Reshape_1", "shape": [4], "dtype": "int32"}, {"name": "FeatureExtractor/detection_mnasfpn_v1_a_320_1/feature_network/fpn_cells/cell_1/sub_policy2/resample_0_2_6/nearest_upsampling/Reshape_1/shape", "shape": [4], "dtype": "int32"}, {"name": "FeatureExtractor/detection_mnasfpn_v1_a_320_1/feature_network/fpn_cells/cell_1/sub_policy2/global_attention/Max/reduction_indices", "shape": [2], "dtype": "int32"}, {"name": "FeatureExtractor/fpn_cells/cell_1/sub_policy2/op_after_combine6/conv/depthwise_kernel", "shape": [3, 3, 64, 1], "dtype": "float32"}, {"name": "FeatureExtractor/fpn_cells/cell_1/sub_policy4/op_after_combine8/conv/depthwise_kernel", "shape": [3, 3, 64, 1], "dtype": "float32"}, {"name": "FeatureExtractor/detection_mnasfpn_v1_a_320_1/feature_network/fpn_cells/cell_1/sub_policy5/resample_1_8_9/nearest_upsampling/ArithmeticOptimizer/ReduceUpsamplingDims_Multiples_Reshape_1", "shape": [4], "dtype": "int32"}, {"name": "FeatureExtractor/detection_mnasfpn_v1_a_320_1/feature_network/fpn_cells/cell_1/sub_policy5/resample_1_8_9/nearest_upsampling/Reshape_1/shape", "shape": [4], "dtype": "int32"}, {"name": "FeatureExtractor/fpn_cells/cell_0/sub_policy5/resample_0_1_9/conv2d/kernel", "shape": [1, 1, 112, 64], "dtype": "float32"}, {"name": "FeatureExtractor/fpn_cells/cell_0/sub_policy5/resample_0_1_9/conv2d/bias", "shape": [64], "dtype": "float32"}, {"name": "FeatureExtractor/fpn_cells/cell_0/sub_policy0/resample_0_2_4/conv2d/kernel", "shape": [1, 1, 320, 64], "dtype": "float32"}, {"name": "FeatureExtractor/fpn_cells/cell_0/sub_policy0/resample_0_2_4/conv2d/bias", "shape": [64], "dtype": "float32"}, {"name": "FeatureExtractor/detection_mnasfpn_v1_a_320_1/feature_network/fpn_cells/cell_0/sub_policy0/resample_0_2_4/nearest_upsampling/ArithmeticOptimizer/ReduceUpsamplingDims_Shape_Reshape_1", "shape": [4], "dtype": "int32"}, {"name": "FeatureExtractor/detection_mnasfpn_v1_a_320_1/feature_network/fpn_cells/cell_0/sub_policy0/resample_0_2_4/nearest_upsampling/ArithmeticOptimizer/ReduceUpsamplingDims_Multiples_Reshape_1", "shape": [4], "dtype": "int32"}, {"name": "FeatureExtractor/detection_mnasfpn_v1_a_320_1/feature_network/fpn_cells/cell_0/sub_policy0/resample_0_2_4/nearest_upsampling/Reshape_1/shape", "shape": [4], "dtype": "int32"}, {"name": "FeatureExtractor/detection_mnasfpn_v1_a_320_1/feature_network/fpn_cells/cell_0/sub_policy0/resample_1_3_4/nearest_upsampling/ArithmeticOptimizer/ReduceUpsamplingDims_Shape_Reshape_1", "shape": [4], "dtype": "int32"}, {"name": "FeatureExtractor/detection_mnasfpn_v1_a_320_1/feature_network/fpn_cells/cell_0/sub_policy0/resample_1_3_4/nearest_upsampling/ArithmeticOptimizer/ReduceUpsamplingDims_Multiples_Reshape_1", "shape": [4], "dtype": "int32"}, {"name": "FeatureExtractor/detection_mnasfpn_v1_a_320_1/feature_network/fpn_cells/cell_0/sub_policy0/resample_1_3_4/nearest_upsampling/Reshape_1/shape", "shape": [4], "dtype": "int32"}, {"name": "FeatureExtractor/fpn_cells/cell_0/sub_policy0/op_after_combine4/conv/depthwise_kernel", "shape": [3, 3, 64, 1], "dtype": "float32"}, {"name": "FeatureExtractor/fpn_cells/cell_0/sub_policy2/resample_0_2_6/conv2d/kernel", "shape": [1, 1, 320, 64], "dtype": "float32"}, {"name": "FeatureExtractor/fpn_cells/cell_0/sub_policy2/resample_0_2_6/conv2d/bias", "shape": [64], "dtype": "float32"}, {"name": "FeatureExtractor/detection_mnasfpn_v1_a_320_1/feature_network/fpn_cells/cell_0/sub_policy2/resample_0_2_6/nearest_upsampling/ArithmeticOptimizer/ReduceUpsamplingDims_Shape_Reshape_1", "shape": [4], "dtype": "int32"}, {"name": "FeatureExtractor/detection_mnasfpn_v1_a_320_1/feature_network/fpn_cells/cell_0/sub_policy2/resample_0_2_6/nearest_upsampling/ArithmeticOptimizer/ReduceUpsamplingDims_Multiples_Reshape_1", "shape": [4], "dtype": "int32"}, {"name": "FeatureExtractor/detection_mnasfpn_v1_a_320_1/feature_network/fpn_cells/cell_0/sub_policy2/resample_0_2_6/nearest_upsampling/Reshape_1/shape", "shape": [4], "dtype": "int32"}, {"name": "FeatureExtractor/detection_mnasfpn_v1_a_320_1/feature_network/fpn_cells/cell_0/sub_policy2/global_attention/Max/reduction_indices", "shape": [2], "dtype": "int32"}, {"name": "FeatureExtractor/fpn_cells/cell_0/sub_policy2/op_after_combine6/conv/depthwise_kernel", "shape": [3, 3, 64, 1], "dtype": "float32"}, {"name": "FeatureExtractor/fpn_cells/cell_0/sub_policy4/op_after_combine8/conv/depthwise_kernel", "shape": [3, 3, 64, 1], "dtype": "float32"}, {"name": "FeatureExtractor/detection_mnasfpn_v1_a_320_1/feature_network/fpn_cells/cell_0/sub_policy5/resample_1_8_9/nearest_upsampling/ArithmeticOptimizer/ReduceUpsamplingDims_Multiples_Reshape_1", "shape": [4], "dtype": "int32"}, {"name": "FeatureExtractor/detection_mnasfpn_v1_a_320_1/feature_network/fpn_cells/cell_0/sub_policy5/resample_1_8_9/nearest_upsampling/Reshape_1/shape", "shape": [4], "dtype": "int32"}, {"name": "FeatureExtractor/fpn_cells/cell_0/sub_policy3/resample_0_0_7/conv2d/kernel", "shape": [1, 1, 40, 64], "dtype": "float32"}, {"name": "FeatureExtractor/fpn_cells/cell_0/sub_policy3/resample_0_0_7/conv2d/bias", "shape": [64], "dtype": "float32"}, {"name": "FeatureExtractor/fpn_cells/cell_0/sub_policy3/resample_1_1_7/conv2d/kernel", "shape": [1, 1, 112, 64], "dtype": "float32"}, {"name": "FeatureExtractor/fpn_cells/cell_0/sub_policy3/resample_1_1_7/conv2d/bias", "shape": [64], "dtype": "float32"}, {"name": "FeatureExtractor/fpn_cells/cell_0/sub_policy3/op_after_combine7/conv/depthwise_kernel", "shape": [3, 3, 64, 1], "dtype": "float32"}, {"name": "FeatureExtractor/fpn_cells/cell_0/sub_policy5/op_after_combine9/conv/depthwise_kernel", "shape": [3, 3, 64, 1], "dtype": "float32"}, {"name": "FeatureExtractor/detection_mnasfpn_v1_a_320_1/feature_network/fpn_cells/cell_1/sub_policy1/global_attention/Max/reduction_indices", "shape": [2], "dtype": "int32"}, {"name": "FeatureExtractor/fpn_cells/cell_1/sub_policy1/op_after_combine5/conv/depthwise_kernel", "shape": [3, 3, 64, 1], "dtype": "float32"}, {"name": "FeatureExtractor/fpn_cells/cell_0/sub_policy6/resample_0_0_10/conv2d/kernel", "shape": [1, 1, 40, 64], "dtype": "float32"}, {"name": "FeatureExtractor/fpn_cells/cell_0/sub_policy6/resample_0_0_10/conv2d/bias", "shape": [64], "dtype": "float32"}, {"name": "FeatureExtractor/fpn_cells/cell_0/sub_policy6/resample_1_1_10/conv2d/kernel", "shape": [1, 1, 112, 64], "dtype": "float32"}, {"name": "FeatureExtractor/fpn_cells/cell_0/sub_policy6/resample_1_1_10/conv2d/bias", "shape": [64], "dtype": "float32"}, {"name": "FeatureExtractor/detection_mnasfpn_v1_a_320_1/feature_network/fpn_cells/cell_0/sub_policy6/resample_1_1_10/nearest_upsampling/ArithmeticOptimizer/ReduceUpsamplingDims_Shape_Reshape_1", "shape": [4], "dtype": "int32"}, {"name": "FeatureExtractor/detection_mnasfpn_v1_a_320_1/feature_network/fpn_cells/cell_0/sub_policy6/resample_1_1_10/nearest_upsampling/ArithmeticOptimizer/ReduceUpsamplingDims_Multiples_Reshape_1", "shape": [4], "dtype": "int32"}, {"name": "FeatureExtractor/detection_mnasfpn_v1_a_320_1/feature_network/fpn_cells/cell_0/sub_policy6/resample_1_1_10/nearest_upsampling/Reshape_1/shape", "shape": [4], "dtype": "int32"}, {"name": "FeatureExtractor/detection_mnasfpn_v1_a_320_1/feature_network/fpn_cells/cell_0/sub_policy6/global_attention/Max/reduction_indices", "shape": [2], "dtype": "int32"}, {"name": "FeatureExtractor/fpn_cells/cell_0/sub_policy6/op_after_combine10/conv/depthwise_kernel", "shape": [3, 3, 64, 1], "dtype": "float32"}, {"name": "FeatureExtractor/fpn_cells/cell_1/sub_policy3/op_after_combine7/conv/depthwise_kernel", "shape": [3, 3, 64, 1], "dtype": "float32"}, {"name": "FeatureExtractor/fpn_cells/cell_1/sub_policy5/op_after_combine9/conv/depthwise_kernel", "shape": [3, 3, 64, 1], "dtype": "float32"}, {"name": "WeightSharedConvolutionalBoxPredictor_2/strided_slice_1/stack", "shape": [1], "dtype": "int32"}, {"name": "WeightSharedConvolutionalBoxPredictor_2/strided_slice_1/stack_1", "shape": [1], "dtype": "int32"}, {"name": "WeightSharedConvolutionalBoxPredictor_2/strided_slice_1/stack_2", "shape": [1], "dtype": "int32"}, {"name": "WeightSharedConvolutionalBoxPredictor_2/Reshape_2/shape/1", "shape": [], "dtype": "int32"}, {"name": "WeightSharedConvolutionalBoxPredictor_2/Reshape_2/shape/2", "shape": [], "dtype": "int32"}, {"name": "WeightSharedConvolutionalBoxPredictor/ClassPredictor/depthwise_weights", "shape": [3, 3, 64, 1], "dtype": "float32"}, {"name": "WeightSharedConvolutionalBoxPredictor/ClassPredictor/pointwise_weights", "shape": [1, 1, 64, 24], "dtype": "float32"}, {"name": "WeightSharedConvolutionalBoxPredictor/ClassPredictor/biases", "shape": [24], "dtype": "float32"}, {"name": "FeatureExtractor/fpn_cells/cell_0/sub_policy7/resample_0_1_11/conv2d/kernel", "shape": [1, 1, 112, 64], "dtype": "float32"}, {"name": "FeatureExtractor/fpn_cells/cell_0/sub_policy7/resample_0_1_11/conv2d/bias", "shape": [64], "dtype": "float32"}, {"name": "FeatureExtractor/fpn_cells/cell_0/sub_policy1/resample_0_1_5/conv2d/kernel", "shape": [1, 1, 112, 64], "dtype": "float32"}, {"name": "FeatureExtractor/fpn_cells/cell_0/sub_policy1/resample_0_1_5/conv2d/bias", "shape": [64], "dtype": "float32"}, {"name": "FeatureExtractor/fpn_cells/cell_0/sub_policy1/resample_1_2_5/conv2d/kernel", "shape": [1, 1, 320, 64], "dtype": "float32"}, {"name": "FeatureExtractor/fpn_cells/cell_0/sub_policy1/resample_1_2_5/conv2d/bias", "shape": [64], "dtype": "float32"}, {"name": "FeatureExtractor/detection_mnasfpn_v1_a_320_1/feature_network/fpn_cells/cell_0/sub_policy1/global_attention/Max/reduction_indices", "shape": [2], "dtype": "int32"}, {"name": "FeatureExtractor/fpn_cells/cell_0/sub_policy1/op_after_combine5/conv/depthwise_kernel", "shape": [3, 3, 64, 1], "dtype": "float32"}, {"name": "FeatureExtractor/detection_mnasfpn_v1_a_320_1/feature_network/fpn_cells/cell_0/sub_policy7/resample_1_5_11/nearest_upsampling/ArithmeticOptimizer/ReduceUpsamplingDims_Shape_Reshape_1", "shape": [4], "dtype": "int32"}, {"name": "FeatureExtractor/detection_mnasfpn_v1_a_320_1/feature_network/fpn_cells/cell_0/sub_policy7/resample_1_5_11/nearest_upsampling/ArithmeticOptimizer/ReduceUpsamplingDims_Multiples_Reshape_1", "shape": [4], "dtype": "int32"}, {"name": "FeatureExtractor/detection_mnasfpn_v1_a_320_1/feature_network/fpn_cells/cell_0/sub_policy7/resample_1_5_11/nearest_upsampling/Reshape_1/shape", "shape": [4], "dtype": "int32"}, {"name": "FeatureExtractor/fpn_cells/cell_0/sub_policy7/op_after_combine11/conv/depthwise_kernel", "shape": [3, 3, 64, 1], "dtype": "float32"}, {"name": "FeatureExtractor/fpn_cells/cell_0/sub_policy8/resample_0_1_12/conv2d/kernel", "shape": [1, 1, 112, 64], "dtype": "float32"}, {"name": "FeatureExtractor/fpn_cells/cell_0/sub_policy8/resample_0_1_12/conv2d/bias", "shape": [64], "dtype": "float32"}, {"name": "FeatureExtractor/detection_mnasfpn_v1_a_320_1/mnasnet-a1/mnas_net_model/mnas_blocks_14/se/Mean/reduction_indices", "shape": [2], "dtype": "int32"}, {"name": "FeatureExtractor/mnasnet-a1/mnas_blocks_14/se/conv2d/kernel", "shape": [1, 1, 960, 40], "dtype": "float32"}, {"name": "FeatureExtractor/mnasnet-a1/mnas_blocks_14/se/conv2d/bias", "shape": [40], "dtype": "float32"}, {"name": "FeatureExtractor/mnasnet-a1/mnas_blocks_14/se/conv2d_1/kernel", "shape": [1, 1, 40, 960], "dtype": "float32"}, {"name": "FeatureExtractor/mnasnet-a1/mnas_blocks_14/se/conv2d_1/bias", "shape": [960], "dtype": "float32"}, {"name": "FeatureExtractor/detection_mnasfpn_v1_a_320_1/mnasnet-a1/mnas_net_model/mnas_blocks_13/se/Mean/reduction_indices", "shape": [2], "dtype": "int32"}, {"name": "FeatureExtractor/mnasnet-a1/mnas_blocks_13/se/conv2d/kernel", "shape": [1, 1, 960, 40], "dtype": "float32"}, {"name": "FeatureExtractor/mnasnet-a1/mnas_blocks_13/se/conv2d/bias", "shape": [40], "dtype": "float32"}, {"name": "FeatureExtractor/mnasnet-a1/mnas_blocks_13/se/conv2d_1/kernel", "shape": [1, 1, 40, 960], "dtype": "float32"}, {"name": "FeatureExtractor/mnasnet-a1/mnas_blocks_13/se/conv2d_1/bias", "shape": [960], "dtype": "float32"}, {"name": "FeatureExtractor/detection_mnasfpn_v1_a_320_1/mnasnet-a1/mnas_net_model/mnas_blocks_12/se/Mean/reduction_indices", "shape": [2], "dtype": "int32"}, {"name": "FeatureExtractor/mnasnet-a1/mnas_blocks_12/se/conv2d/kernel", "shape": [1, 1, 672, 28], "dtype": "float32"}, {"name": "FeatureExtractor/mnasnet-a1/mnas_blocks_12/se/conv2d/bias", "shape": [28], "dtype": "float32"}, {"name": "FeatureExtractor/mnasnet-a1/mnas_blocks_12/se/conv2d_1/kernel", "shape": [1, 1, 28, 672], "dtype": "float32"}, {"name": "FeatureExtractor/mnasnet-a1/mnas_blocks_12/se/conv2d_1/bias", "shape": [672], "dtype": "float32"}, {"name": "FeatureExtractor/detection_mnasfpn_v1_a_320_1/mnasnet-a1/mnas_net_model/mnas_blocks_11/se/Mean/reduction_indices", "shape": [2], "dtype": "int32"}, {"name": "FeatureExtractor/mnasnet-a1/mnas_blocks_11/se/conv2d/kernel", "shape": [1, 1, 672, 28], "dtype": "float32"}, {"name": "FeatureExtractor/mnasnet-a1/mnas_blocks_11/se/conv2d/bias", "shape": [28], "dtype": "float32"}, {"name": "FeatureExtractor/mnasnet-a1/mnas_blocks_11/se/conv2d_1/kernel", "shape": [1, 1, 28, 672], "dtype": "float32"}, {"name": "FeatureExtractor/mnasnet-a1/mnas_blocks_11/se/conv2d_1/bias", "shape": [672], "dtype": "float32"}, {"name": "FeatureExtractor/detection_mnasfpn_v1_a_320_1/mnasnet-a1/mnas_net_model/mnas_blocks_10/se/Mean/reduction_indices", "shape": [2], "dtype": "int32"}, {"name": "FeatureExtractor/mnasnet-a1/mnas_blocks_10/se/conv2d/kernel", "shape": [1, 1, 480, 20], "dtype": "float32"}, {"name": "FeatureExtractor/mnasnet-a1/mnas_blocks_10/se/conv2d/bias", "shape": [20], "dtype": "float32"}, {"name": "FeatureExtractor/mnasnet-a1/mnas_blocks_10/se/conv2d_1/kernel", "shape": [1, 1, 20, 480], "dtype": "float32"}, {"name": "FeatureExtractor/mnasnet-a1/mnas_blocks_10/se/conv2d_1/bias", "shape": [480], "dtype": "float32"}, {"name": "FeatureExtractor/detection_mnasfpn_v1_a_320_1/mnasnet-a1/mnas_net_model/mnas_blocks_5/se/Mean/reduction_indices", "shape": [2], "dtype": "int32"}, {"name": "FeatureExtractor/mnasnet-a1/mnas_blocks_5/se/conv2d/kernel", "shape": [1, 1, 120, 10], "dtype": "float32"}, {"name": "FeatureExtractor/mnasnet-a1/mnas_blocks_5/se/conv2d/bias", "shape": [10], "dtype": "float32"}, {"name": "FeatureExtractor/mnasnet-a1/mnas_blocks_5/se/conv2d_1/kernel", "shape": [1, 1, 10, 120], "dtype": "float32"}, {"name": "FeatureExtractor/mnasnet-a1/mnas_blocks_5/se/conv2d_1/bias", "shape": [120], "dtype": "float32"}, {"name": "FeatureExtractor/detection_mnasfpn_v1_a_320_1/mnasnet-a1/mnas_net_model/mnas_blocks_4/se/Mean/reduction_indices", "shape": [2], "dtype": "int32"}, {"name": "FeatureExtractor/mnasnet-a1/mnas_blocks_4/se/conv2d/kernel", "shape": [1, 1, 120, 10], "dtype": "float32"}, {"name": "FeatureExtractor/mnasnet-a1/mnas_blocks_4/se/conv2d/bias", "shape": [10], "dtype": "float32"}, {"name": "FeatureExtractor/mnasnet-a1/mnas_blocks_4/se/conv2d_1/kernel", "shape": [1, 1, 10, 120], "dtype": "float32"}, {"name": "FeatureExtractor/mnasnet-a1/mnas_blocks_4/se/conv2d_1/bias", "shape": [120], "dtype": "float32"}, {"name": "FeatureExtractor/detection_mnasfpn_v1_a_320_1/mnasnet-a1/mnas_net_model/mnas_blocks_3/se/Mean/reduction_indices", "shape": [2], "dtype": "int32"}, {"name": "FeatureExtractor/mnasnet-a1/mnas_blocks_3/se/conv2d/kernel", "shape": [1, 1, 72, 6], "dtype": "float32"}, {"name": "FeatureExtractor/mnasnet-a1/mnas_blocks_3/se/conv2d/bias", "shape": [6], "dtype": "float32"}, {"name": "FeatureExtractor/mnasnet-a1/mnas_blocks_3/se/conv2d_1/kernel", "shape": [1, 1, 6, 72], "dtype": "float32"}, {"name": "FeatureExtractor/mnasnet-a1/mnas_blocks_3/se/conv2d_1/bias", "shape": [72], "dtype": "float32"}, {"name": "Preprocessor/map/TensorArrayStack/range/start", "shape": [], "dtype": "int32"}, {"name": "Preprocessor/map/TensorArrayStack/range/delta", "shape": [], "dtype": "int32"}, {"name": "Preprocessor/map/TensorArrayUnstack/range/start", "shape": [], "dtype": "int32"}, {"name": "Preprocessor/map/TensorArrayUnstack/strided_slice/stack", "shape": [1], "dtype": "int32"}, {"name": "Preprocessor/map/TensorArrayUnstack/strided_slice/stack_1", "shape": [1], "dtype": "int32"}, {"name": "Preprocessor/map/TensorArrayUnstack/strided_slice/stack_2", "shape": [1], "dtype": "int32"}, {"name": "Preprocessor/map/TensorArrayUnstack/range/delta", "shape": [], "dtype": "int32"}, {"name": "Preprocessor/map/Const", "shape": [], "dtype": "int32"}, {"name": "Preprocessor/map/while/iteration_counter", "shape": [], "dtype": "int32"}, {"name": "Preprocessor/mul/x", "shape": [], "dtype": "float32"}, {"name": "Preprocessor/sub/y", "shape": [], "dtype": "float32"}, {"name": "Preprocessor/map/strided_slice/stack", "shape": [1], "dtype": "int32"}, {"name": "Preprocessor/map/strided_slice/stack_1", "shape": [1], "dtype": "int32"}, {"name": "Preprocessor/map/strided_slice/stack_2", "shape": [1], "dtype": "int32"}, {"name": "FeatureExtractor/resample_p6/conv2d/kernel", "shape": [1, 1, 320, 64], "dtype": "float32"}, {"name": "FeatureExtractor/resample_p6/conv2d/bias", "shape": [64], "dtype": "float32"}, {"name": "FeatureExtractor/detection_mnasfpn_v1_a_320_1/feature_network/fpn_cells/cell_0/sub_policy8/global_attention/Max/reduction_indices", "shape": [2], "dtype": "int32"}, {"name": "FeatureExtractor/fpn_cells/cell_0/sub_policy8/op_after_combine12/conv/depthwise_kernel", "shape": [3, 3, 64, 1], "dtype": "float32"}, {"name": "FeatureExtractor/detection_mnasfpn_v1_a_320_1/feature_network/fpn_cells/cell_1/sub_policy8/global_attention/Max/reduction_indices", "shape": [2], "dtype": "int32"}, {"name": "FeatureExtractor/fpn_cells/cell_1/sub_policy8/op_after_combine12/conv/depthwise_kernel", "shape": [3, 3, 64, 1], "dtype": "float32"}, {"name": "WeightSharedConvolutionalBoxPredictor_3/strided_slice_1/stack", "shape": [1], "dtype": "int32"}, {"name": "WeightSharedConvolutionalBoxPredictor_3/strided_slice_1/stack_1", "shape": [1], "dtype": "int32"}, {"name": "WeightSharedConvolutionalBoxPredictor_3/strided_slice_1/stack_2", "shape": [1], "dtype": "int32"}, {"name": "WeightSharedConvolutionalBoxPredictor_3/Reshape_2/shape/1", "shape": [], "dtype": "int32"}, {"name": "WeightSharedConvolutionalBoxPredictor_3/Reshape_2/shape/2", "shape": [], "dtype": "int32"}, {"name": "concat_1/axis", "shape": [], "dtype": "int32"}, {"name": "map/Const", "shape": [], "dtype": "int32"}, {"name": "map/while/iteration_counter", "shape": [], "dtype": "int32"}, {"name": "encoded_image_string_tensor/input", "shape": [1], "dtype": "string"}, {"name": "FeatureExtractor/detection_mnasfpn_v1_a_320_1/mnasnet-a1/mnas_net_model/mnas_stem/conv2d/Conv2D_weights", "shape": [3, 3, 3, 32], "dtype": "float32"}, {"name": "FeatureExtractor/detection_mnasfpn_v1_a_320_1/mnasnet-a1/mnas_net_model/mnas_stem/conv2d/Conv2D_bn_offset", "shape": [32], "dtype": "float32"}, {"name": "FeatureExtractor/detection_mnasfpn_v1_a_320_1/mnasnet-a1/mnas_net_model/mnas_blocks_0/depthwise_conv2d/depthwise_weights", "shape": [3, 3, 32, 1], "dtype": "float32"}, {"name": "FeatureExtractor/detection_mnasfpn_v1_a_320_1/mnasnet-a1/mnas_net_model/mnas_blocks_0/depthwise_conv2d/depthwise_bn_offset", "shape": [32], "dtype": "float32"}, {"name": "FeatureExtractor/detection_mnasfpn_v1_a_320_1/mnasnet-a1/mnas_net_model/mnas_blocks_0/conv2d/Conv2D_weights", "shape": [1, 1, 32, 16], "dtype": "float32"}, {"name": "FeatureExtractor/detection_mnasfpn_v1_a_320_1/mnasnet-a1/mnas_net_model/mnas_blocks_0/conv2d/Conv2D_bn_offset", "shape": [16], "dtype": "float32"}, {"name": "FeatureExtractor/detection_mnasfpn_v1_a_320_1/mnasnet-a1/mnas_net_model/mnas_blocks_1/conv2d/Conv2D_weights", "shape": [1, 1, 16, 96], "dtype": "float32"}, {"name": "FeatureExtractor/detection_mnasfpn_v1_a_320_1/mnasnet-a1/mnas_net_model/mnas_blocks_1/conv2d/Conv2D_bn_offset", "shape": [96], "dtype": "float32"}, {"name": "FeatureExtractor/detection_mnasfpn_v1_a_320_1/mnasnet-a1/mnas_net_model/mnas_blocks_1/depthwise_conv2d/depthwise_weights", "shape": [3, 3, 96, 1], "dtype": "float32"}, {"name": "FeatureExtractor/detection_mnasfpn_v1_a_320_1/mnasnet-a1/mnas_net_model/mnas_blocks_1/depthwise_conv2d/depthwise_bn_offset", "shape": [96], "dtype": "float32"}, {"name": "FeatureExtractor/detection_mnasfpn_v1_a_320_1/mnasnet-a1/mnas_net_model/mnas_blocks_1/conv2d_1/Conv2D_weights", "shape": [1, 1, 96, 24], "dtype": "float32"}, {"name": "FeatureExtractor/detection_mnasfpn_v1_a_320_1/mnasnet-a1/mnas_net_model/mnas_blocks_1/conv2d_1/Conv2D_bn_offset", "shape": [24], "dtype": "float32"}, {"name": "FeatureExtractor/detection_mnasfpn_v1_a_320_1/mnasnet-a1/mnas_net_model/mnas_blocks_2/conv2d/Conv2D_weights", "shape": [1, 1, 24, 144], "dtype": "float32"}, {"name": "FeatureExtractor/detection_mnasfpn_v1_a_320_1/mnasnet-a1/mnas_net_model/mnas_blocks_2/conv2d/Conv2D_bn_offset", "shape": [144], "dtype": "float32"}, {"name": "FeatureExtractor/detection_mnasfpn_v1_a_320_1/mnasnet-a1/mnas_net_model/mnas_blocks_2/depthwise_conv2d/depthwise_weights", "shape": [3, 3, 144, 1], "dtype": "float32"}, {"name": "FeatureExtractor/detection_mnasfpn_v1_a_320_1/mnasnet-a1/mnas_net_model/mnas_blocks_2/depthwise_conv2d/depthwise_bn_offset", "shape": [144], "dtype": "float32"}, {"name": "FeatureExtractor/detection_mnasfpn_v1_a_320_1/mnasnet-a1/mnas_net_model/mnas_blocks_2/conv2d_1/Conv2D_weights", "shape": [1, 1, 144, 24], "dtype": "float32"}, {"name": "FeatureExtractor/detection_mnasfpn_v1_a_320_1/mnasnet-a1/mnas_net_model/mnas_blocks_2/conv2d_1/Conv2D_bn_offset", "shape": [24], "dtype": "float32"}, {"name": "FeatureExtractor/detection_mnasfpn_v1_a_320_1/mnasnet-a1/mnas_net_model/mnas_blocks_3/conv2d/Conv2D_weights", "shape": [1, 1, 24, 72], "dtype": "float32"}, {"name": "FeatureExtractor/detection_mnasfpn_v1_a_320_1/mnasnet-a1/mnas_net_model/mnas_blocks_3/conv2d/Conv2D_bn_offset", "shape": [72], "dtype": "float32"}, {"name": "FeatureExtractor/detection_mnasfpn_v1_a_320_1/mnasnet-a1/mnas_net_model/mnas_blocks_3/depthwise_conv2d/depthwise_weights", "shape": [5, 5, 72, 1], "dtype": "float32"}, {"name": "FeatureExtractor/detection_mnasfpn_v1_a_320_1/mnasnet-a1/mnas_net_model/mnas_blocks_3/depthwise_conv2d/depthwise_bn_offset", "shape": [72], "dtype": "float32"}, {"name": "FeatureExtractor/detection_mnasfpn_v1_a_320_1/feature_network/fpn_cells/cell_1/sub_policy0/op_after_combine4/conv/separable_conv2d_weights", "shape": [1, 1, 64, 64], "dtype": "float32"}, {"name": "FeatureExtractor/detection_mnasfpn_v1_a_320_1/mnasnet-a1/mnas_net_model/mnas_blocks_3/conv2d_1/Conv2D_weights", "shape": [1, 1, 72, 40], "dtype": "float32"}, {"name": "FeatureExtractor/detection_mnasfpn_v1_a_320_1/feature_network/fpn_cells/cell_1/sub_policy0/op_after_combine4/conv/separable_conv2d_bn_offset", "shape": [64], "dtype": "float32"}, {"name": "FeatureExtractor/detection_mnasfpn_v1_a_320_1/mnasnet-a1/mnas_net_model/mnas_blocks_3/conv2d_1/Conv2D_bn_offset", "shape": [40], "dtype": "float32"}, {"name": "FeatureExtractor/detection_mnasfpn_v1_a_320_1/mnasnet-a1/mnas_net_model/mnas_blocks_4/conv2d/Conv2D_weights", "shape": [1, 1, 40, 120], "dtype": "float32"}, {"name": "FeatureExtractor/detection_mnasfpn_v1_a_320_1/mnasnet-a1/mnas_net_model/mnas_blocks_4/conv2d/Conv2D_bn_offset", "shape": [120], "dtype": "float32"}, {"name": "FeatureExtractor/detection_mnasfpn_v1_a_320_1/mnasnet-a1/mnas_net_model/mnas_blocks_4/depthwise_conv2d/depthwise_weights", "shape": [5, 5, 120, 1], "dtype": "float32"}, {"name": "FeatureExtractor/detection_mnasfpn_v1_a_320_1/mnasnet-a1/mnas_net_model/mnas_blocks_4/depthwise_conv2d/depthwise_bn_offset", "shape": [120], "dtype": "float32"}, {"name": "FeatureExtractor/detection_mnasfpn_v1_a_320_1/mnasnet-a1/mnas_net_model/mnas_blocks_4/conv2d_1/Conv2D_weights", "shape": [1, 1, 120, 40], "dtype": "float32"}, {"name": "FeatureExtractor/detection_mnasfpn_v1_a_320_1/mnasnet-a1/mnas_net_model/mnas_blocks_4/conv2d_1/Conv2D_bn_offset", "shape": [40], "dtype": "float32"}, {"name": "FeatureExtractor/detection_mnasfpn_v1_a_320_1/mnasnet-a1/mnas_net_model/mnas_blocks_5/conv2d/Conv2D_weights", "shape": [1, 1, 40, 120], "dtype": "float32"}, {"name": "FeatureExtractor/detection_mnasfpn_v1_a_320_1/feature_network/fpn_cells/cell_1/sub_policy1/op_after_combine5/conv/separable_conv2d_weights", "shape": [1, 1, 64, 64], "dtype": "float32"}, {"name": "FeatureExtractor/detection_mnasfpn_v1_a_320_1/mnasnet-a1/mnas_net_model/mnas_blocks_5/conv2d/Conv2D_bn_offset", "shape": [120], "dtype": "float32"}, {"name": "FeatureExtractor/detection_mnasfpn_v1_a_320_1/mnasnet-a1/mnas_net_model/mnas_blocks_5/depthwise_conv2d/depthwise_weights", "shape": [5, 5, 120, 1], "dtype": "float32"}, {"name": "FeatureExtractor/detection_mnasfpn_v1_a_320_1/mnasnet-a1/mnas_net_model/mnas_blocks_5/depthwise_conv2d/depthwise_bn_offset", "shape": [120], "dtype": "float32"}, {"name": "FeatureExtractor/detection_mnasfpn_v1_a_320_1/feature_network/fpn_cells/cell_1/sub_policy1/op_after_combine5/conv/separable_conv2d_bn_offset", "shape": [64], "dtype": "float32"}, {"name": "FeatureExtractor/detection_mnasfpn_v1_a_320_1/mnasnet-a1/mnas_net_model/mnas_blocks_5/conv2d_1/Conv2D_weights", "shape": [1, 1, 120, 40], "dtype": "float32"}, {"name": "FeatureExtractor/detection_mnasfpn_v1_a_320_1/mnasnet-a1/mnas_net_model/mnas_blocks_5/conv2d_1/Conv2D_bn_offset", "shape": [40], "dtype": "float32"}, {"name": "FeatureExtractor/detection_mnasfpn_v1_a_320_1/mnasnet-a1/mnas_net_model/mnas_blocks_6/conv2d/Conv2D_weights", "shape": [1, 1, 40, 240], "dtype": "float32"}, {"name": "FeatureExtractor/detection_mnasfpn_v1_a_320_1/mnasnet-a1/mnas_net_model/mnas_blocks_6/conv2d/Conv2D_bn_offset", "shape": [240], "dtype": "float32"}, {"name": "FeatureExtractor/detection_mnasfpn_v1_a_320_1/feature_network/fpn_cells/cell_1/sub_policy2/op_after_combine6/conv/separable_conv2d_weights", "shape": [1, 1, 64, 64], "dtype": "float32"}, {"name": "FeatureExtractor/detection_mnasfpn_v1_a_320_1/mnasnet-a1/mnas_net_model/mnas_blocks_6/depthwise_conv2d/depthwise_weights", "shape": [3, 3, 240, 1], "dtype": "float32"}, {"name": "FeatureExtractor/detection_mnasfpn_v1_a_320_1/mnasnet-a1/mnas_net_model/mnas_blocks_6/depthwise_conv2d/depthwise_bn_offset", "shape": [240], "dtype": "float32"}, {"name": "FeatureExtractor/detection_mnasfpn_v1_a_320_1/mnasnet-a1/mnas_net_model/mnas_blocks_6/conv2d_1/Conv2D_weights", "shape": [1, 1, 240, 80], "dtype": "float32"}, {"name": "FeatureExtractor/detection_mnasfpn_v1_a_320_1/mnasnet-a1/mnas_net_model/mnas_blocks_6/conv2d_1/Conv2D_bn_offset", "shape": [80], "dtype": "float32"}, {"name": "FeatureExtractor/detection_mnasfpn_v1_a_320_1/mnasnet-a1/mnas_net_model/mnas_blocks_7/conv2d/Conv2D_weights", "shape": [1, 1, 80, 480], "dtype": "float32"}, {"name": "FeatureExtractor/detection_mnasfpn_v1_a_320_1/feature_network/fpn_cells/cell_1/sub_policy2/op_after_combine6/conv/separable_conv2d_bn_offset", "shape": [64], "dtype": "float32"}, {"name": "FeatureExtractor/detection_mnasfpn_v1_a_320_1/mnasnet-a1/mnas_net_model/mnas_blocks_7/conv2d/Conv2D_bn_offset", "shape": [480], "dtype": "float32"}, {"name": "FeatureExtractor/detection_mnasfpn_v1_a_320_1/mnasnet-a1/mnas_net_model/mnas_blocks_7/depthwise_conv2d/depthwise_weights", "shape": [3, 3, 480, 1], "dtype": "float32"}, {"name": "FeatureExtractor/detection_mnasfpn_v1_a_320_1/mnasnet-a1/mnas_net_model/mnas_blocks_7/depthwise_conv2d/depthwise_bn_offset", "shape": [480], "dtype": "float32"}, {"name": "FeatureExtractor/detection_mnasfpn_v1_a_320_1/mnasnet-a1/mnas_net_model/mnas_blocks_7/conv2d_1/Conv2D_weights", "shape": [1, 1, 480, 80], "dtype": "float32"}, {"name": "FeatureExtractor/detection_mnasfpn_v1_a_320_1/mnasnet-a1/mnas_net_model/mnas_blocks_7/conv2d_1/Conv2D_bn_offset", "shape": [80], "dtype": "float32"}, {"name": "FeatureExtractor/detection_mnasfpn_v1_a_320_1/mnasnet-a1/mnas_net_model/mnas_blocks_8/conv2d/Conv2D_weights", "shape": [1, 1, 80, 480], "dtype": "float32"}, {"name": "FeatureExtractor/detection_mnasfpn_v1_a_320_1/mnasnet-a1/mnas_net_model/mnas_blocks_8/conv2d/Conv2D_bn_offset", "shape": [480], "dtype": "float32"}, {"name": "FeatureExtractor/detection_mnasfpn_v1_a_320_1/mnasnet-a1/mnas_net_model/mnas_blocks_8/depthwise_conv2d/depthwise_weights", "shape": [3, 3, 480, 1], "dtype": "float32"}, {"name": "FeatureExtractor/detection_mnasfpn_v1_a_320_1/mnasnet-a1/mnas_net_model/mnas_blocks_8/depthwise_conv2d/depthwise_bn_offset", "shape": [480], "dtype": "float32"}, {"name": "FeatureExtractor/detection_mnasfpn_v1_a_320_1/mnasnet-a1/mnas_net_model/mnas_blocks_8/conv2d_1/Conv2D_weights", "shape": [1, 1, 480, 80], "dtype": "float32"}, {"name": "FeatureExtractor/detection_mnasfpn_v1_a_320_1/mnasnet-a1/mnas_net_model/mnas_blocks_8/conv2d_1/Conv2D_bn_offset", "shape": [80], "dtype": "float32"}, {"name": "FeatureExtractor/detection_mnasfpn_v1_a_320_1/mnasnet-a1/mnas_net_model/mnas_blocks_9/conv2d/Conv2D_weights", "shape": [1, 1, 80, 480], "dtype": "float32"}, {"name": "FeatureExtractor/detection_mnasfpn_v1_a_320_1/feature_network/fpn_cells/cell_1/sub_policy7/op_after_combine11/conv/separable_conv2d_weights", "shape": [1, 1, 64, 64], "dtype": "float32"}, {"name": "FeatureExtractor/detection_mnasfpn_v1_a_320_1/mnasnet-a1/mnas_net_model/mnas_blocks_9/conv2d/Conv2D_bn_offset", "shape": [480], "dtype": "float32"}, {"name": "FeatureExtractor/detection_mnasfpn_v1_a_320_1/mnasnet-a1/mnas_net_model/mnas_blocks_9/depthwise_conv2d/depthwise_weights", "shape": [3, 3, 480, 1], "dtype": "float32"}, {"name": "FeatureExtractor/detection_mnasfpn_v1_a_320_1/mnasnet-a1/mnas_net_model/mnas_blocks_9/depthwise_conv2d/depthwise_bn_offset", "shape": [480], "dtype": "float32"}, {"name": "FeatureExtractor/detection_mnasfpn_v1_a_320_1/mnasnet-a1/mnas_net_model/mnas_blocks_9/conv2d_1/Conv2D_weights", "shape": [1, 1, 480, 80], "dtype": "float32"}, {"name": "FeatureExtractor/detection_mnasfpn_v1_a_320_1/feature_network/fpn_cells/cell_1/sub_policy7/op_after_combine11/conv/separable_conv2d_bn_offset", "shape": [64], "dtype": "float32"}, {"name": "FeatureExtractor/detection_mnasfpn_v1_a_320_1/mnasnet-a1/mnas_net_model/mnas_blocks_9/conv2d_1/Conv2D_bn_offset", "shape": [80], "dtype": "float32"}, {"name": "FeatureExtractor/detection_mnasfpn_v1_a_320_1/mnasnet-a1/mnas_net_model/mnas_blocks_10/conv2d/Conv2D_weights", "shape": [1, 1, 80, 480], "dtype": "float32"}, {"name": "FeatureExtractor/detection_mnasfpn_v1_a_320_1/mnasnet-a1/mnas_net_model/mnas_blocks_10/conv2d/Conv2D_bn_offset", "shape": [480], "dtype": "float32"}, {"name": "FeatureExtractor/detection_mnasfpn_v1_a_320_1/mnasnet-a1/mnas_net_model/mnas_blocks_10/depthwise_conv2d/depthwise_weights", "shape": [3, 3, 480, 1], "dtype": "float32"}, {"name": "FeatureExtractor/detection_mnasfpn_v1_a_320_1/mnasnet-a1/mnas_net_model/mnas_blocks_10/depthwise_conv2d/depthwise_bn_offset", "shape": [480], "dtype": "float32"}, {"name": "FeatureExtractor/detection_mnasfpn_v1_a_320_1/mnasnet-a1/mnas_net_model/mnas_blocks_10/conv2d_1/Conv2D_weights", "shape": [1, 1, 480, 112], "dtype": "float32"}, {"name": "FeatureExtractor/detection_mnasfpn_v1_a_320_1/mnasnet-a1/mnas_net_model/mnas_blocks_10/conv2d_1/Conv2D_bn_offset", "shape": [112], "dtype": "float32"}, {"name": "FeatureExtractor/detection_mnasfpn_v1_a_320_1/mnasnet-a1/mnas_net_model/mnas_blocks_11/conv2d/Conv2D_weights", "shape": [1, 1, 112, 672], "dtype": "float32"}, {"name": "FeatureExtractor/detection_mnasfpn_v1_a_320_1/mnasnet-a1/mnas_net_model/mnas_blocks_11/conv2d/Conv2D_bn_offset", "shape": [672], "dtype": "float32"}, {"name": "FeatureExtractor/detection_mnasfpn_v1_a_320_1/mnasnet-a1/mnas_net_model/mnas_blocks_11/depthwise_conv2d/depthwise_weights", "shape": [3, 3, 672, 1], "dtype": "float32"}, {"name": "FeatureExtractor/detection_mnasfpn_v1_a_320_1/mnasnet-a1/mnas_net_model/mnas_blocks_11/depthwise_conv2d/depthwise_bn_offset", "shape": [672], "dtype": "float32"}, {"name": "FeatureExtractor/detection_mnasfpn_v1_a_320_1/mnasnet-a1/mnas_net_model/mnas_blocks_11/conv2d_1/Conv2D_weights", "shape": [1, 1, 672, 112], "dtype": "float32"}, {"name": "FeatureExtractor/detection_mnasfpn_v1_a_320_1/mnasnet-a1/mnas_net_model/mnas_blocks_11/conv2d_1/Conv2D_bn_offset", "shape": [112], "dtype": "float32"}, {"name": "FeatureExtractor/detection_mnasfpn_v1_a_320_1/feature_network/fpn_cells/cell_1/sub_policy4/op_after_combine8/conv/separable_conv2d_weights", "shape": [1, 1, 64, 64], "dtype": "float32"}, {"name": "FeatureExtractor/detection_mnasfpn_v1_a_320_1/mnasnet-a1/mnas_net_model/mnas_blocks_12/conv2d/Conv2D_weights", "shape": [1, 1, 112, 672], "dtype": "float32"}, {"name": "FeatureExtractor/detection_mnasfpn_v1_a_320_1/feature_network/fpn_cells/cell_1/sub_policy4/op_after_combine8/conv/separable_conv2d_bn_offset", "shape": [64], "dtype": "float32"}, {"name": "FeatureExtractor/detection_mnasfpn_v1_a_320_1/mnasnet-a1/mnas_net_model/mnas_blocks_12/conv2d/Conv2D_bn_offset", "shape": [672], "dtype": "float32"}, {"name": "FeatureExtractor/detection_mnasfpn_v1_a_320_1/mnasnet-a1/mnas_net_model/mnas_blocks_12/depthwise_conv2d/depthwise_weights", "shape": [5, 5, 672, 1], "dtype": "float32"}, {"name": "FeatureExtractor/detection_mnasfpn_v1_a_320_1/mnasnet-a1/mnas_net_model/mnas_blocks_12/depthwise_conv2d/depthwise_bn_offset", "shape": [672], "dtype": "float32"}, {"name": "FeatureExtractor/detection_mnasfpn_v1_a_320_1/feature_network/fpn_cells/cell_0/sub_policy3/op_after_combine7/conv/separable_conv2d_weights", "shape": [1, 1, 64, 64], "dtype": "float32"}, {"name": "FeatureExtractor/detection_mnasfpn_v1_a_320_1/feature_network/fpn_cells/cell_0/sub_policy3/op_after_combine7/conv/separable_conv2d_bn_offset", "shape": [64], "dtype": "float32"}, {"name": "FeatureExtractor/detection_mnasfpn_v1_a_320_1/feature_network/fpn_cells/cell_0/sub_policy6/op_after_combine10/conv/separable_conv2d_weights", "shape": [1, 1, 64, 64], "dtype": "float32"}, {"name": "FeatureExtractor/detection_mnasfpn_v1_a_320_1/feature_network/fpn_cells/cell_0/sub_policy6/op_after_combine10/conv/separable_conv2d_bn_offset", "shape": [64], "dtype": "float32"}, {"name": "FeatureExtractor/detection_mnasfpn_v1_a_320_1/mnasnet-a1/mnas_net_model/mnas_blocks_12/conv2d_1/Conv2D_weights", "shape": [1, 1, 672, 160], "dtype": "float32"}, {"name": "FeatureExtractor/detection_mnasfpn_v1_a_320_1/feature_network/fpn_cells/cell_1/sub_policy5/op_after_combine9/conv/separable_conv2d_weights", "shape": [1, 1, 64, 64], "dtype": "float32"}, {"name": "FeatureExtractor/detection_mnasfpn_v1_a_320_1/mnasnet-a1/mnas_net_model/mnas_blocks_12/conv2d_1/Conv2D_bn_offset", "shape": [160], "dtype": "float32"}, {"name": "FeatureExtractor/detection_mnasfpn_v1_a_320_1/mnasnet-a1/mnas_net_model/mnas_blocks_13/conv2d/Conv2D_weights", "shape": [1, 1, 160, 960], "dtype": "float32"}, {"name": "FeatureExtractor/detection_mnasfpn_v1_a_320_1/mnasnet-a1/mnas_net_model/mnas_blocks_13/conv2d/Conv2D_bn_offset", "shape": [960], "dtype": "float32"}, {"name": "FeatureExtractor/detection_mnasfpn_v1_a_320_1/feature_network/fpn_cells/cell_1/sub_policy5/op_after_combine9/conv/separable_conv2d_bn_offset", "shape": [64], "dtype": "float32"}, {"name": "FeatureExtractor/detection_mnasfpn_v1_a_320_1/mnasnet-a1/mnas_net_model/mnas_blocks_13/depthwise_conv2d/depthwise_weights", "shape": [5, 5, 960, 1], "dtype": "float32"}, {"name": "FeatureExtractor/detection_mnasfpn_v1_a_320_1/mnasnet-a1/mnas_net_model/mnas_blocks_13/depthwise_conv2d/depthwise_bn_offset", "shape": [960], "dtype": "float32"}, {"name": "FeatureExtractor/detection_mnasfpn_v1_a_320_1/mnasnet-a1/mnas_net_model/mnas_blocks_13/conv2d_1/Conv2D_weights", "shape": [1, 1, 960, 160], "dtype": "float32"}, {"name": "FeatureExtractor/detection_mnasfpn_v1_a_320_1/mnasnet-a1/mnas_net_model/mnas_blocks_13/conv2d_1/Conv2D_bn_offset", "shape": [160], "dtype": "float32"}, {"name": "FeatureExtractor/detection_mnasfpn_v1_a_320_1/mnasnet-a1/mnas_net_model/mnas_blocks_14/conv2d/Conv2D_weights", "shape": [1, 1, 160, 960], "dtype": "float32"}, {"name": "FeatureExtractor/detection_mnasfpn_v1_a_320_1/mnasnet-a1/mnas_net_model/mnas_blocks_14/conv2d/Conv2D_bn_offset", "shape": [960], "dtype": "float32"}, {"name": "FeatureExtractor/detection_mnasfpn_v1_a_320_1/mnasnet-a1/mnas_net_model/mnas_blocks_14/depthwise_conv2d/depthwise_weights", "shape": [5, 5, 960, 1], "dtype": "float32"}, {"name": "FeatureExtractor/detection_mnasfpn_v1_a_320_1/mnasnet-a1/mnas_net_model/mnas_blocks_14/depthwise_conv2d/depthwise_bn_offset", "shape": [960], "dtype": "float32"}, {"name": "FeatureExtractor/detection_mnasfpn_v1_a_320_1/mnasnet-a1/mnas_net_model/mnas_blocks_14/conv2d_1/Conv2D_weights", "shape": [1, 1, 960, 160], "dtype": "float32"}, {"name": "FeatureExtractor/detection_mnasfpn_v1_a_320_1/mnasnet-a1/mnas_net_model/mnas_blocks_14/conv2d_1/Conv2D_bn_offset", "shape": [160], "dtype": "float32"}, {"name": "FeatureExtractor/detection_mnasfpn_v1_a_320_1/mnasnet-a1/mnas_net_model/mnas_blocks_15/conv2d/Conv2D_weights", "shape": [1, 1, 160, 960], "dtype": "float32"}, {"name": "FeatureExtractor/detection_mnasfpn_v1_a_320_1/mnasnet-a1/mnas_net_model/mnas_blocks_15/conv2d/Conv2D_bn_offset", "shape": [960], "dtype": "float32"}, {"name": "FeatureExtractor/detection_mnasfpn_v1_a_320_1/mnasnet-a1/mnas_net_model/mnas_blocks_15/depthwise_conv2d/depthwise_weights", "shape": [3, 3, 960, 1], "dtype": "float32"}, {"name": "FeatureExtractor/detection_mnasfpn_v1_a_320_1/mnasnet-a1/mnas_net_model/mnas_blocks_15/depthwise_conv2d/depthwise_bn_offset", "shape": [960], "dtype": "float32"}, {"name": "FeatureExtractor/detection_mnasfpn_v1_a_320_1/mnasnet-a1/mnas_net_model/mnas_blocks_15/conv2d_1/Conv2D_weights", "shape": [1, 1, 960, 320], "dtype": "float32"}, {"name": "FeatureExtractor/detection_mnasfpn_v1_a_320_1/mnasnet-a1/mnas_net_model/mnas_blocks_15/conv2d_1/Conv2D_bn_offset", "shape": [320], "dtype": "float32"}, {"name": "FeatureExtractor/detection_mnasfpn_v1_a_320_1/feature_network/fpn_cells/cell_0/sub_policy1/op_after_combine5/conv/separable_conv2d_weights", "shape": [1, 1, 64, 64], "dtype": "float32"}, {"name": "FeatureExtractor/detection_mnasfpn_v1_a_320_1/feature_network/fpn_cells/cell_0/sub_policy1/op_after_combine5/conv/separable_conv2d_bn_offset", "shape": [64], "dtype": "float32"}, {"name": "FeatureExtractor/detection_mnasfpn_v1_a_320_1/feature_network/fpn_cells/cell_0/sub_policy0/op_after_combine4/conv/separable_conv2d_weights", "shape": [1, 1, 64, 64], "dtype": "float32"}, {"name": "FeatureExtractor/detection_mnasfpn_v1_a_320_1/feature_network/fpn_cells/cell_0/sub_policy0/op_after_combine4/conv/separable_conv2d_bn_offset", "shape": [64], "dtype": "float32"}, {"name": "FeatureExtractor/detection_mnasfpn_v1_a_320_1/feature_network/fpn_cells/cell_0/sub_policy8/op_after_combine12/conv/separable_conv2d_weights", "shape": [1, 1, 64, 64], "dtype": "float32"}, {"name": "FeatureExtractor/detection_mnasfpn_v1_a_320_1/feature_network/fpn_cells/cell_0/sub_policy8/op_after_combine12/conv/separable_conv2d_bn_offset", "shape": [64], "dtype": "float32"}, {"name": "FeatureExtractor/detection_mnasfpn_v1_a_320_1/feature_network/fpn_cells/cell_0/sub_policy2/op_after_combine6/conv/separable_conv2d_weights", "shape": [1, 1, 64, 64], "dtype": "float32"}, {"name": "FeatureExtractor/detection_mnasfpn_v1_a_320_1/feature_network/fpn_cells/cell_0/sub_policy2/op_after_combine6/conv/separable_conv2d_bn_offset", "shape": [64], "dtype": "float32"}, {"name": "FeatureExtractor/detection_mnasfpn_v1_a_320_1/feature_network/fpn_cells/cell_0/sub_policy7/op_after_combine11/conv/separable_conv2d_weights", "shape": [1, 1, 64, 64], "dtype": "float32"}, {"name": "FeatureExtractor/detection_mnasfpn_v1_a_320_1/feature_network/fpn_cells/cell_0/sub_policy7/op_after_combine11/conv/separable_conv2d_bn_offset", "shape": [64], "dtype": "float32"}, {"name": "FeatureExtractor/detection_mnasfpn_v1_a_320_1/feature_network/fpn_cells/cell_0/sub_policy4/op_after_combine8/conv/separable_conv2d_weights", "shape": [1, 1, 64, 64], "dtype": "float32"}, {"name": "FeatureExtractor/detection_mnasfpn_v1_a_320_1/feature_network/fpn_cells/cell_0/sub_policy4/op_after_combine8/conv/separable_conv2d_bn_offset", "shape": [64], "dtype": "float32"}, {"name": "FeatureExtractor/detection_mnasfpn_v1_a_320_1/feature_network/fpn_cells/cell_1/sub_policy3/op_after_combine7/conv/separable_conv2d_weights", "shape": [1, 1, 64, 64], "dtype": "float32"}, {"name": "FeatureExtractor/detection_mnasfpn_v1_a_320_1/feature_network/fpn_cells/cell_1/sub_policy3/op_after_combine7/conv/separable_conv2d_bn_offset", "shape": [64], "dtype": "float32"}, {"name": "FeatureExtractor/detection_mnasfpn_v1_a_320_1/feature_network/fpn_cells/cell_1/sub_policy8/op_after_combine12/conv/separable_conv2d_weights", "shape": [1, 1, 64, 64], "dtype": "float32"}, {"name": "FeatureExtractor/detection_mnasfpn_v1_a_320_1/feature_network/fpn_cells/cell_1/sub_policy8/op_after_combine12/conv/separable_conv2d_bn_offset", "shape": [64], "dtype": "float32"}, {"name": "FeatureExtractor/detection_mnasfpn_v1_a_320_1/feature_network/fpn_cells/cell_1/sub_policy6/op_after_combine10/conv/separable_conv2d_weights", "shape": [1, 1, 64, 64], "dtype": "float32"}, {"name": "FeatureExtractor/detection_mnasfpn_v1_a_320_1/feature_network/fpn_cells/cell_1/sub_policy6/op_after_combine10/conv/separable_conv2d_bn_offset", "shape": [64], "dtype": "float32"}, {"name": "FeatureExtractor/detection_mnasfpn_v1_a_320_1/feature_network/fpn_cells/cell_0/sub_policy5/op_after_combine9/conv/separable_conv2d_weights", "shape": [1, 1, 64, 64], "dtype": "float32"}, {"name": "FeatureExtractor/detection_mnasfpn_v1_a_320_1/feature_network/fpn_cells/cell_0/sub_policy5/op_after_combine9/conv/separable_conv2d_bn_offset", "shape": [64], "dtype": "float32"}, {"name": "map/TensorArrayStack/range", "shape": [1], "dtype": "int32"}, {"name": "map/TensorArrayUnstack/range", "shape": [1], "dtype": "int32"}, {"name": "map/strided_slice", "shape": [], "dtype": "int32"}, {"name": "ConstantFolding/map/strided_slice_enter", "shape": [], "dtype": "int32"}, {"name": "map/while/add/y", "shape": [], "dtype": "int32"}, {"name": "map/while/add_1/y", "shape": [], "dtype": "int32"}, {"name": "Preprocessor/map/while/ResizeImage/resize/ExpandDims/dim", "shape": [], "dtype": "int32"}, {"name": "Preprocessor/map/while/ResizeImage/stack", "shape": [2], "dtype": "int32"}, {"name": "Preprocessor/map/while/add/y", "shape": [], "dtype": "int32"}, {"name": "Preprocessor/map/while/add_1/y", "shape": [], "dtype": "int32"}, {"name": "Const_2", "shape": [2], "dtype": "string"}, {"name": "index_to_string/Size", "shape": [], "dtype": "int32"}, {"name": "index_to_string/range/start", "shape": [], "dtype": "int32"}, {"name": "index_to_string/range/delta", "shape": [], "dtype": "int32"}]}]}